{"format": "layers-model", "generatedBy": "keras v2.3.1", "convertedBy": "TensorFlow.js Converter v2.0.1.post1", "modelTopology": {"keras_version": "2.3.1", "backend": "tensorflow", "model_config": {"class_name": "Model", "config": {"name": "retinanet", "layers": [{"name": "input_1", "class_name": "InputLayer", "config": {"batch_input_shape": [null, 128, 128, 3], "dtype": "float32", "sparse": false, "name": "input_1"}, "inbound_nodes": []}, {"name": "padding_conv1", "class_name": "ZeroPadding2D", "config": {"name": "padding_conv1", "trainable": true, "dtype": "float32", "padding": [[3, 3], [3, 3]], "data_format": "channels_last"}, "inbound_nodes": [[["input_1", 0, 0, {}]]]}, {"name": "conv1", "class_name": "Conv2D", "config": {"name": "conv1", "trainable": true, "dtype": "float32", "filters": 64, "kernel_size": [7, 7], "strides": [2, 2], "padding": "valid", "data_format": "channels_last", "dilation_rate": [1, 1], "activation": "linear", "use_bias": false, "kernel_initializer": {"class_name": "VarianceScaling", "config": {"scale": 1.0, "mode": "fan_avg", "distribution": "uniform", "seed": null}}, "bias_initializer": {"class_name": "Zeros", "config": {}}, "kernel_regularizer": null, "bias_regularizer": null, "activity_regularizer": null, "kernel_constraint": null, "bias_constraint": null}, "inbound_nodes": [[["padding_conv1", 0, 0, {}]]]}, {"name": "bn_conv1", "class_name": "BatchNormalization", "config": {"name": "bn_conv1", "trainable": true, "dtype": "float32", "axis": 3, "momentum": 0.99, "epsilon": 1e-05, "center": true, "scale": true, "beta_initializer": {"class_name": "Zeros", "config": {}}, "gamma_initializer": {"class_name": "Ones", "config": {}}, "moving_mean_initializer": {"class_name": "Zeros", "config": {}}, "moving_variance_initializer": {"class_name": "Ones", "config": {}}, "beta_regularizer": null, "gamma_regularizer": null, "beta_constraint": null, "gamma_constraint": null, "freeze": false}, "inbound_nodes": [[["conv1", 0, 0, {}]]]}, {"name": "conv1_relu", "class_name": "Activation", "config": {"name": "conv1_relu", "trainable": true, "dtype": "float32", "activation": "relu"}, "inbound_nodes": [[["bn_conv1", 0, 0, {}]]]}, {"name": "pool1", "class_name": "MaxPooling2D", "config": {"name": "pool1", "trainable": true, "dtype": "float32", "pool_size": [3, 3], "padding": "same", "strides": [2, 2], "data_format": "channels_last"}, "inbound_nodes": [[["conv1_relu", 0, 0, {}]]]}, {"name": "padding2a_branch2a", "class_name": "ZeroPadding2D", "config": {"name": "padding2a_branch2a", "trainable": true, "dtype": "float32", "padding": [[1, 1], [1, 1]], "data_format": "channels_last"}, "inbound_nodes": [[["pool1", 0, 0, {}]]]}, {"name": "res2a_branch2a", "class_name": "Conv2D", "config": {"name": "res2a_branch2a", "trainable": true, "dtype": "float32", "filters": 64, "kernel_size": [3, 3], "strides": [1, 1], "padding": "valid", "data_format": "channels_last", "dilation_rate": [1, 1], "activation": "linear", "use_bias": false, "kernel_initializer": {"class_name": "VarianceScaling", "config": {"scale": 2.0, "mode": "fan_in", "distribution": "normal", "seed": null}}, "bias_initializer": {"class_name": "Zeros", "config": {}}, "kernel_regularizer": null, "bias_regularizer": null, "activity_regularizer": null, "kernel_constraint": null, "bias_constraint": null}, "inbound_nodes": [[["padding2a_branch2a", 0, 0, {}]]]}, {"name": "bn2a_branch2a", "class_name": "BatchNormalization", "config": {"name": "bn2a_branch2a", "trainable": true, "dtype": "float32", "axis": 3, "momentum": 0.99, "epsilon": 1e-05, "center": true, "scale": true, "beta_initializer": {"class_name": "Zeros", "config": {}}, "gamma_initializer": {"class_name": "Ones", "config": {}}, "moving_mean_initializer": {"class_name": "Zeros", "config": {}}, "moving_variance_initializer": {"class_name": "Ones", "config": {}}, "beta_regularizer": null, "gamma_regularizer": null, "beta_constraint": null, "gamma_constraint": null, "freeze": false}, "inbound_nodes": [[["res2a_branch2a", 0, 0, {}]]]}, {"name": "res2a_branch2a_relu", "class_name": "Activation", "config": {"name": "res2a_branch2a_relu", "trainable": true, "dtype": "float32", "activation": "relu"}, "inbound_nodes": [[["bn2a_branch2a", 0, 0, {}]]]}, {"name": "padding2a_branch2b", "class_name": "ZeroPadding2D", "config": {"name": "padding2a_branch2b", "trainable": true, "dtype": "float32", "padding": [[1, 1], [1, 1]], "data_format": "channels_last"}, "inbound_nodes": [[["res2a_branch2a_relu", 0, 0, {}]]]}, {"name": "res2a_branch2b", "class_name": "Conv2D", "config": {"name": "res2a_branch2b", "trainable": true, "dtype": "float32", "filters": 64, "kernel_size": [3, 3], "strides": [1, 1], "padding": "valid", "data_format": "channels_last", "dilation_rate": [1, 1], "activation": "linear", "use_bias": false, "kernel_initializer": {"class_name": "VarianceScaling", "config": {"scale": 2.0, "mode": "fan_in", "distribution": "normal", "seed": null}}, "bias_initializer": {"class_name": "Zeros", "config": {}}, "kernel_regularizer": null, "bias_regularizer": null, "activity_regularizer": null, "kernel_constraint": null, "bias_constraint": null}, "inbound_nodes": [[["padding2a_branch2b", 0, 0, {}]]]}, {"name": "res2a_branch1", "class_name": "Conv2D", "config": {"name": "res2a_branch1", "trainable": true, "dtype": "float32", "filters": 64, "kernel_size": [1, 1], "strides": [1, 1], "padding": "valid", "data_format": "channels_last", "dilation_rate": [1, 1], "activation": "linear", "use_bias": false, "kernel_initializer": {"class_name": "VarianceScaling", "config": {"scale": 2.0, "mode": "fan_in", "distribution": "normal", "seed": null}}, "bias_initializer": {"class_name": "Zeros", "config": {}}, "kernel_regularizer": null, "bias_regularizer": null, "activity_regularizer": null, "kernel_constraint": null, "bias_constraint": null}, "inbound_nodes": [[["pool1", 0, 0, {}]]]}, {"name": "bn2a_branch2b", "class_name": "BatchNormalization", "config": {"name": "bn2a_branch2b", "trainable": true, "dtype": "float32", "axis": 3, "momentum": 0.99, "epsilon": 1e-05, "center": true, "scale": true, "beta_initializer": {"class_name": "Zeros", "config": {}}, "gamma_initializer": {"class_name": "Ones", "config": {}}, "moving_mean_initializer": {"class_name": "Zeros", "config": {}}, "moving_variance_initializer": {"class_name": "Ones", "config": {}}, "beta_regularizer": null, "gamma_regularizer": null, "beta_constraint": null, "gamma_constraint": null, "freeze": false}, "inbound_nodes": [[["res2a_branch2b", 0, 0, {}]]]}, {"name": "bn2a_branch1", "class_name": "BatchNormalization", "config": {"name": "bn2a_branch1", "trainable": true, "dtype": "float32", "axis": 3, "momentum": 0.99, "epsilon": 1e-05, "center": true, "scale": true, "beta_initializer": {"class_name": "Zeros", "config": {}}, "gamma_initializer": {"class_name": "Ones", "config": {}}, "moving_mean_initializer": {"class_name": "Zeros", "config": {}}, "moving_variance_initializer": {"class_name": "Ones", "config": {}}, "beta_regularizer": null, "gamma_regularizer": null, "beta_constraint": null, "gamma_constraint": null, "freeze": false}, "inbound_nodes": [[["res2a_branch1", 0, 0, {}]]]}, {"name": "res2a", "class_name": "Add", "config": {"name": "res2a", "trainable": true, "dtype": "float32"}, "inbound_nodes": [[["bn2a_branch2b", 0, 0, {}], ["bn2a_branch1", 0, 0, {}]]]}, {"name": "res2a_relu", "class_name": "Activation", "config": {"name": "res2a_relu", "trainable": true, "dtype": "float32", "activation": "relu"}, "inbound_nodes": [[["res2a", 0, 0, {}]]]}, {"name": "padding2b1_branch2a", "class_name": "ZeroPadding2D", "config": {"name": "padding2b1_branch2a", "trainable": true, "dtype": "float32", "padding": [[1, 1], [1, 1]], "data_format": "channels_last"}, "inbound_nodes": [[["res2a_relu", 0, 0, {}]]]}, {"name": "res2b1_branch2a", "class_name": "Conv2D", "config": {"name": "res2b1_branch2a", "trainable": true, "dtype": "float32", "filters": 64, "kernel_size": [3, 3], "strides": [1, 1], "padding": "valid", "data_format": "channels_last", "dilation_rate": [1, 1], "activation": "linear", "use_bias": false, "kernel_initializer": {"class_name": "VarianceScaling", "config": {"scale": 2.0, "mode": "fan_in", "distribution": "normal", "seed": null}}, "bias_initializer": {"class_name": "Zeros", "config": {}}, "kernel_regularizer": null, "bias_regularizer": null, "activity_regularizer": null, "kernel_constraint": null, "bias_constraint": null}, "inbound_nodes": [[["padding2b1_branch2a", 0, 0, {}]]]}, {"name": "bn2b1_branch2a", "class_name": "BatchNormalization", "config": {"name": "bn2b1_branch2a", "trainable": true, "dtype": "float32", "axis": 3, "momentum": 0.99, "epsilon": 1e-05, "center": true, "scale": true, "beta_initializer": {"class_name": "Zeros", "config": {}}, "gamma_initializer": {"class_name": "Ones", "config": {}}, "moving_mean_initializer": {"class_name": "Zeros", "config": {}}, "moving_variance_initializer": {"class_name": "Ones", "config": {}}, "beta_regularizer": null, "gamma_regularizer": null, "beta_constraint": null, "gamma_constraint": null, "freeze": false}, "inbound_nodes": [[["res2b1_branch2a", 0, 0, {}]]]}, {"name": "res2b1_branch2a_relu", "class_name": "Activation", "config": {"name": "res2b1_branch2a_relu", "trainable": true, "dtype": "float32", "activation": "relu"}, "inbound_nodes": [[["bn2b1_branch2a", 0, 0, {}]]]}, {"name": "padding2b1_branch2b", "class_name": "ZeroPadding2D", "config": {"name": "padding2b1_branch2b", "trainable": true, "dtype": "float32", "padding": [[1, 1], [1, 1]], "data_format": "channels_last"}, "inbound_nodes": [[["res2b1_branch2a_relu", 0, 0, {}]]]}, {"name": "res2b1_branch2b", "class_name": "Conv2D", "config": {"name": "res2b1_branch2b", "trainable": true, "dtype": "float32", "filters": 64, "kernel_size": [3, 3], "strides": [1, 1], "padding": "valid", "data_format": "channels_last", "dilation_rate": [1, 1], "activation": "linear", "use_bias": false, "kernel_initializer": {"class_name": "VarianceScaling", "config": {"scale": 2.0, "mode": "fan_in", "distribution": "normal", "seed": null}}, "bias_initializer": {"class_name": "Zeros", "config": {}}, "kernel_regularizer": null, "bias_regularizer": null, "activity_regularizer": null, "kernel_constraint": null, "bias_constraint": null}, "inbound_nodes": [[["padding2b1_branch2b", 0, 0, {}]]]}, {"name": "bn2b1_branch2b", "class_name": "BatchNormalization", "config": {"name": "bn2b1_branch2b", "trainable": true, "dtype": "float32", "axis": 3, "momentum": 0.99, "epsilon": 1e-05, "center": true, "scale": true, "beta_initializer": {"class_name": "Zeros", "config": {}}, "gamma_initializer": {"class_name": "Ones", "config": {}}, "moving_mean_initializer": {"class_name": "Zeros", "config": {}}, "moving_variance_initializer": {"class_name": "Ones", "config": {}}, "beta_regularizer": null, "gamma_regularizer": null, "beta_constraint": null, "gamma_constraint": null, "freeze": false}, "inbound_nodes": [[["res2b1_branch2b", 0, 0, {}]]]}, {"name": "res2b1", "class_name": "Add", "config": {"name": "res2b1", "trainable": true, "dtype": "float32"}, "inbound_nodes": [[["bn2b1_branch2b", 0, 0, {}], ["res2a_relu", 0, 0, {}]]]}, {"name": "res2b1_relu", "class_name": "Activation", "config": {"name": "res2b1_relu", "trainable": true, "dtype": "float32", "activation": "relu"}, "inbound_nodes": [[["res2b1", 0, 0, {}]]]}, {"name": "padding3a_branch2a", "class_name": "ZeroPadding2D", "config": {"name": "padding3a_branch2a", "trainable": true, "dtype": "float32", "padding": [[1, 1], [1, 1]], "data_format": "channels_last"}, "inbound_nodes": [[["res2b1_relu", 0, 0, {}]]]}, {"name": "res3a_branch2a", "class_name": "Conv2D", "config": {"name": "res3a_branch2a", "trainable": true, "dtype": "float32", "filters": 128, "kernel_size": [3, 3], "strides": [2, 2], "padding": "valid", "data_format": "channels_last", "dilation_rate": [1, 1], "activation": "linear", "use_bias": false, "kernel_initializer": {"class_name": "VarianceScaling", "config": {"scale": 2.0, "mode": "fan_in", "distribution": "normal", "seed": null}}, "bias_initializer": {"class_name": "Zeros", "config": {}}, "kernel_regularizer": null, "bias_regularizer": null, "activity_regularizer": null, "kernel_constraint": null, "bias_constraint": null}, "inbound_nodes": [[["padding3a_branch2a", 0, 0, {}]]]}, {"name": "bn3a_branch2a", "class_name": "BatchNormalization", "config": {"name": "bn3a_branch2a", "trainable": true, "dtype": "float32", "axis": 3, "momentum": 0.99, "epsilon": 1e-05, "center": true, "scale": true, "beta_initializer": {"class_name": "Zeros", "config": {}}, "gamma_initializer": {"class_name": "Ones", "config": {}}, "moving_mean_initializer": {"class_name": "Zeros", "config": {}}, "moving_variance_initializer": {"class_name": "Ones", "config": {}}, "beta_regularizer": null, "gamma_regularizer": null, "beta_constraint": null, "gamma_constraint": null, "freeze": false}, "inbound_nodes": [[["res3a_branch2a", 0, 0, {}]]]}, {"name": "res3a_branch2a_relu", "class_name": "Activation", "config": {"name": "res3a_branch2a_relu", "trainable": true, "dtype": "float32", "activation": "relu"}, "inbound_nodes": [[["bn3a_branch2a", 0, 0, {}]]]}, {"name": "padding3a_branch2b", "class_name": "ZeroPadding2D", "config": {"name": "padding3a_branch2b", "trainable": true, "dtype": "float32", "padding": [[1, 1], [1, 1]], "data_format": "channels_last"}, "inbound_nodes": [[["res3a_branch2a_relu", 0, 0, {}]]]}, {"name": "res3a_branch2b", "class_name": "Conv2D", "config": {"name": "res3a_branch2b", "trainable": true, "dtype": "float32", "filters": 128, "kernel_size": [3, 3], "strides": [1, 1], "padding": "valid", "data_format": "channels_last", "dilation_rate": [1, 1], "activation": "linear", "use_bias": false, "kernel_initializer": {"class_name": "VarianceScaling", "config": {"scale": 2.0, "mode": "fan_in", "distribution": "normal", "seed": null}}, "bias_initializer": {"class_name": "Zeros", "config": {}}, "kernel_regularizer": null, "bias_regularizer": null, "activity_regularizer": null, "kernel_constraint": null, "bias_constraint": null}, "inbound_nodes": [[["padding3a_branch2b", 0, 0, {}]]]}, {"name": "res3a_branch1", "class_name": "Conv2D", "config": {"name": "res3a_branch1", "trainable": true, "dtype": "float32", "filters": 128, "kernel_size": [1, 1], "strides": [2, 2], "padding": "valid", "data_format": "channels_last", "dilation_rate": [1, 1], "activation": "linear", "use_bias": false, "kernel_initializer": {"class_name": "VarianceScaling", "config": {"scale": 2.0, "mode": "fan_in", "distribution": "normal", "seed": null}}, "bias_initializer": {"class_name": "Zeros", "config": {}}, "kernel_regularizer": null, "bias_regularizer": null, "activity_regularizer": null, "kernel_constraint": null, "bias_constraint": null}, "inbound_nodes": [[["res2b1_relu", 0, 0, {}]]]}, {"name": "bn3a_branch2b", "class_name": "BatchNormalization", "config": {"name": "bn3a_branch2b", "trainable": true, "dtype": "float32", "axis": 3, "momentum": 0.99, "epsilon": 1e-05, "center": true, "scale": true, "beta_initializer": {"class_name": "Zeros", "config": {}}, "gamma_initializer": {"class_name": "Ones", "config": {}}, "moving_mean_initializer": {"class_name": "Zeros", "config": {}}, "moving_variance_initializer": {"class_name": "Ones", "config": {}}, "beta_regularizer": null, "gamma_regularizer": null, "beta_constraint": null, "gamma_constraint": null, "freeze": false}, "inbound_nodes": [[["res3a_branch2b", 0, 0, {}]]]}, {"name": "bn3a_branch1", "class_name": "BatchNormalization", "config": {"name": "bn3a_branch1", "trainable": true, "dtype": "float32", "axis": 3, "momentum": 0.99, "epsilon": 1e-05, "center": true, "scale": true, "beta_initializer": {"class_name": "Zeros", "config": {}}, "gamma_initializer": {"class_name": "Ones", "config": {}}, "moving_mean_initializer": {"class_name": "Zeros", "config": {}}, "moving_variance_initializer": {"class_name": "Ones", "config": {}}, "beta_regularizer": null, "gamma_regularizer": null, "beta_constraint": null, "gamma_constraint": null, "freeze": false}, "inbound_nodes": [[["res3a_branch1", 0, 0, {}]]]}, {"name": "res3a", "class_name": "Add", "config": {"name": "res3a", "trainable": true, "dtype": "float32"}, "inbound_nodes": [[["bn3a_branch2b", 0, 0, {}], ["bn3a_branch1", 0, 0, {}]]]}, {"name": "res3a_relu", "class_name": "Activation", "config": {"name": "res3a_relu", "trainable": true, "dtype": "float32", "activation": "relu"}, "inbound_nodes": [[["res3a", 0, 0, {}]]]}, {"name": "padding3b1_branch2a", "class_name": "ZeroPadding2D", "config": {"name": "padding3b1_branch2a", "trainable": true, "dtype": "float32", "padding": [[1, 1], [1, 1]], "data_format": "channels_last"}, "inbound_nodes": [[["res3a_relu", 0, 0, {}]]]}, {"name": "res3b1_branch2a", "class_name": "Conv2D", "config": {"name": "res3b1_branch2a", "trainable": true, "dtype": "float32", "filters": 128, "kernel_size": [3, 3], "strides": [1, 1], "padding": "valid", "data_format": "channels_last", "dilation_rate": [1, 1], "activation": "linear", "use_bias": false, "kernel_initializer": {"class_name": "VarianceScaling", "config": {"scale": 2.0, "mode": "fan_in", "distribution": "normal", "seed": null}}, "bias_initializer": {"class_name": "Zeros", "config": {}}, "kernel_regularizer": null, "bias_regularizer": null, "activity_regularizer": null, "kernel_constraint": null, "bias_constraint": null}, "inbound_nodes": [[["padding3b1_branch2a", 0, 0, {}]]]}, {"name": "bn3b1_branch2a", "class_name": "BatchNormalization", "config": {"name": "bn3b1_branch2a", "trainable": true, "dtype": "float32", "axis": 3, "momentum": 0.99, "epsilon": 1e-05, "center": true, "scale": true, "beta_initializer": {"class_name": "Zeros", "config": {}}, "gamma_initializer": {"class_name": "Ones", "config": {}}, "moving_mean_initializer": {"class_name": "Zeros", "config": {}}, "moving_variance_initializer": {"class_name": "Ones", "config": {}}, "beta_regularizer": null, "gamma_regularizer": null, "beta_constraint": null, "gamma_constraint": null, "freeze": false}, "inbound_nodes": [[["res3b1_branch2a", 0, 0, {}]]]}, {"name": "res3b1_branch2a_relu", "class_name": "Activation", "config": {"name": "res3b1_branch2a_relu", "trainable": true, "dtype": "float32", "activation": "relu"}, "inbound_nodes": [[["bn3b1_branch2a", 0, 0, {}]]]}, {"name": "padding3b1_branch2b", "class_name": "ZeroPadding2D", "config": {"name": "padding3b1_branch2b", "trainable": true, "dtype": "float32", "padding": [[1, 1], [1, 1]], "data_format": "channels_last"}, "inbound_nodes": [[["res3b1_branch2a_relu", 0, 0, {}]]]}, {"name": "res3b1_branch2b", "class_name": "Conv2D", "config": {"name": "res3b1_branch2b", "trainable": true, "dtype": "float32", "filters": 128, "kernel_size": [3, 3], "strides": [1, 1], "padding": "valid", "data_format": "channels_last", "dilation_rate": [1, 1], "activation": "linear", "use_bias": false, "kernel_initializer": {"class_name": "VarianceScaling", "config": {"scale": 2.0, "mode": "fan_in", "distribution": "normal", "seed": null}}, "bias_initializer": {"class_name": "Zeros", "config": {}}, "kernel_regularizer": null, "bias_regularizer": null, "activity_regularizer": null, "kernel_constraint": null, "bias_constraint": null}, "inbound_nodes": [[["padding3b1_branch2b", 0, 0, {}]]]}, {"name": "bn3b1_branch2b", "class_name": "BatchNormalization", "config": {"name": "bn3b1_branch2b", "trainable": true, "dtype": "float32", "axis": 3, "momentum": 0.99, "epsilon": 1e-05, "center": true, "scale": true, "beta_initializer": {"class_name": "Zeros", "config": {}}, "gamma_initializer": {"class_name": "Ones", "config": {}}, "moving_mean_initializer": {"class_name": "Zeros", "config": {}}, "moving_variance_initializer": {"class_name": "Ones", "config": {}}, "beta_regularizer": null, "gamma_regularizer": null, "beta_constraint": null, "gamma_constraint": null, "freeze": false}, "inbound_nodes": [[["res3b1_branch2b", 0, 0, {}]]]}, {"name": "res3b1", "class_name": "Add", "config": {"name": "res3b1", "trainable": true, "dtype": "float32"}, "inbound_nodes": [[["bn3b1_branch2b", 0, 0, {}], ["res3a_relu", 0, 0, {}]]]}, {"name": "res3b1_relu", "class_name": "Activation", "config": {"name": "res3b1_relu", "trainable": true, "dtype": "float32", "activation": "relu"}, "inbound_nodes": [[["res3b1", 0, 0, {}]]]}, {"name": "padding4a_branch2a", "class_name": "ZeroPadding2D", "config": {"name": "padding4a_branch2a", "trainable": true, "dtype": "float32", "padding": [[1, 1], [1, 1]], "data_format": "channels_last"}, "inbound_nodes": [[["res3b1_relu", 0, 0, {}]]]}, {"name": "res4a_branch2a", "class_name": "Conv2D", "config": {"name": "res4a_branch2a", "trainable": true, "dtype": "float32", "filters": 256, "kernel_size": [3, 3], "strides": [2, 2], "padding": "valid", "data_format": "channels_last", "dilation_rate": [1, 1], "activation": "linear", "use_bias": false, "kernel_initializer": {"class_name": "VarianceScaling", "config": {"scale": 2.0, "mode": "fan_in", "distribution": "normal", "seed": null}}, "bias_initializer": {"class_name": "Zeros", "config": {}}, "kernel_regularizer": null, "bias_regularizer": null, "activity_regularizer": null, "kernel_constraint": null, "bias_constraint": null}, "inbound_nodes": [[["padding4a_branch2a", 0, 0, {}]]]}, {"name": "bn4a_branch2a", "class_name": "BatchNormalization", "config": {"name": "bn4a_branch2a", "trainable": true, "dtype": "float32", "axis": 3, "momentum": 0.99, "epsilon": 1e-05, "center": true, "scale": true, "beta_initializer": {"class_name": "Zeros", "config": {}}, "gamma_initializer": {"class_name": "Ones", "config": {}}, "moving_mean_initializer": {"class_name": "Zeros", "config": {}}, "moving_variance_initializer": {"class_name": "Ones", "config": {}}, "beta_regularizer": null, "gamma_regularizer": null, "beta_constraint": null, "gamma_constraint": null, "freeze": false}, "inbound_nodes": [[["res4a_branch2a", 0, 0, {}]]]}, {"name": "res4a_branch2a_relu", "class_name": "Activation", "config": {"name": "res4a_branch2a_relu", "trainable": true, "dtype": "float32", "activation": "relu"}, "inbound_nodes": [[["bn4a_branch2a", 0, 0, {}]]]}, {"name": "padding4a_branch2b", "class_name": "ZeroPadding2D", "config": {"name": "padding4a_branch2b", "trainable": true, "dtype": "float32", "padding": [[1, 1], [1, 1]], "data_format": "channels_last"}, "inbound_nodes": [[["res4a_branch2a_relu", 0, 0, {}]]]}, {"name": "res4a_branch2b", "class_name": "Conv2D", "config": {"name": "res4a_branch2b", "trainable": true, "dtype": "float32", "filters": 256, "kernel_size": [3, 3], "strides": [1, 1], "padding": "valid", "data_format": "channels_last", "dilation_rate": [1, 1], "activation": "linear", "use_bias": false, "kernel_initializer": {"class_name": "VarianceScaling", "config": {"scale": 2.0, "mode": "fan_in", "distribution": "normal", "seed": null}}, "bias_initializer": {"class_name": "Zeros", "config": {}}, "kernel_regularizer": null, "bias_regularizer": null, "activity_regularizer": null, "kernel_constraint": null, "bias_constraint": null}, "inbound_nodes": [[["padding4a_branch2b", 0, 0, {}]]]}, {"name": "res4a_branch1", "class_name": "Conv2D", "config": {"name": "res4a_branch1", "trainable": true, "dtype": "float32", "filters": 256, "kernel_size": [1, 1], "strides": [2, 2], "padding": "valid", "data_format": "channels_last", "dilation_rate": [1, 1], "activation": "linear", "use_bias": false, "kernel_initializer": {"class_name": "VarianceScaling", "config": {"scale": 2.0, "mode": "fan_in", "distribution": "normal", "seed": null}}, "bias_initializer": {"class_name": "Zeros", "config": {}}, "kernel_regularizer": null, "bias_regularizer": null, "activity_regularizer": null, "kernel_constraint": null, "bias_constraint": null}, "inbound_nodes": [[["res3b1_relu", 0, 0, {}]]]}, {"name": "bn4a_branch2b", "class_name": "BatchNormalization", "config": {"name": "bn4a_branch2b", "trainable": true, "dtype": "float32", "axis": 3, "momentum": 0.99, "epsilon": 1e-05, "center": true, "scale": true, "beta_initializer": {"class_name": "Zeros", "config": {}}, "gamma_initializer": {"class_name": "Ones", "config": {}}, "moving_mean_initializer": {"class_name": "Zeros", "config": {}}, "moving_variance_initializer": {"class_name": "Ones", "config": {}}, "beta_regularizer": null, "gamma_regularizer": null, "beta_constraint": null, "gamma_constraint": null, "freeze": false}, "inbound_nodes": [[["res4a_branch2b", 0, 0, {}]]]}, {"name": "bn4a_branch1", "class_name": "BatchNormalization", "config": {"name": "bn4a_branch1", "trainable": true, "dtype": "float32", "axis": 3, "momentum": 0.99, "epsilon": 1e-05, "center": true, "scale": true, "beta_initializer": {"class_name": "Zeros", "config": {}}, "gamma_initializer": {"class_name": "Ones", "config": {}}, "moving_mean_initializer": {"class_name": "Zeros", "config": {}}, "moving_variance_initializer": {"class_name": "Ones", "config": {}}, "beta_regularizer": null, "gamma_regularizer": null, "beta_constraint": null, "gamma_constraint": null, "freeze": false}, "inbound_nodes": [[["res4a_branch1", 0, 0, {}]]]}, {"name": "res4a", "class_name": "Add", "config": {"name": "res4a", "trainable": true, "dtype": "float32"}, "inbound_nodes": [[["bn4a_branch2b", 0, 0, {}], ["bn4a_branch1", 0, 0, {}]]]}, {"name": "res4a_relu", "class_name": "Activation", "config": {"name": "res4a_relu", "trainable": true, "dtype": "float32", "activation": "relu"}, "inbound_nodes": [[["res4a", 0, 0, {}]]]}, {"name": "padding4b1_branch2a", "class_name": "ZeroPadding2D", "config": {"name": "padding4b1_branch2a", "trainable": true, "dtype": "float32", "padding": [[1, 1], [1, 1]], "data_format": "channels_last"}, "inbound_nodes": [[["res4a_relu", 0, 0, {}]]]}, {"name": "res4b1_branch2a", "class_name": "Conv2D", "config": {"name": "res4b1_branch2a", "trainable": true, "dtype": "float32", "filters": 256, "kernel_size": [3, 3], "strides": [1, 1], "padding": "valid", "data_format": "channels_last", "dilation_rate": [1, 1], "activation": "linear", "use_bias": false, "kernel_initializer": {"class_name": "VarianceScaling", "config": {"scale": 2.0, "mode": "fan_in", "distribution": "normal", "seed": null}}, "bias_initializer": {"class_name": "Zeros", "config": {}}, "kernel_regularizer": null, "bias_regularizer": null, "activity_regularizer": null, "kernel_constraint": null, "bias_constraint": null}, "inbound_nodes": [[["padding4b1_branch2a", 0, 0, {}]]]}, {"name": "bn4b1_branch2a", "class_name": "BatchNormalization", "config": {"name": "bn4b1_branch2a", "trainable": true, "dtype": "float32", "axis": 3, "momentum": 0.99, "epsilon": 1e-05, "center": true, "scale": true, "beta_initializer": {"class_name": "Zeros", "config": {}}, "gamma_initializer": {"class_name": "Ones", "config": {}}, "moving_mean_initializer": {"class_name": "Zeros", "config": {}}, "moving_variance_initializer": {"class_name": "Ones", "config": {}}, "beta_regularizer": null, "gamma_regularizer": null, "beta_constraint": null, "gamma_constraint": null, "freeze": false}, "inbound_nodes": [[["res4b1_branch2a", 0, 0, {}]]]}, {"name": "res4b1_branch2a_relu", "class_name": "Activation", "config": {"name": "res4b1_branch2a_relu", "trainable": true, "dtype": "float32", "activation": "relu"}, "inbound_nodes": [[["bn4b1_branch2a", 0, 0, {}]]]}, {"name": "padding4b1_branch2b", "class_name": "ZeroPadding2D", "config": {"name": "padding4b1_branch2b", "trainable": true, "dtype": "float32", "padding": [[1, 1], [1, 1]], "data_format": "channels_last"}, "inbound_nodes": [[["res4b1_branch2a_relu", 0, 0, {}]]]}, {"name": "res4b1_branch2b", "class_name": "Conv2D", "config": {"name": "res4b1_branch2b", "trainable": true, "dtype": "float32", "filters": 256, "kernel_size": [3, 3], "strides": [1, 1], "padding": "valid", "data_format": "channels_last", "dilation_rate": [1, 1], "activation": "linear", "use_bias": false, "kernel_initializer": {"class_name": "VarianceScaling", "config": {"scale": 2.0, "mode": "fan_in", "distribution": "normal", "seed": null}}, "bias_initializer": {"class_name": "Zeros", "config": {}}, "kernel_regularizer": null, "bias_regularizer": null, "activity_regularizer": null, "kernel_constraint": null, "bias_constraint": null}, "inbound_nodes": [[["padding4b1_branch2b", 0, 0, {}]]]}, {"name": "bn4b1_branch2b", "class_name": "BatchNormalization", "config": {"name": "bn4b1_branch2b", "trainable": true, "dtype": "float32", "axis": 3, "momentum": 0.99, "epsilon": 1e-05, "center": true, "scale": true, "beta_initializer": {"class_name": "Zeros", "config": {}}, "gamma_initializer": {"class_name": "Ones", "config": {}}, "moving_mean_initializer": {"class_name": "Zeros", "config": {}}, "moving_variance_initializer": {"class_name": "Ones", "config": {}}, "beta_regularizer": null, "gamma_regularizer": null, "beta_constraint": null, "gamma_constraint": null, "freeze": false}, "inbound_nodes": [[["res4b1_branch2b", 0, 0, {}]]]}, {"name": "res4b1", "class_name": "Add", "config": {"name": "res4b1", "trainable": true, "dtype": "float32"}, "inbound_nodes": [[["bn4b1_branch2b", 0, 0, {}], ["res4a_relu", 0, 0, {}]]]}, {"name": "res4b1_relu", "class_name": "Activation", "config": {"name": "res4b1_relu", "trainable": true, "dtype": "float32", "activation": "relu"}, "inbound_nodes": [[["res4b1", 0, 0, {}]]]}, {"name": "padding5a_branch2a", "class_name": "ZeroPadding2D", "config": {"name": "padding5a_branch2a", "trainable": true, "dtype": "float32", "padding": [[1, 1], [1, 1]], "data_format": "channels_last"}, "inbound_nodes": [[["res4b1_relu", 0, 0, {}]]]}, {"name": "res5a_branch2a", "class_name": "Conv2D", "config": {"name": "res5a_branch2a", "trainable": true, "dtype": "float32", "filters": 512, "kernel_size": [3, 3], "strides": [2, 2], "padding": "valid", "data_format": "channels_last", "dilation_rate": [1, 1], "activation": "linear", "use_bias": false, "kernel_initializer": {"class_name": "VarianceScaling", "config": {"scale": 2.0, "mode": "fan_in", "distribution": "normal", "seed": null}}, "bias_initializer": {"class_name": "Zeros", "config": {}}, "kernel_regularizer": null, "bias_regularizer": null, "activity_regularizer": null, "kernel_constraint": null, "bias_constraint": null}, "inbound_nodes": [[["padding5a_branch2a", 0, 0, {}]]]}, {"name": "bn5a_branch2a", "class_name": "BatchNormalization", "config": {"name": "bn5a_branch2a", "trainable": true, "dtype": "float32", "axis": 3, "momentum": 0.99, "epsilon": 1e-05, "center": true, "scale": true, "beta_initializer": {"class_name": "Zeros", "config": {}}, "gamma_initializer": {"class_name": "Ones", "config": {}}, "moving_mean_initializer": {"class_name": "Zeros", "config": {}}, "moving_variance_initializer": {"class_name": "Ones", "config": {}}, "beta_regularizer": null, "gamma_regularizer": null, "beta_constraint": null, "gamma_constraint": null, "freeze": false}, "inbound_nodes": [[["res5a_branch2a", 0, 0, {}]]]}, {"name": "res5a_branch2a_relu", "class_name": "Activation", "config": {"name": "res5a_branch2a_relu", "trainable": true, "dtype": "float32", "activation": "relu"}, "inbound_nodes": [[["bn5a_branch2a", 0, 0, {}]]]}, {"name": "padding5a_branch2b", "class_name": "ZeroPadding2D", "config": {"name": "padding5a_branch2b", "trainable": true, "dtype": "float32", "padding": [[1, 1], [1, 1]], "data_format": "channels_last"}, "inbound_nodes": [[["res5a_branch2a_relu", 0, 0, {}]]]}, {"name": "res5a_branch2b", "class_name": "Conv2D", "config": {"name": "res5a_branch2b", "trainable": true, "dtype": "float32", "filters": 512, "kernel_size": [3, 3], "strides": [1, 1], "padding": "valid", "data_format": "channels_last", "dilation_rate": [1, 1], "activation": "linear", "use_bias": false, "kernel_initializer": {"class_name": "VarianceScaling", "config": {"scale": 2.0, "mode": "fan_in", "distribution": "normal", "seed": null}}, "bias_initializer": {"class_name": "Zeros", "config": {}}, "kernel_regularizer": null, "bias_regularizer": null, "activity_regularizer": null, "kernel_constraint": null, "bias_constraint": null}, "inbound_nodes": [[["padding5a_branch2b", 0, 0, {}]]]}, {"name": "res5a_branch1", "class_name": "Conv2D", "config": {"name": "res5a_branch1", "trainable": true, "dtype": "float32", "filters": 512, "kernel_size": [1, 1], "strides": [2, 2], "padding": "valid", "data_format": "channels_last", "dilation_rate": [1, 1], "activation": "linear", "use_bias": false, "kernel_initializer": {"class_name": "VarianceScaling", "config": {"scale": 2.0, "mode": "fan_in", "distribution": "normal", "seed": null}}, "bias_initializer": {"class_name": "Zeros", "config": {}}, "kernel_regularizer": null, "bias_regularizer": null, "activity_regularizer": null, "kernel_constraint": null, "bias_constraint": null}, "inbound_nodes": [[["res4b1_relu", 0, 0, {}]]]}, {"name": "bn5a_branch2b", "class_name": "BatchNormalization", "config": {"name": "bn5a_branch2b", "trainable": true, "dtype": "float32", "axis": 3, "momentum": 0.99, "epsilon": 1e-05, "center": true, "scale": true, "beta_initializer": {"class_name": "Zeros", "config": {}}, "gamma_initializer": {"class_name": "Ones", "config": {}}, "moving_mean_initializer": {"class_name": "Zeros", "config": {}}, "moving_variance_initializer": {"class_name": "Ones", "config": {}}, "beta_regularizer": null, "gamma_regularizer": null, "beta_constraint": null, "gamma_constraint": null, "freeze": false}, "inbound_nodes": [[["res5a_branch2b", 0, 0, {}]]]}, {"name": "bn5a_branch1", "class_name": "BatchNormalization", "config": {"name": "bn5a_branch1", "trainable": true, "dtype": "float32", "axis": 3, "momentum": 0.99, "epsilon": 1e-05, "center": true, "scale": true, "beta_initializer": {"class_name": "Zeros", "config": {}}, "gamma_initializer": {"class_name": "Ones", "config": {}}, "moving_mean_initializer": {"class_name": "Zeros", "config": {}}, "moving_variance_initializer": {"class_name": "Ones", "config": {}}, "beta_regularizer": null, "gamma_regularizer": null, "beta_constraint": null, "gamma_constraint": null, "freeze": false}, "inbound_nodes": [[["res5a_branch1", 0, 0, {}]]]}, {"name": "res5a", "class_name": "Add", "config": {"name": "res5a", "trainable": true, "dtype": "float32"}, "inbound_nodes": [[["bn5a_branch2b", 0, 0, {}], ["bn5a_branch1", 0, 0, {}]]]}, {"name": "res5a_relu", "class_name": "Activation", "config": {"name": "res5a_relu", "trainable": true, "dtype": "float32", "activation": "relu"}, "inbound_nodes": [[["res5a", 0, 0, {}]]]}, {"name": "padding5b1_branch2a", "class_name": "ZeroPadding2D", "config": {"name": "padding5b1_branch2a", "trainable": true, "dtype": "float32", "padding": [[1, 1], [1, 1]], "data_format": "channels_last"}, "inbound_nodes": [[["res5a_relu", 0, 0, {}]]]}, {"name": "res5b1_branch2a", "class_name": "Conv2D", "config": {"name": "res5b1_branch2a", "trainable": true, "dtype": "float32", "filters": 512, "kernel_size": [3, 3], "strides": [1, 1], "padding": "valid", "data_format": "channels_last", "dilation_rate": [1, 1], "activation": "linear", "use_bias": false, "kernel_initializer": {"class_name": "VarianceScaling", "config": {"scale": 2.0, "mode": "fan_in", "distribution": "normal", "seed": null}}, "bias_initializer": {"class_name": "Zeros", "config": {}}, "kernel_regularizer": null, "bias_regularizer": null, "activity_regularizer": null, "kernel_constraint": null, "bias_constraint": null}, "inbound_nodes": [[["padding5b1_branch2a", 0, 0, {}]]]}, {"name": "bn5b1_branch2a", "class_name": "BatchNormalization", "config": {"name": "bn5b1_branch2a", "trainable": true, "dtype": "float32", "axis": 3, "momentum": 0.99, "epsilon": 1e-05, "center": true, "scale": true, "beta_initializer": {"class_name": "Zeros", "config": {}}, "gamma_initializer": {"class_name": "Ones", "config": {}}, "moving_mean_initializer": {"class_name": "Zeros", "config": {}}, "moving_variance_initializer": {"class_name": "Ones", "config": {}}, "beta_regularizer": null, "gamma_regularizer": null, "beta_constraint": null, "gamma_constraint": null, "freeze": false}, "inbound_nodes": [[["res5b1_branch2a", 0, 0, {}]]]}, {"name": "res5b1_branch2a_relu", "class_name": "Activation", "config": {"name": "res5b1_branch2a_relu", "trainable": true, "dtype": "float32", "activation": "relu"}, "inbound_nodes": [[["bn5b1_branch2a", 0, 0, {}]]]}, {"name": "padding5b1_branch2b", "class_name": "ZeroPadding2D", "config": {"name": "padding5b1_branch2b", "trainable": true, "dtype": "float32", "padding": [[1, 1], [1, 1]], "data_format": "channels_last"}, "inbound_nodes": [[["res5b1_branch2a_relu", 0, 0, {}]]]}, {"name": "res5b1_branch2b", "class_name": "Conv2D", "config": {"name": "res5b1_branch2b", "trainable": true, "dtype": "float32", "filters": 512, "kernel_size": [3, 3], "strides": [1, 1], "padding": "valid", "data_format": "channels_last", "dilation_rate": [1, 1], "activation": "linear", "use_bias": false, "kernel_initializer": {"class_name": "VarianceScaling", "config": {"scale": 2.0, "mode": "fan_in", "distribution": "normal", "seed": null}}, "bias_initializer": {"class_name": "Zeros", "config": {}}, "kernel_regularizer": null, "bias_regularizer": null, "activity_regularizer": null, "kernel_constraint": null, "bias_constraint": null}, "inbound_nodes": [[["padding5b1_branch2b", 0, 0, {}]]]}, {"name": "bn5b1_branch2b", "class_name": "BatchNormalization", "config": {"name": "bn5b1_branch2b", "trainable": true, "dtype": "float32", "axis": 3, "momentum": 0.99, "epsilon": 1e-05, "center": true, "scale": true, "beta_initializer": {"class_name": "Zeros", "config": {}}, "gamma_initializer": {"class_name": "Ones", "config": {}}, "moving_mean_initializer": {"class_name": "Zeros", "config": {}}, "moving_variance_initializer": {"class_name": "Ones", "config": {}}, "beta_regularizer": null, "gamma_regularizer": null, "beta_constraint": null, "gamma_constraint": null, "freeze": false}, "inbound_nodes": [[["res5b1_branch2b", 0, 0, {}]]]}, {"name": "res5b1", "class_name": "Add", "config": {"name": "res5b1", "trainable": true, "dtype": "float32"}, "inbound_nodes": [[["bn5b1_branch2b", 0, 0, {}], ["res5a_relu", 0, 0, {}]]]}, {"name": "res5b1_relu", "class_name": "Activation", "config": {"name": "res5b1_relu", "trainable": true, "dtype": "float32", "activation": "relu"}, "inbound_nodes": [[["res5b1", 0, 0, {}]]]}, {"name": "C5_reduced", "class_name": "Conv2D", "config": {"name": "C5_reduced", "trainable": true, "dtype": "float32", "filters": 256, "kernel_size": [1, 1], "strides": [1, 1], "padding": "same", "data_format": "channels_last", "dilation_rate": [1, 1], "activation": "linear", "use_bias": true, "kernel_initializer": {"class_name": "VarianceScaling", "config": {"scale": 1.0, "mode": "fan_avg", "distribution": "uniform", "seed": null}}, "bias_initializer": {"class_name": "Zeros", "config": {}}, "kernel_regularizer": null, "bias_regularizer": null, "activity_regularizer": null, "kernel_constraint": null, "bias_constraint": null}, "inbound_nodes": [[["res5b1_relu", 0, 0, {}]]]}, {"name": "P5_upsampled", "class_name": "UpsampleLike", "config": {"name": "P5_upsampled", "trainable": true, "dtype": "float32"}, "inbound_nodes": [[["C5_reduced", 0, 0, {}], ["res4b1_relu", 0, 0, {}]]]}, {"name": "C4_reduced", "class_name": "Conv2D", "config": {"name": "C4_reduced", "trainable": true, "dtype": "float32", "filters": 256, "kernel_size": [1, 1], "strides": [1, 1], "padding": "same", "data_format": "channels_last", "dilation_rate": [1, 1], "activation": "linear", "use_bias": true, "kernel_initializer": {"class_name": "VarianceScaling", "config": {"scale": 1.0, "mode": "fan_avg", "distribution": "uniform", "seed": null}}, "bias_initializer": {"class_name": "Zeros", "config": {}}, "kernel_regularizer": null, "bias_regularizer": null, "activity_regularizer": null, "kernel_constraint": null, "bias_constraint": null}, "inbound_nodes": [[["res4b1_relu", 0, 0, {}]]]}, {"name": "P4_merged", "class_name": "Add", "config": {"name": "P4_merged", "trainable": true, "dtype": "float32"}, "inbound_nodes": [[["P5_upsampled", 0, 0, {}], ["C4_reduced", 0, 0, {}]]]}, {"name": "P4_upsampled", "class_name": "UpsampleLike", "config": {"name": "P4_upsampled", "trainable": true, "dtype": "float32"}, "inbound_nodes": [[["P4_merged", 0, 0, {}], ["res3b1_relu", 0, 0, {}]]]}, {"name": "C3_reduced", "class_name": "Conv2D", "config": {"name": "C3_reduced", "trainable": true, "dtype": "float32", "filters": 256, "kernel_size": [1, 1], "strides": [1, 1], "padding": "same", "data_format": "channels_last", "dilation_rate": [1, 1], "activation": "linear", "use_bias": true, "kernel_initializer": {"class_name": "VarianceScaling", "config": {"scale": 1.0, "mode": "fan_avg", "distribution": "uniform", "seed": null}}, "bias_initializer": {"class_name": "Zeros", "config": {}}, "kernel_regularizer": null, "bias_regularizer": null, "activity_regularizer": null, "kernel_constraint": null, "bias_constraint": null}, "inbound_nodes": [[["res3b1_relu", 0, 0, {}]]]}, {"name": "P6", "class_name": "Conv2D", "config": {"name": "P6", "trainable": true, "dtype": "float32", "filters": 256, "kernel_size": [3, 3], "strides": [2, 2], "padding": "same", "data_format": "channels_last", "dilation_rate": [1, 1], "activation": "linear", "use_bias": true, "kernel_initializer": {"class_name": "VarianceScaling", "config": {"scale": 1.0, "mode": "fan_avg", "distribution": "uniform", "seed": null}}, "bias_initializer": {"class_name": "Zeros", "config": {}}, "kernel_regularizer": null, "bias_regularizer": null, "activity_regularizer": null, "kernel_constraint": null, "bias_constraint": null}, "inbound_nodes": [[["res5b1_relu", 0, 0, {}]]]}, {"name": "P3_merged", "class_name": "Add", "config": {"name": "P3_merged", "trainable": true, "dtype": "float32"}, "inbound_nodes": [[["P4_upsampled", 0, 0, {}], ["C3_reduced", 0, 0, {}]]]}, {"name": "C6_relu", "class_name": "Activation", "config": {"name": "C6_relu", "trainable": true, "dtype": "float32", "activation": "relu"}, "inbound_nodes": [[["P6", 0, 0, {}]]]}, {"name": "P3", "class_name": "Conv2D", "config": {"name": "P3", "trainable": true, "dtype": "float32", "filters": 256, "kernel_size": [3, 3], "strides": [1, 1], "padding": "same", "data_format": "channels_last", "dilation_rate": [1, 1], "activation": "linear", "use_bias": true, "kernel_initializer": {"class_name": "VarianceScaling", "config": {"scale": 1.0, "mode": "fan_avg", "distribution": "uniform", "seed": null}}, "bias_initializer": {"class_name": "Zeros", "config": {}}, "kernel_regularizer": null, "bias_regularizer": null, "activity_regularizer": null, "kernel_constraint": null, "bias_constraint": null}, "inbound_nodes": [[["P3_merged", 0, 0, {}]]]}, {"name": "P4", "class_name": "Conv2D", "config": {"name": "P4", "trainable": true, "dtype": "float32", "filters": 256, "kernel_size": [3, 3], "strides": [1, 1], "padding": "same", "data_format": "channels_last", "dilation_rate": [1, 1], "activation": "linear", "use_bias": true, "kernel_initializer": {"class_name": "VarianceScaling", "config": {"scale": 1.0, "mode": "fan_avg", "distribution": "uniform", "seed": null}}, "bias_initializer": {"class_name": "Zeros", "config": {}}, "kernel_regularizer": null, "bias_regularizer": null, "activity_regularizer": null, "kernel_constraint": null, "bias_constraint": null}, "inbound_nodes": [[["P4_merged", 0, 0, {}]]]}, {"name": "P5", "class_name": "Conv2D", "config": {"name": "P5", "trainable": true, "dtype": "float32", "filters": 256, "kernel_size": [3, 3], "strides": [1, 1], "padding": "same", "data_format": "channels_last", "dilation_rate": [1, 1], "activation": "linear", "use_bias": true, "kernel_initializer": {"class_name": "VarianceScaling", "config": {"scale": 1.0, "mode": "fan_avg", "distribution": "uniform", "seed": null}}, "bias_initializer": {"class_name": "Zeros", "config": {}}, "kernel_regularizer": null, "bias_regularizer": null, "activity_regularizer": null, "kernel_constraint": null, "bias_constraint": null}, "inbound_nodes": [[["C5_reduced", 0, 0, {}]]]}, {"name": "P7", "class_name": "Conv2D", "config": {"name": "P7", "trainable": true, "dtype": "float32", "filters": 256, "kernel_size": [3, 3], "strides": [2, 2], "padding": "same", "data_format": "channels_last", "dilation_rate": [1, 1], "activation": "linear", "use_bias": true, "kernel_initializer": {"class_name": "VarianceScaling", "config": {"scale": 1.0, "mode": "fan_avg", "distribution": "uniform", "seed": null}}, "bias_initializer": {"class_name": "Zeros", "config": {}}, "kernel_regularizer": null, "bias_regularizer": null, "activity_regularizer": null, "kernel_constraint": null, "bias_constraint": null}, "inbound_nodes": [[["C6_relu", 0, 0, {}]]]}, {"name": "regression_submodel", "class_name": "Model", "config": {"name": "regression_submodel", "layers": [{"name": "input_2", "class_name": "InputLayer", "config": {"batch_input_shape": [null, null, null, 256], "dtype": "float32", "sparse": false, "name": "input_2"}, "inbound_nodes": []}, {"name": "pyramid_regression_0", "class_name": "Conv2D", "config": {"name": "pyramid_regression_0", "trainable": true, "dtype": "float32", "filters": 256, "kernel_size": [3, 3], "strides": [1, 1], "padding": "same", "data_format": "channels_last", "dilation_rate": [1, 1], "activation": "relu", "use_bias": true, "kernel_initializer": {"class_name": "RandomNormal", "config": {"mean": 0.0, "stddev": 0.01, "seed": null}}, "bias_initializer": {"class_name": "Zeros", "config": {}}, "kernel_regularizer": null, "bias_regularizer": null, "activity_regularizer": null, "kernel_constraint": null, "bias_constraint": null}, "inbound_nodes": [[["input_2", 0, 0, {}]]]}, {"name": "pyramid_regression_1", "class_name": "Conv2D", "config": {"name": "pyramid_regression_1", "trainable": true, "dtype": "float32", "filters": 256, "kernel_size": [3, 3], "strides": [1, 1], "padding": "same", "data_format": "channels_last", "dilation_rate": [1, 1], "activation": "relu", "use_bias": true, "kernel_initializer": {"class_name": "RandomNormal", "config": {"mean": 0.0, "stddev": 0.01, "seed": null}}, "bias_initializer": {"class_name": "Zeros", "config": {}}, "kernel_regularizer": null, "bias_regularizer": null, "activity_regularizer": null, "kernel_constraint": null, "bias_constraint": null}, "inbound_nodes": [[["pyramid_regression_0", 0, 0, {}]]]}, {"name": "pyramid_regression_2", "class_name": "Conv2D", "config": {"name": "pyramid_regression_2", "trainable": true, "dtype": "float32", "filters": 256, "kernel_size": [3, 3], "strides": [1, 1], "padding": "same", "data_format": "channels_last", "dilation_rate": [1, 1], "activation": "relu", "use_bias": true, "kernel_initializer": {"class_name": "RandomNormal", "config": {"mean": 0.0, "stddev": 0.01, "seed": null}}, "bias_initializer": {"class_name": "Zeros", "config": {}}, "kernel_regularizer": null, "bias_regularizer": null, "activity_regularizer": null, "kernel_constraint": null, "bias_constraint": null}, "inbound_nodes": [[["pyramid_regression_1", 0, 0, {}]]]}, {"name": "pyramid_regression_3", "class_name": "Conv2D", "config": {"name": "pyramid_regression_3", "trainable": true, "dtype": "float32", "filters": 256, "kernel_size": [3, 3], "strides": [1, 1], "padding": "same", "data_format": "channels_last", "dilation_rate": [1, 1], "activation": "relu", "use_bias": true, "kernel_initializer": {"class_name": "RandomNormal", "config": {"mean": 0.0, "stddev": 0.01, "seed": null}}, "bias_initializer": {"class_name": "Zeros", "config": {}}, "kernel_regularizer": null, "bias_regularizer": null, "activity_regularizer": null, "kernel_constraint": null, "bias_constraint": null}, "inbound_nodes": [[["pyramid_regression_2", 0, 0, {}]]]}, {"name": "pyramid_regression", "class_name": "Conv2D", "config": {"name": "pyramid_regression", "trainable": true, "dtype": "float32", "filters": 36, "kernel_size": [3, 3], "strides": [1, 1], "padding": "same", "data_format": "channels_last", "dilation_rate": [1, 1], "activation": "linear", "use_bias": true, "kernel_initializer": {"class_name": "RandomNormal", "config": {"mean": 0.0, "stddev": 0.01, "seed": null}}, "bias_initializer": {"class_name": "Zeros", "config": {}}, "kernel_regularizer": null, "bias_regularizer": null, "activity_regularizer": null, "kernel_constraint": null, "bias_constraint": null}, "inbound_nodes": [[["pyramid_regression_3", 0, 0, {}]]]}, {"name": "pyramid_regression_reshape", "class_name": "Reshape", "config": {"name": "pyramid_regression_reshape", "trainable": true, "dtype": "float32", "target_shape": [-1, 4]}, "inbound_nodes": [[["pyramid_regression", 0, 0, {}]]]}], "input_layers": [["input_2", 0, 0]], "output_layers": [["pyramid_regression_reshape", 0, 0]]}, "inbound_nodes": [[["P3", 0, 0, {}]], [["P4", 0, 0, {}]], [["P5", 0, 0, {}]], [["P6", 0, 0, {}]], [["P7", 0, 0, {}]]]}, {"name": "classification_submodel", "class_name": "Model", "config": {"name": "classification_submodel", "layers": [{"name": "input_3", "class_name": "InputLayer", "config": {"batch_input_shape": [null, null, null, 256], "dtype": "float32", "sparse": false, "name": "input_3"}, "inbound_nodes": []}, {"name": "pyramid_classification_0", "class_name": "Conv2D", "config": {"name": "pyramid_classification_0", "trainable": true, "dtype": "float32", "filters": 256, "kernel_size": [3, 3], "strides": [1, 1], "padding": "same", "data_format": "channels_last", "dilation_rate": [1, 1], "activation": "relu", "use_bias": true, "kernel_initializer": {"class_name": "RandomNormal", "config": {"mean": 0.0, "stddev": 0.01, "seed": null}}, "bias_initializer": {"class_name": "Zeros", "config": {}}, "kernel_regularizer": null, "bias_regularizer": null, "activity_regularizer": null, "kernel_constraint": null, "bias_constraint": null}, "inbound_nodes": [[["input_3", 0, 0, {}]]]}, {"name": "pyramid_classification_1", "class_name": "Conv2D", "config": {"name": "pyramid_classification_1", "trainable": true, "dtype": "float32", "filters": 256, "kernel_size": [3, 3], "strides": [1, 1], "padding": "same", "data_format": "channels_last", "dilation_rate": [1, 1], "activation": "relu", "use_bias": true, "kernel_initializer": {"class_name": "RandomNormal", "config": {"mean": 0.0, "stddev": 0.01, "seed": null}}, "bias_initializer": {"class_name": "Zeros", "config": {}}, "kernel_regularizer": null, "bias_regularizer": null, "activity_regularizer": null, "kernel_constraint": null, "bias_constraint": null}, "inbound_nodes": [[["pyramid_classification_0", 0, 0, {}]]]}, {"name": "pyramid_classification_2", "class_name": "Conv2D", "config": {"name": "pyramid_classification_2", "trainable": true, "dtype": "float32", "filters": 256, "kernel_size": [3, 3], "strides": [1, 1], "padding": "same", "data_format": "channels_last", "dilation_rate": [1, 1], "activation": "relu", "use_bias": true, "kernel_initializer": {"class_name": "RandomNormal", "config": {"mean": 0.0, "stddev": 0.01, "seed": null}}, "bias_initializer": {"class_name": "Zeros", "config": {}}, "kernel_regularizer": null, "bias_regularizer": null, "activity_regularizer": null, "kernel_constraint": null, "bias_constraint": null}, "inbound_nodes": [[["pyramid_classification_1", 0, 0, {}]]]}, {"name": "pyramid_classification_3", "class_name": "Conv2D", "config": {"name": "pyramid_classification_3", "trainable": true, "dtype": "float32", "filters": 256, "kernel_size": [3, 3], "strides": [1, 1], "padding": "same", "data_format": "channels_last", "dilation_rate": [1, 1], "activation": "relu", "use_bias": true, "kernel_initializer": {"class_name": "RandomNormal", "config": {"mean": 0.0, "stddev": 0.01, "seed": null}}, "bias_initializer": {"class_name": "Zeros", "config": {}}, "kernel_regularizer": null, "bias_regularizer": null, "activity_regularizer": null, "kernel_constraint": null, "bias_constraint": null}, "inbound_nodes": [[["pyramid_classification_2", 0, 0, {}]]]}, {"name": "pyramid_classification", "class_name": "Conv2D", "config": {"name": "pyramid_classification", "trainable": true, "dtype": "float32", "filters": 9, "kernel_size": [3, 3], "strides": [1, 1], "padding": "same", "data_format": "channels_last", "dilation_rate": [1, 1], "activation": "linear", "use_bias": true, "kernel_initializer": {"class_name": "RandomNormal", "config": {"mean": 0.0, "stddev": 0.01, "seed": null}}, "bias_initializer": {"class_name": "PriorProbability", "config": {"probability": 0.01}}, "kernel_regularizer": null, "bias_regularizer": null, "activity_regularizer": null, "kernel_constraint": null, "bias_constraint": null}, "inbound_nodes": [[["pyramid_classification_3", 0, 0, {}]]]}, {"name": "pyramid_classification_reshape", "class_name": "Reshape", "config": {"name": "pyramid_classification_reshape", "trainable": true, "dtype": "float32", "target_shape": [-1, 1]}, "inbound_nodes": [[["pyramid_classification", 0, 0, {}]]]}, {"name": "pyramid_classification_sigmoid", "class_name": "Activation", "config": {"name": "pyramid_classification_sigmoid", "trainable": true, "dtype": "float32", "activation": "sigmoid"}, "inbound_nodes": [[["pyramid_classification_reshape", 0, 0, {}]]]}], "input_layers": [["input_3", 0, 0]], "output_layers": [["pyramid_classification_sigmoid", 0, 0]]}, "inbound_nodes": [[["P3", 0, 0, {}]], [["P4", 0, 0, {}]], [["P5", 0, 0, {}]], [["P6", 0, 0, {}]], [["P7", 0, 0, {}]]]}, {"name": "regression", "class_name": "Concatenate", "config": {"name": "regression", "trainable": true, "dtype": "float32", "axis": 1}, "inbound_nodes": [[["regression_submodel", 1, 0, {}], ["regression_submodel", 2, 0, {}], ["regression_submodel", 3, 0, {}], ["regression_submodel", 4, 0, {}], ["regression_submodel", 5, 0, {}]]]}, {"name": "classification", "class_name": "Concatenate", "config": {"name": "classification", "trainable": true, "dtype": "float32", "axis": 1}, "inbound_nodes": [[["classification_submodel", 1, 0, {}], ["classification_submodel", 2, 0, {}], ["classification_submodel", 3, 0, {}], ["classification_submodel", 4, 0, {}], ["classification_submodel", 5, 0, {}]]]}], "input_layers": [["input_1", 0, 0]], "output_layers": [["regression", 0, 0], ["classification", 0, 0]]}}}, "weightsManifest": [{"paths": ["group1-shard1of5.bin", "group1-shard2of5.bin", "group1-shard3of5.bin", "group1-shard4of5.bin", "group1-shard5of5.bin"], "weights": [{"name": "C3_reduced/kernel", "shape": [1, 1, 128, 256], "dtype": "float32", "quantization": {"dtype": "uint8", "min": -0.12671642677456724, "scale": 0.0009899720841763065, "original_dtype": "float32"}}, {"name": "C3_reduced/bias", "shape": [256], "dtype": "float32", "quantization": {"dtype": "uint8", "min": -0.001165177542990183, "scale": 8.630944762890245e-06, "original_dtype": "float32"}}, {"name": "C4_reduced/kernel", "shape": [1, 1, 256, 256], "dtype": "float32", "quantization": {"dtype": "uint8", "min": -0.10936976773481742, "scale": 0.0008611792735024994, "original_dtype": "float32"}}, {"name": "C4_reduced/bias", "shape": [256], "dtype": "float32", "quantization": {"dtype": "uint8", "min": -0.001466280820907331, "scale": 1.2640351904373543e-05, "original_dtype": "float32"}}, {"name": "C5_reduced/kernel", "shape": [1, 1, 512, 256], "dtype": "float32", "quantization": {"dtype": "uint8", "min": -0.15722034772237142, "scale": 0.0012679060300191244, "original_dtype": "float32"}}, {"name": "C5_reduced/bias", "shape": [256], "dtype": "float32", "quantization": {"dtype": "uint8", "min": -0.050628151963738835, "scale": 0.0004219012663644903, "original_dtype": "float32"}}, {"name": "P3/kernel", "shape": [3, 3, 256, 256], "dtype": "float32", "quantization": {"dtype": "uint8", "min": -0.038993110186329075, "scale": 0.0003070323636718825, "original_dtype": "float32"}}, {"name": "P3/bias", "shape": [256], "dtype": "float32", "quantization": {"dtype": "uint8", "min": -0.0010434912627234178, "scale": 7.787248229279237e-06, "original_dtype": "float32"}}, {"name": "P4/kernel", "shape": [3, 3, 256, 256], "dtype": "float32", "quantization": {"dtype": "uint8", "min": -0.039185190200805665, "scale": 0.0003037611643473307, "original_dtype": "float32"}}, {"name": "P4/bias", "shape": [256], "dtype": "float32", "quantization": {"dtype": "uint8", "min": -0.0011276556178927422, "scale": 8.054682984948158e-06, "original_dtype": "float32"}}, {"name": "P5/kernel", "shape": [3, 3, 256, 256], "dtype": "float32", "quantization": {"dtype": "uint8", "min": -0.12348980032930187, "scale": 0.0009215656740992677, "original_dtype": "float32"}}, {"name": "P5/bias", "shape": [256], "dtype": "float32", "quantization": {"dtype": "uint8", "min": -0.08252008672730594, "scale": 0.0005062582007810181, "original_dtype": "float32"}}, {"name": "P6/kernel", "shape": [3, 3, 512, 256], "dtype": "float32", "quantization": {"dtype": "uint8", "min": -0.35554772732304596, "scale": 0.0022503020716648477, "original_dtype": "float32"}}, {"name": "P6/bias", "shape": [256], "dtype": "float32", "quantization": {"dtype": "uint8", "min": -0.07302064346332177, "scale": 0.0010431520494760252, "original_dtype": "float32"}}, {"name": "P7/kernel", "shape": [3, 3, 256, 256], "dtype": "float32", "quantization": {"dtype": "uint8", "min": -0.29467536701875574, "scale": 0.002046356715408026, "original_dtype": "float32"}}, {"name": "P7/bias", "shape": [256], "dtype": "float32", "quantization": {"dtype": "uint8", "min": -0.19733868117133777, "scale": 0.0009916516641775767, "original_dtype": "float32"}}, {"name": "bn2a_branch1/gamma", "shape": [64], "dtype": "float32", "quantization": {"dtype": "uint8", "min": 0.9021800756454468, "scale": 0.0015872679504693723, "original_dtype": "float32"}}, {"name": "bn2a_branch1/beta", "shape": [64], "dtype": "float32", "quantization": {"dtype": "uint8", "min": -0.12265199118969486, "scale": 0.001333173817279292, "original_dtype": "float32"}}, {"name": "bn2a_branch1/moving_mean", "shape": [64], "dtype": "float32", "quantization": {"dtype": "uint8", "min": -2.5895788753733915, "scale": 0.01836580762676164, "original_dtype": "float32"}}, {"name": "bn2a_branch1/moving_variance", "shape": [64], "dtype": "float32", "quantization": {"dtype": "uint8", "min": 0.5097798705101013, "scale": 0.01926632137859569, "original_dtype": "float32"}}, {"name": "bn2a_branch2a/gamma", "shape": [64], "dtype": "float32", "quantization": {"dtype": "uint8", "min": 0.8440656065940857, "scale": 0.0010088857482461369, "original_dtype": "float32"}}, {"name": "bn2a_branch2a/beta", "shape": [64], "dtype": "float32", "quantization": {"dtype": "uint8", "min": -0.15761666782930783, "scale": 0.0010578299854315963, "original_dtype": "float32"}}, {"name": "bn2a_branch2a/moving_mean", "shape": [64], "dtype": "float32", "quantization": {"dtype": "uint8", "min": -7.086416498819987, "scale": 0.06501299540201823, "original_dtype": "float32"}}, {"name": "bn2a_branch2a/moving_variance", "shape": [64], "dtype": "float32", "quantization": {"dtype": "uint8", "min": 9.492546081542969, "scale": 0.24925988889208026, "original_dtype": "float32"}}, {"name": "bn2a_branch2b/gamma", "shape": [64], "dtype": "float32", "quantization": {"dtype": "uint8", "min": 0.8794946074485779, "scale": 0.0008481135555342132, "original_dtype": "float32"}}, {"name": "bn2a_branch2b/beta", "shape": [64], "dtype": "float32", "quantization": {"dtype": "uint8", "min": -0.12265199118969486, "scale": 0.001333173817279292, "original_dtype": "float32"}}, {"name": "bn2a_branch2b/moving_mean", "shape": [64], "dtype": "float32", "quantization": {"dtype": "uint8", "min": -6.518827157862046, "scale": 0.048287608576755896, "original_dtype": "float32"}}, {"name": "bn2a_branch2b/moving_variance", "shape": [64], "dtype": "float32", "quantization": {"dtype": "uint8", "min": 5.613144874572754, "scale": 0.38711780847287647, "original_dtype": "float32"}}, {"name": "bn2b1_branch2a/gamma", "shape": [64], "dtype": "float32", "quantization": {"dtype": "uint8", "min": 0.8997573256492615, "scale": 0.0008535270597420486, "original_dtype": "float32"}}, {"name": "bn2b1_branch2a/beta", "shape": [64], "dtype": "float32", "quantization": {"dtype": "uint8", "min": -0.1352207943504932, "scale": 0.0009522591151443182, "original_dtype": "float32"}}, {"name": "bn2b1_branch2a/moving_mean", "shape": [64], "dtype": "float32", "quantization": {"dtype": "uint8", "min": -6.647077867096546, "scale": 0.05493452782724418, "original_dtype": "float32"}}, {"name": "bn2b1_branch2a/moving_variance", "shape": [64], "dtype": "float32", "quantization": {"dtype": "uint8", "min": 18.397777557373047, "scale": 0.2406081704532399, "original_dtype": "float32"}}, {"name": "bn2b1_branch2b/gamma", "shape": [64], "dtype": "float32", "quantization": {"dtype": "uint8", "min": 0.7866439819335938, "scale": 0.000991520227170458, "original_dtype": "float32"}}, {"name": "bn2b1_branch2b/beta", "shape": [64], "dtype": "float32", "quantization": {"dtype": "uint8", "min": -0.18491220798562552, "scale": 0.0011629698615448147, "original_dtype": "float32"}}, {"name": "bn2b1_branch2b/moving_mean", "shape": [64], "dtype": "float32", "quantization": {"dtype": "uint8", "min": -4.977241377737008, "scale": 0.03799420899035884, "original_dtype": "float32"}}, {"name": "bn2b1_branch2b/moving_variance", "shape": [64], "dtype": "float32", "quantization": {"dtype": "uint8", "min": 10.977059364318848, "scale": 0.27554886387843713, "original_dtype": "float32"}}, {"name": "bn3a_branch1/gamma", "shape": [128], "dtype": "float32", "quantization": {"dtype": "uint8", "min": 0.9205709099769592, "scale": 0.0013401613515966078, "original_dtype": "float32"}}, {"name": "bn3a_branch1/beta", "shape": [128], "dtype": "float32", "quantization": {"dtype": "uint8", "min": -0.11204854004523333, "scale": 0.0008892741273431217, "original_dtype": "float32"}}, {"name": "bn3a_branch1/moving_mean", "shape": [128], "dtype": "float32", "quantization": {"dtype": "uint8", "min": -2.2672147825652478, "scale": 0.021388818703445733, "original_dtype": "float32"}}, {"name": "bn3a_branch1/moving_variance", "shape": [128], "dtype": "float32", "quantization": {"dtype": "uint8", "min": 1.1585829257965088, "scale": 0.042395856333713906, "original_dtype": "float32"}}, {"name": "bn3a_branch2a/gamma", "shape": [128], "dtype": "float32", "quantization": {"dtype": "uint8", "min": 0.923220694065094, "scale": 0.0006348532788893756, "original_dtype": "float32"}}, {"name": "bn3a_branch2a/beta", "shape": [128], "dtype": "float32", "quantization": {"dtype": "uint8", "min": -0.11457511712523068, "scale": 0.0008679933115547778, "original_dtype": "float32"}}, {"name": "bn3a_branch2a/moving_mean", "shape": [128], "dtype": "float32", "quantization": {"dtype": "uint8", "min": -6.990501171934839, "scale": 0.04629470974791284, "original_dtype": "float32"}}, {"name": "bn3a_branch2a/moving_variance", "shape": [128], "dtype": "float32", "quantization": {"dtype": "uint8", "min": 7.690522193908691, "scale": 0.20303389231363933, "original_dtype": "float32"}}, {"name": "bn3a_branch2b/gamma", "shape": [128], "dtype": "float32", "quantization": {"dtype": "uint8", "min": 0.8711987733840942, "scale": 0.0008698234371110505, "original_dtype": "float32"}}, {"name": "bn3a_branch2b/beta", "shape": [128], "dtype": "float32", "quantization": {"dtype": "uint8", "min": -0.11204854004523333, "scale": 0.0008892741273431217, "original_dtype": "float32"}}, {"name": "bn3a_branch2b/moving_mean", "shape": [128], "dtype": "float32", "quantization": {"dtype": "uint8", "min": -4.4554957128038595, "scale": 0.030727556640026615, "original_dtype": "float32"}}, {"name": "bn3a_branch2b/moving_variance", "shape": [128], "dtype": "float32", "quantization": {"dtype": "uint8", "min": 6.020692825317383, "scale": 0.2553172317205691, "original_dtype": "float32"}}, {"name": "bn3b1_branch2a/gamma", "shape": [128], "dtype": "float32", "quantization": {"dtype": "uint8", "min": 0.8992757797241211, "scale": 0.000783086290546492, "original_dtype": "float32"}}, {"name": "bn3b1_branch2a/beta", "shape": [128], "dtype": "float32", "quantization": {"dtype": "uint8", "min": -0.09304672710451425, "scale": 0.0006244746785537869, "original_dtype": "float32"}}, {"name": "bn3b1_branch2a/moving_mean", "shape": [128], "dtype": "float32", "quantization": {"dtype": "uint8", "min": -6.080361887987922, "scale": 0.04713458827897614, "original_dtype": "float32"}}, {"name": "bn3b1_branch2a/moving_variance", "shape": [128], "dtype": "float32", "quantization": {"dtype": "uint8", "min": 12.805490493774414, "scale": 0.24547001707787608, "original_dtype": "float32"}}, {"name": "bn3b1_branch2b/gamma", "shape": [128], "dtype": "float32", "quantization": {"dtype": "uint8", "min": 0.7263878583908081, "scale": 0.0012723516015445485, "original_dtype": "float32"}}, {"name": "bn3b1_branch2b/beta", "shape": [128], "dtype": "float32", "quantization": {"dtype": "uint8", "min": -0.11652949540054096, "scale": 0.0007768633026702731, "original_dtype": "float32"}}, {"name": "bn3b1_branch2b/moving_mean", "shape": [128], "dtype": "float32", "quantization": {"dtype": "uint8", "min": -4.395929564681707, "scale": 0.029702226788389918, "original_dtype": "float32"}}, {"name": "bn3b1_branch2b/moving_variance", "shape": [128], "dtype": "float32", "quantization": {"dtype": "uint8", "min": 7.685866355895996, "scale": 0.43676904790541704, "original_dtype": "float32"}}, {"name": "bn4a_branch1/gamma", "shape": [256], "dtype": "float32", "quantization": {"dtype": "uint8", "min": 0.9065186977386475, "scale": 0.001100463960684982, "original_dtype": "float32"}}, {"name": "bn4a_branch1/beta", "shape": [256], "dtype": "float32", "quantization": {"dtype": "uint8", "min": -0.15980539608235453, "scale": 0.0013207057527467316, "original_dtype": "float32"}}, {"name": "bn4a_branch1/moving_mean", "shape": [256], "dtype": "float32", "quantization": {"dtype": "uint8", "min": -5.0943194323895025, "scale": 0.03513323746475519, "original_dtype": "float32"}}, {"name": "bn4a_branch1/moving_variance", "shape": [256], "dtype": "float32", "quantization": {"dtype": "uint8", "min": 2.2981150150299072, "scale": 0.0688952642328599, "original_dtype": "float32"}}, {"name": "bn4a_branch2a/gamma", "shape": [256], "dtype": "float32", "quantization": {"dtype": "uint8", "min": 0.9091145396232605, "scale": 0.0008272612796110265, "original_dtype": "float32"}}, {"name": "bn4a_branch2a/beta", "shape": [256], "dtype": "float32", "quantization": {"dtype": "uint8", "min": -0.10120803257998298, "scale": 0.0006247409418517468, "original_dtype": "float32"}}, {"name": "bn4a_branch2a/moving_mean", "shape": [256], "dtype": "float32", "quantization": {"dtype": "uint8", "min": -6.926938025156657, "scale": 0.05820956323661056, "original_dtype": "float32"}}, {"name": "bn4a_branch2a/moving_variance", "shape": [256], "dtype": "float32", "quantization": {"dtype": "uint8", "min": 10.404291152954102, "scale": 0.3670464235193589, "original_dtype": "float32"}}, {"name": "bn4a_branch2b/gamma", "shape": [256], "dtype": "float32", "quantization": {"dtype": "uint8", "min": 0.8703330159187317, "scale": 0.0008907722491844028, "original_dtype": "float32"}}, {"name": "bn4a_branch2b/beta", "shape": [256], "dtype": "float32", "quantization": {"dtype": "uint8", "min": -0.15980539608235453, "scale": 0.0013207057527467316, "original_dtype": "float32"}}, {"name": "bn4a_branch2b/moving_mean", "shape": [256], "dtype": "float32", "quantization": {"dtype": "uint8", "min": -5.744218267179003, "scale": 0.050833789975035425, "original_dtype": "float32"}}, {"name": "bn4a_branch2b/moving_variance", "shape": [256], "dtype": "float32", "quantization": {"dtype": "uint8", "min": 12.492161750793457, "scale": 0.4681361591114717, "original_dtype": "float32"}}, {"name": "bn4b1_branch2a/gamma", "shape": [256], "dtype": "float32", "quantization": {"dtype": "uint8", "min": 0.909102737903595, "scale": 0.0006200502900516286, "original_dtype": "float32"}}, {"name": "bn4b1_branch2a/beta", "shape": [256], "dtype": "float32", "quantization": {"dtype": "uint8", "min": -0.11357103559900733, "scale": 0.0007233823923503651, "original_dtype": "float32"}}, {"name": "bn4b1_branch2a/moving_mean", "shape": [256], "dtype": "float32", "quantization": {"dtype": "uint8", "min": -6.029612911448759, "scale": 0.05383582956650678, "original_dtype": "float32"}}, {"name": "bn4b1_branch2a/moving_variance", "shape": [256], "dtype": "float32", "quantization": {"dtype": "uint8", "min": 21.982501983642578, "scale": 0.7419752981148514, "original_dtype": "float32"}}, {"name": "bn4b1_branch2b/gamma", "shape": [256], "dtype": "float32", "quantization": {"dtype": "uint8", "min": 0.8250493407249451, "scale": 0.0010112428197673723, "original_dtype": "float32"}}, {"name": "bn4b1_branch2b/beta", "shape": [256], "dtype": "float32", "quantization": {"dtype": "uint8", "min": -0.1423583984375, "scale": 0.0011962890625, "original_dtype": "float32"}}, {"name": "bn4b1_branch2b/moving_mean", "shape": [256], "dtype": "float32", "quantization": {"dtype": "uint8", "min": -7.351584400850183, "scale": 0.051052669450348497, "original_dtype": "float32"}}, {"name": "bn4b1_branch2b/moving_variance", "shape": [256], "dtype": "float32", "quantization": {"dtype": "uint8", "min": 34.40169143676758, "scale": 0.40561079137465533, "original_dtype": "float32"}}, {"name": "bn5a_branch1/gamma", "shape": [512], "dtype": "float32", "quantization": {"dtype": "uint8", "min": 0.617865800857544, "scale": 0.001960012959498985, "original_dtype": "float32"}}, {"name": "bn5a_branch1/beta", "shape": [512], "dtype": "float32", "quantization": {"dtype": "uint8", "min": -0.3539828956127167, "scale": 0.001116012124454274, "original_dtype": "float32"}}, {"name": "bn5a_branch1/moving_mean", "shape": [512], "dtype": "float32", "quantization": {"dtype": "uint8", "min": -8.138585890975653, "scale": 0.060735715604295915, "original_dtype": "float32"}}, {"name": "bn5a_branch1/moving_variance", "shape": [512], "dtype": "float32", "quantization": {"dtype": "uint8", "min": 16.429719924926758, "scale": 1.5142770729812922, "original_dtype": "float32"}}, {"name": "bn5a_branch2a/gamma", "shape": [512], "dtype": "float32", "quantization": {"dtype": "uint8", "min": 0.841964066028595, "scale": 0.0009212776726367427, "original_dtype": "float32"}}, {"name": "bn5a_branch2a/beta", "shape": [512], "dtype": "float32", "quantization": {"dtype": "uint8", "min": -0.07634931525178984, "scale": 0.0007412554878814548, "original_dtype": "float32"}}, {"name": "bn5a_branch2a/moving_mean", "shape": [512], "dtype": "float32", "quantization": {"dtype": "uint8", "min": -9.489032610724953, "scale": 0.08323712816425398, "original_dtype": "float32"}}, {"name": "bn5a_branch2a/moving_variance", "shape": [512], "dtype": "float32", "quantization": {"dtype": "uint8", "min": 25.03786849975586, "scale": 1.3448591793284697, "original_dtype": "float32"}}, {"name": "bn5a_branch2b/gamma", "shape": [512], "dtype": "float32", "quantization": {"dtype": "uint8", "min": 0.5466818809509277, "scale": 0.0023046909594068342, "original_dtype": "float32"}}, {"name": "bn5a_branch2b/beta", "shape": [512], "dtype": "float32", "quantization": {"dtype": "uint8", "min": -0.3539828956127167, "scale": 0.001116012124454274, "original_dtype": "float32"}}, {"name": "bn5a_branch2b/moving_mean", "shape": [512], "dtype": "float32", "quantization": {"dtype": "uint8", "min": -25.32468127082376, "scale": 0.20757935467888328, "original_dtype": "float32"}}, {"name": "bn5a_branch2b/moving_variance", "shape": [512], "dtype": "float32", "quantization": {"dtype": "uint8", "min": 77.50222778320312, "scale": 17.418672329771752, "original_dtype": "float32"}}, {"name": "bn5b1_branch2a/gamma", "shape": [512], "dtype": "float32", "quantization": {"dtype": "uint8", "min": 0.8746742010116577, "scale": 0.0010717078751208736, "original_dtype": "float32"}}, {"name": "bn5b1_branch2a/beta", "shape": [512], "dtype": "float32", "quantization": {"dtype": "uint8", "min": -0.12036080599999896, "scale": 0.0008982149701492459, "original_dtype": "float32"}}, {"name": "bn5b1_branch2a/moving_mean", "shape": [512], "dtype": "float32", "quantization": {"dtype": "uint8", "min": -1.040017879710478, "scale": 0.010833519580317478, "original_dtype": "float32"}}, {"name": "bn5b1_branch2a/moving_variance", "shape": [512], "dtype": "float32", "quantization": {"dtype": "uint8", "min": 0.3023074269294739, "scale": 0.01736231855317658, "original_dtype": "float32"}}, {"name": "bn5b1_branch2b/gamma", "shape": [512], "dtype": "float32", "quantization": {"dtype": "uint8", "min": 0.222345232963562, "scale": 0.0032204506443996054, "original_dtype": "float32"}}, {"name": "bn5b1_branch2b/beta", "shape": [512], "dtype": "float32", "quantization": {"dtype": "uint8", "min": -0.8164724707603455, "scale": 0.0027394944546269436, "original_dtype": "float32"}}, {"name": "bn5b1_branch2b/moving_mean", "shape": [512], "dtype": "float32", "quantization": {"dtype": "uint8", "min": -27.005894993800744, "scale": 0.1377851785397997, "original_dtype": "float32"}}, {"name": "bn5b1_branch2b/moving_variance", "shape": [512], "dtype": "float32", "quantization": {"dtype": "uint8", "min": 42.154762268066406, "scale": 19.272240821987975, "original_dtype": "float32"}}, {"name": "bn_conv1/gamma", "shape": [64], "dtype": "float32", "quantization": {"dtype": "uint8", "min": 0.8018621206283569, "scale": 0.0017962731567083621, "original_dtype": "float32"}}, {"name": "bn_conv1/beta", "shape": [64], "dtype": "float32", "quantization": {"dtype": "uint8", "min": -0.1799017552067252, "scale": 0.0015920509310329662, "original_dtype": "float32"}}, {"name": "bn_conv1/moving_mean", "shape": [64], "dtype": "float32", "quantization": {"dtype": "uint8", "min": -203.80044220569087, "scale": 1.5323341519224878, "original_dtype": "float32"}}, {"name": "bn_conv1/moving_variance", "shape": [64], "dtype": "float32", "quantization": {"dtype": "uint8", "min": 4645.11376953125, "scale": 176.7593271292892, "original_dtype": "float32"}}, {"name": "pyramid_classification_0/kernel", "shape": [3, 3, 256, 256], "dtype": "float32", "quantization": {"dtype": "uint8", "min": -0.1512925112948698, "scale": 0.0014008565860636093, "original_dtype": "float32"}}, {"name": "pyramid_classification_0/bias", "shape": [256], "dtype": "float32", "quantization": {"dtype": "uint8", "min": -0.05800669333514045, "scale": 0.0003625418333446278, "original_dtype": "float32"}}, {"name": "pyramid_classification_1/kernel", "shape": [3, 3, 256, 256], "dtype": "float32", "quantization": {"dtype": "uint8", "min": -0.18479815370896285, "scale": 0.0016210364360435337, "original_dtype": "float32"}}, {"name": "pyramid_classification_1/bias", "shape": [256], "dtype": "float32", "quantization": {"dtype": "uint8", "min": -0.05026763879200992, "scale": 0.0005129350897143869, "original_dtype": "float32"}}, {"name": "pyramid_classification_2/kernel", "shape": [3, 3, 256, 256], "dtype": "float32", "quantization": {"dtype": "uint8", "min": -0.2700831449499317, "scale": 0.001849884554451587, "original_dtype": "float32"}}, {"name": "pyramid_classification_2/bias", "shape": [256], "dtype": "float32", "quantization": {"dtype": "uint8", "min": -0.03864267348658804, "scale": 0.0006662529911480697, "original_dtype": "float32"}}, {"name": "pyramid_classification_3/kernel", "shape": [3, 3, 256, 256], "dtype": "float32", "quantization": {"dtype": "uint8", "min": -0.2928252423510832, "scale": 0.0021852630026200238, "original_dtype": "float32"}}, {"name": "pyramid_classification_3/bias", "shape": [256], "dtype": "float32", "quantization": {"dtype": "uint8", "min": -0.04073926842972344, "scale": 0.0005737925130946963, "original_dtype": "float32"}}, {"name": "pyramid_classification/kernel", "shape": [3, 3, 256, 9], "dtype": "float32", "quantization": {"dtype": "uint8", "min": -0.21124097973692652, "scale": 0.001886080176222558, "original_dtype": "float32"}}, {"name": "pyramid_classification/bias", "shape": [9], "dtype": "float32", "quantization": {"dtype": "uint8", "min": -4.78414249420166, "scale": 0.0013606819452023973, "original_dtype": "float32"}}, {"name": "conv1/kernel", "shape": [7, 7, 3, 64], "dtype": "float32", "quantization": {"dtype": "uint8", "min": -0.2771743209923015, "scale": 0.0019657753261865356, "original_dtype": "float32"}}, {"name": "pyramid_regression_0/kernel", "shape": [3, 3, 256, 256], "dtype": "float32", "quantization": {"dtype": "uint8", "min": -0.2972483890898088, "scale": 0.0025405845221351175, "original_dtype": "float32"}}, {"name": "pyramid_regression_0/bias", "shape": [256], "dtype": "float32", "quantization": {"dtype": "uint8", "min": -0.1424189485025172, "scale": 0.0006532979289106295, "original_dtype": "float32"}}, {"name": "pyramid_regression_1/kernel", "shape": [3, 3, 256, 256], "dtype": "float32", "quantization": {"dtype": "uint8", "min": -0.38766901031428697, "scale": 0.002321371319247227, "original_dtype": "float32"}}, {"name": "pyramid_regression_1/bias", "shape": [256], "dtype": "float32", "quantization": {"dtype": "uint8", "min": -0.10874469315304476, "scale": 0.001812411552550746, "original_dtype": "float32"}}, {"name": "pyramid_regression_2/kernel", "shape": [3, 3, 256, 256], "dtype": "float32", "quantization": {"dtype": "uint8", "min": -0.3708032900211858, "scale": 0.002260995670860889, "original_dtype": "float32"}}, {"name": "pyramid_regression_2/bias", "shape": [256], "dtype": "float32", "quantization": {"dtype": "uint8", "min": -0.17785375468871173, "scale": 0.0015332220231785495, "original_dtype": "float32"}}, {"name": "pyramid_regression_3/kernel", "shape": [3, 3, 256, 256], "dtype": "float32", "quantization": {"dtype": "uint8", "min": -0.4765505187651691, "scale": 0.002836610230745054, "original_dtype": "float32"}}, {"name": "pyramid_regression_3/bias", "shape": [256], "dtype": "float32", "quantization": {"dtype": "uint8", "min": -0.07460667023471758, "scale": 0.0016956061416981266, "original_dtype": "float32"}}, {"name": "pyramid_regression/kernel", "shape": [3, 3, 256, 36], "dtype": "float32", "quantization": {"dtype": "uint8", "min": -0.5971013246798048, "scale": 0.004815333263546813, "original_dtype": "float32"}}, {"name": "pyramid_regression/bias", "shape": [36], "dtype": "float32", "quantization": {"dtype": "uint8", "min": -0.19953044372446396, "scale": 0.0014780032868478813, "original_dtype": "float32"}}, {"name": "res2a_branch1/kernel", "shape": [1, 1, 64, 64], "dtype": "float32", "quantization": {"dtype": "uint8", "min": -0.5550141353233188, "scale": 0.004784604614856197, "original_dtype": "float32"}}, {"name": "res2a_branch2a/kernel", "shape": [3, 3, 64, 64], "dtype": "float32", "quantization": {"dtype": "uint8", "min": -0.28200691868277156, "scale": 0.0022927391762826957, "original_dtype": "float32"}}, {"name": "res2a_branch2b/kernel", "shape": [3, 3, 64, 64], "dtype": "float32", "quantization": {"dtype": "uint8", "min": -0.23647516697060827, "scale": 0.0017780087742150998, "original_dtype": "float32"}}, {"name": "res2b1_branch2a/kernel", "shape": [3, 3, 64, 64], "dtype": "float32", "quantization": {"dtype": "uint8", "min": -0.21320426580952664, "scale": 0.0017056341264762131, "original_dtype": "float32"}}, {"name": "res2b1_branch2b/kernel", "shape": [3, 3, 64, 64], "dtype": "float32", "quantization": {"dtype": "uint8", "min": -0.21947557785931757, "scale": 0.0017146529520259185, "original_dtype": "float32"}}, {"name": "res3a_branch1/kernel", "shape": [1, 1, 64, 128], "dtype": "float32", "quantization": {"dtype": "uint8", "min": -0.48266870227514524, "scale": 0.003956300838320863, "original_dtype": "float32"}}, {"name": "res3a_branch2a/kernel", "shape": [3, 3, 64, 128], "dtype": "float32", "quantization": {"dtype": "uint8", "min": -0.19003885178004992, "scale": 0.0017120617277481976, "original_dtype": "float32"}}, {"name": "res3a_branch2b/kernel", "shape": [3, 3, 128, 128], "dtype": "float32", "quantization": {"dtype": "uint8", "min": -0.18421146004807715, "scale": 0.0014855762907102995, "original_dtype": "float32"}}, {"name": "res3b1_branch2a/kernel", "shape": [3, 3, 128, 128], "dtype": "float32", "quantization": {"dtype": "uint8", "min": -0.15427746480586482, "scale": 0.0012750203702964035, "original_dtype": "float32"}}, {"name": "res3b1_branch2b/kernel", "shape": [3, 3, 128, 128], "dtype": "float32", "quantization": {"dtype": "uint8", "min": -0.1684541188618716, "scale": 0.001369545681803834, "original_dtype": "float32"}}, {"name": "res4a_branch1/kernel", "shape": [1, 1, 128, 256], "dtype": "float32", "quantization": {"dtype": "uint8", "min": -0.39341838850694544, "scale": 0.0031223681627535354, "original_dtype": "float32"}}, {"name": "res4a_branch2a/kernel", "shape": [3, 3, 128, 256], "dtype": "float32", "quantization": {"dtype": "uint8", "min": -0.14897403296302347, "scale": 0.0013067897628335392, "original_dtype": "float32"}}, {"name": "res4a_branch2b/kernel", "shape": [3, 3, 256, 256], "dtype": "float32", "quantization": {"dtype": "uint8", "min": -0.12443774579202427, "scale": 0.0012569469271921643, "original_dtype": "float32"}}, {"name": "res4b1_branch2a/kernel", "shape": [3, 3, 256, 256], "dtype": "float32", "quantization": {"dtype": "uint8", "min": -0.10295615704620585, "scale": 0.0008799671542410757, "original_dtype": "float32"}}, {"name": "res4b1_branch2b/kernel", "shape": [3, 3, 256, 256], "dtype": "float32", "quantization": {"dtype": "uint8", "min": -0.13097268109228097, "scale": 0.000977408067852843, "original_dtype": "float32"}}, {"name": "res5a_branch1/kernel", "shape": [1, 1, 256, 512], "dtype": "float32", "quantization": {"dtype": "uint8", "min": -0.40213407839045806, "scale": 0.00343704340504665, "original_dtype": "float32"}}, {"name": "res5a_branch2a/kernel", "shape": [3, 3, 256, 512], "dtype": "float32", "quantization": {"dtype": "uint8", "min": -0.11274138592621859, "scale": 0.0009165966335464926, "original_dtype": "float32"}}, {"name": "res5a_branch2b/kernel", "shape": [3, 3, 512, 512], "dtype": "float32", "quantization": {"dtype": "uint8", "min": -0.18625793159008028, "scale": 0.0014438599348068238, "original_dtype": "float32"}}, {"name": "res5b1_branch2a/kernel", "shape": [3, 3, 512, 512], "dtype": "float32", "quantization": {"dtype": "uint8", "min": -0.1445823819029565, "scale": 0.0011295498586168476, "original_dtype": "float32"}}, {"name": "res5b1_branch2b/kernel", "shape": [3, 3, 512, 512], "dtype": "float32", "quantization": {"dtype": "uint8", "min": -0.19568844385006848, "scale": 0.0015169646810082827, "original_dtype": "float32"}}]}]}