{"format": "layers-model", "generatedBy": "keras v2.3.1", "convertedBy": "TensorFlow.js Converter v2.0.1.post1", "modelTopology": {"keras_version": "2.3.1", "backend": "tensorflow", "model_config": {"class_name": "Model", "config": {"name": "retinanet", "layers": [{"name": "input_1", "class_name": "InputLayer", "config": {"batch_input_shape": [null, 512, 512, 3], "dtype": "float32", "sparse": false, "name": "input_1"}, "inbound_nodes": []}, {"name": "padding_conv1", "class_name": "ZeroPadding2D", "config": {"name": "padding_conv1", "trainable": true, "dtype": "float32", "padding": [[3, 3], [3, 3]], "data_format": "channels_last"}, "inbound_nodes": [[["input_1", 0, 0, {}]]]}, {"name": "conv1", "class_name": "Conv2D", "config": {"name": "conv1", "trainable": true, "dtype": "float32", "filters": 64, "kernel_size": [7, 7], "strides": [2, 2], "padding": "valid", "data_format": "channels_last", "dilation_rate": [1, 1], "activation": "linear", "use_bias": false, "kernel_initializer": {"class_name": "VarianceScaling", "config": {"scale": 1.0, "mode": "fan_avg", "distribution": "uniform", "seed": null}}, "bias_initializer": {"class_name": "Zeros", "config": {}}, "kernel_regularizer": null, "bias_regularizer": null, "activity_regularizer": null, "kernel_constraint": null, "bias_constraint": null}, "inbound_nodes": [[["padding_conv1", 0, 0, {}]]]}, {"name": "bn_conv1", "class_name": "BatchNormalization", "config": {"name": "bn_conv1", "trainable": true, "dtype": "float32", "axis": 3, "momentum": 0.99, "epsilon": 1e-05, "center": true, "scale": true, "beta_initializer": {"class_name": "Zeros", "config": {}}, "gamma_initializer": {"class_name": "Ones", "config": {}}, "moving_mean_initializer": {"class_name": "Zeros", "config": {}}, "moving_variance_initializer": {"class_name": "Ones", "config": {}}, "beta_regularizer": null, "gamma_regularizer": null, "beta_constraint": null, "gamma_constraint": null, "freeze": false}, "inbound_nodes": [[["conv1", 0, 0, {}]]]}, {"name": "conv1_relu", "class_name": "Activation", "config": {"name": "conv1_relu", "trainable": true, "dtype": "float32", "activation": "relu"}, "inbound_nodes": [[["bn_conv1", 0, 0, {}]]]}, {"name": "pool1", "class_name": "MaxPooling2D", "config": {"name": "pool1", "trainable": true, "dtype": "float32", "pool_size": [3, 3], "padding": "same", "strides": [2, 2], "data_format": "channels_last"}, "inbound_nodes": [[["conv1_relu", 0, 0, {}]]]}, {"name": "padding2a_branch2a", "class_name": "ZeroPadding2D", "config": {"name": "padding2a_branch2a", "trainable": true, "dtype": "float32", "padding": [[1, 1], [1, 1]], "data_format": "channels_last"}, "inbound_nodes": [[["pool1", 0, 0, {}]]]}, {"name": "res2a_branch2a", "class_name": "Conv2D", "config": {"name": "res2a_branch2a", "trainable": true, "dtype": "float32", "filters": 64, "kernel_size": [3, 3], "strides": [1, 1], "padding": "valid", "data_format": "channels_last", "dilation_rate": [1, 1], "activation": "linear", "use_bias": false, "kernel_initializer": {"class_name": "VarianceScaling", "config": {"scale": 2.0, "mode": "fan_in", "distribution": "normal", "seed": null}}, "bias_initializer": {"class_name": "Zeros", "config": {}}, "kernel_regularizer": null, "bias_regularizer": null, "activity_regularizer": null, "kernel_constraint": null, "bias_constraint": null}, "inbound_nodes": [[["padding2a_branch2a", 0, 0, {}]]]}, {"name": "bn2a_branch2a", "class_name": "BatchNormalization", "config": {"name": "bn2a_branch2a", "trainable": true, "dtype": "float32", "axis": 3, "momentum": 0.99, "epsilon": 1e-05, "center": true, "scale": true, "beta_initializer": {"class_name": "Zeros", "config": {}}, "gamma_initializer": {"class_name": "Ones", "config": {}}, "moving_mean_initializer": {"class_name": "Zeros", "config": {}}, "moving_variance_initializer": {"class_name": "Ones", "config": {}}, "beta_regularizer": null, "gamma_regularizer": null, "beta_constraint": null, "gamma_constraint": null, "freeze": false}, "inbound_nodes": [[["res2a_branch2a", 0, 0, {}]]]}, {"name": "res2a_branch2a_relu", "class_name": "Activation", "config": {"name": "res2a_branch2a_relu", "trainable": true, "dtype": "float32", "activation": "relu"}, "inbound_nodes": [[["bn2a_branch2a", 0, 0, {}]]]}, {"name": "padding2a_branch2b", "class_name": "ZeroPadding2D", "config": {"name": "padding2a_branch2b", "trainable": true, "dtype": "float32", "padding": [[1, 1], [1, 1]], "data_format": "channels_last"}, "inbound_nodes": [[["res2a_branch2a_relu", 0, 0, {}]]]}, {"name": "res2a_branch2b", "class_name": "Conv2D", "config": {"name": "res2a_branch2b", "trainable": true, "dtype": "float32", "filters": 64, "kernel_size": [3, 3], "strides": [1, 1], "padding": "valid", "data_format": "channels_last", "dilation_rate": [1, 1], "activation": "linear", "use_bias": false, "kernel_initializer": {"class_name": "VarianceScaling", "config": {"scale": 2.0, "mode": "fan_in", "distribution": "normal", "seed": null}}, "bias_initializer": {"class_name": "Zeros", "config": {}}, "kernel_regularizer": null, "bias_regularizer": null, "activity_regularizer": null, "kernel_constraint": null, "bias_constraint": null}, "inbound_nodes": [[["padding2a_branch2b", 0, 0, {}]]]}, {"name": "res2a_branch1", "class_name": "Conv2D", "config": {"name": "res2a_branch1", "trainable": true, "dtype": "float32", "filters": 64, "kernel_size": [1, 1], "strides": [1, 1], "padding": "valid", "data_format": "channels_last", "dilation_rate": [1, 1], "activation": "linear", "use_bias": false, "kernel_initializer": {"class_name": "VarianceScaling", "config": {"scale": 2.0, "mode": "fan_in", "distribution": "normal", "seed": null}}, "bias_initializer": {"class_name": "Zeros", "config": {}}, "kernel_regularizer": null, "bias_regularizer": null, "activity_regularizer": null, "kernel_constraint": null, "bias_constraint": null}, "inbound_nodes": [[["pool1", 0, 0, {}]]]}, {"name": "bn2a_branch2b", "class_name": "BatchNormalization", "config": {"name": "bn2a_branch2b", "trainable": true, "dtype": "float32", "axis": 3, "momentum": 0.99, "epsilon": 1e-05, "center": true, "scale": true, "beta_initializer": {"class_name": "Zeros", "config": {}}, "gamma_initializer": {"class_name": "Ones", "config": {}}, "moving_mean_initializer": {"class_name": "Zeros", "config": {}}, "moving_variance_initializer": {"class_name": "Ones", "config": {}}, "beta_regularizer": null, "gamma_regularizer": null, "beta_constraint": null, "gamma_constraint": null, "freeze": false}, "inbound_nodes": [[["res2a_branch2b", 0, 0, {}]]]}, {"name": "bn2a_branch1", "class_name": "BatchNormalization", "config": {"name": "bn2a_branch1", "trainable": true, "dtype": "float32", "axis": 3, "momentum": 0.99, "epsilon": 1e-05, "center": true, "scale": true, "beta_initializer": {"class_name": "Zeros", "config": {}}, "gamma_initializer": {"class_name": "Ones", "config": {}}, "moving_mean_initializer": {"class_name": "Zeros", "config": {}}, "moving_variance_initializer": {"class_name": "Ones", "config": {}}, "beta_regularizer": null, "gamma_regularizer": null, "beta_constraint": null, "gamma_constraint": null, "freeze": false}, "inbound_nodes": [[["res2a_branch1", 0, 0, {}]]]}, {"name": "res2a", "class_name": "Add", "config": {"name": "res2a", "trainable": true, "dtype": "float32"}, "inbound_nodes": [[["bn2a_branch2b", 0, 0, {}], ["bn2a_branch1", 0, 0, {}]]]}, {"name": "res2a_relu", "class_name": "Activation", "config": {"name": "res2a_relu", "trainable": true, "dtype": "float32", "activation": "relu"}, "inbound_nodes": [[["res2a", 0, 0, {}]]]}, {"name": "padding2b1_branch2a", "class_name": "ZeroPadding2D", "config": {"name": "padding2b1_branch2a", "trainable": true, "dtype": "float32", "padding": [[1, 1], [1, 1]], "data_format": "channels_last"}, "inbound_nodes": [[["res2a_relu", 0, 0, {}]]]}, {"name": "res2b1_branch2a", "class_name": "Conv2D", "config": {"name": "res2b1_branch2a", "trainable": true, "dtype": "float32", "filters": 64, "kernel_size": [3, 3], "strides": [1, 1], "padding": "valid", "data_format": "channels_last", "dilation_rate": [1, 1], "activation": "linear", "use_bias": false, "kernel_initializer": {"class_name": "VarianceScaling", "config": {"scale": 2.0, "mode": "fan_in", "distribution": "normal", "seed": null}}, "bias_initializer": {"class_name": "Zeros", "config": {}}, "kernel_regularizer": null, "bias_regularizer": null, "activity_regularizer": null, "kernel_constraint": null, "bias_constraint": null}, "inbound_nodes": [[["padding2b1_branch2a", 0, 0, {}]]]}, {"name": "bn2b1_branch2a", "class_name": "BatchNormalization", "config": {"name": "bn2b1_branch2a", "trainable": true, "dtype": "float32", "axis": 3, "momentum": 0.99, "epsilon": 1e-05, "center": true, "scale": true, "beta_initializer": {"class_name": "Zeros", "config": {}}, "gamma_initializer": {"class_name": "Ones", "config": {}}, "moving_mean_initializer": {"class_name": "Zeros", "config": {}}, "moving_variance_initializer": {"class_name": "Ones", "config": {}}, "beta_regularizer": null, "gamma_regularizer": null, "beta_constraint": null, "gamma_constraint": null, "freeze": false}, "inbound_nodes": [[["res2b1_branch2a", 0, 0, {}]]]}, {"name": "res2b1_branch2a_relu", "class_name": "Activation", "config": {"name": "res2b1_branch2a_relu", "trainable": true, "dtype": "float32", "activation": "relu"}, "inbound_nodes": [[["bn2b1_branch2a", 0, 0, {}]]]}, {"name": "padding2b1_branch2b", "class_name": "ZeroPadding2D", "config": {"name": "padding2b1_branch2b", "trainable": true, "dtype": "float32", "padding": [[1, 1], [1, 1]], "data_format": "channels_last"}, "inbound_nodes": [[["res2b1_branch2a_relu", 0, 0, {}]]]}, {"name": "res2b1_branch2b", "class_name": "Conv2D", "config": {"name": "res2b1_branch2b", "trainable": true, "dtype": "float32", "filters": 64, "kernel_size": [3, 3], "strides": [1, 1], "padding": "valid", "data_format": "channels_last", "dilation_rate": [1, 1], "activation": "linear", "use_bias": false, "kernel_initializer": {"class_name": "VarianceScaling", "config": {"scale": 2.0, "mode": "fan_in", "distribution": "normal", "seed": null}}, "bias_initializer": {"class_name": "Zeros", "config": {}}, "kernel_regularizer": null, "bias_regularizer": null, "activity_regularizer": null, "kernel_constraint": null, "bias_constraint": null}, "inbound_nodes": [[["padding2b1_branch2b", 0, 0, {}]]]}, {"name": "bn2b1_branch2b", "class_name": "BatchNormalization", "config": {"name": "bn2b1_branch2b", "trainable": true, "dtype": "float32", "axis": 3, "momentum": 0.99, "epsilon": 1e-05, "center": true, "scale": true, "beta_initializer": {"class_name": "Zeros", "config": {}}, "gamma_initializer": {"class_name": "Ones", "config": {}}, "moving_mean_initializer": {"class_name": "Zeros", "config": {}}, "moving_variance_initializer": {"class_name": "Ones", "config": {}}, "beta_regularizer": null, "gamma_regularizer": null, "beta_constraint": null, "gamma_constraint": null, "freeze": false}, "inbound_nodes": [[["res2b1_branch2b", 0, 0, {}]]]}, {"name": "res2b1", "class_name": "Add", "config": {"name": "res2b1", "trainable": true, "dtype": "float32"}, "inbound_nodes": [[["bn2b1_branch2b", 0, 0, {}], ["res2a_relu", 0, 0, {}]]]}, {"name": "res2b1_relu", "class_name": "Activation", "config": {"name": "res2b1_relu", "trainable": true, "dtype": "float32", "activation": "relu"}, "inbound_nodes": [[["res2b1", 0, 0, {}]]]}, {"name": "padding3a_branch2a", "class_name": "ZeroPadding2D", "config": {"name": "padding3a_branch2a", "trainable": true, "dtype": "float32", "padding": [[1, 1], [1, 1]], "data_format": "channels_last"}, "inbound_nodes": [[["res2b1_relu", 0, 0, {}]]]}, {"name": "res3a_branch2a", "class_name": "Conv2D", "config": {"name": "res3a_branch2a", "trainable": true, "dtype": "float32", "filters": 128, "kernel_size": [3, 3], "strides": [2, 2], "padding": "valid", "data_format": "channels_last", "dilation_rate": [1, 1], "activation": "linear", "use_bias": false, "kernel_initializer": {"class_name": "VarianceScaling", "config": {"scale": 2.0, "mode": "fan_in", "distribution": "normal", "seed": null}}, "bias_initializer": {"class_name": "Zeros", "config": {}}, "kernel_regularizer": null, "bias_regularizer": null, "activity_regularizer": null, "kernel_constraint": null, "bias_constraint": null}, "inbound_nodes": [[["padding3a_branch2a", 0, 0, {}]]]}, {"name": "bn3a_branch2a", "class_name": "BatchNormalization", "config": {"name": "bn3a_branch2a", "trainable": true, "dtype": "float32", "axis": 3, "momentum": 0.99, "epsilon": 1e-05, "center": true, "scale": true, "beta_initializer": {"class_name": "Zeros", "config": {}}, "gamma_initializer": {"class_name": "Ones", "config": {}}, "moving_mean_initializer": {"class_name": "Zeros", "config": {}}, "moving_variance_initializer": {"class_name": "Ones", "config": {}}, "beta_regularizer": null, "gamma_regularizer": null, "beta_constraint": null, "gamma_constraint": null, "freeze": false}, "inbound_nodes": [[["res3a_branch2a", 0, 0, {}]]]}, {"name": "res3a_branch2a_relu", "class_name": "Activation", "config": {"name": "res3a_branch2a_relu", "trainable": true, "dtype": "float32", "activation": "relu"}, "inbound_nodes": [[["bn3a_branch2a", 0, 0, {}]]]}, {"name": "padding3a_branch2b", "class_name": "ZeroPadding2D", "config": {"name": "padding3a_branch2b", "trainable": true, "dtype": "float32", "padding": [[1, 1], [1, 1]], "data_format": "channels_last"}, "inbound_nodes": [[["res3a_branch2a_relu", 0, 0, {}]]]}, {"name": "res3a_branch2b", "class_name": "Conv2D", "config": {"name": "res3a_branch2b", "trainable": true, "dtype": "float32", "filters": 128, "kernel_size": [3, 3], "strides": [1, 1], "padding": "valid", "data_format": "channels_last", "dilation_rate": [1, 1], "activation": "linear", "use_bias": false, "kernel_initializer": {"class_name": "VarianceScaling", "config": {"scale": 2.0, "mode": "fan_in", "distribution": "normal", "seed": null}}, "bias_initializer": {"class_name": "Zeros", "config": {}}, "kernel_regularizer": null, "bias_regularizer": null, "activity_regularizer": null, "kernel_constraint": null, "bias_constraint": null}, "inbound_nodes": [[["padding3a_branch2b", 0, 0, {}]]]}, {"name": "res3a_branch1", "class_name": "Conv2D", "config": {"name": "res3a_branch1", "trainable": true, "dtype": "float32", "filters": 128, "kernel_size": [1, 1], "strides": [2, 2], "padding": "valid", "data_format": "channels_last", "dilation_rate": [1, 1], "activation": "linear", "use_bias": false, "kernel_initializer": {"class_name": "VarianceScaling", "config": {"scale": 2.0, "mode": "fan_in", "distribution": "normal", "seed": null}}, "bias_initializer": {"class_name": "Zeros", "config": {}}, "kernel_regularizer": null, "bias_regularizer": null, "activity_regularizer": null, "kernel_constraint": null, "bias_constraint": null}, "inbound_nodes": [[["res2b1_relu", 0, 0, {}]]]}, {"name": "bn3a_branch2b", "class_name": "BatchNormalization", "config": {"name": "bn3a_branch2b", "trainable": true, "dtype": "float32", "axis": 3, "momentum": 0.99, "epsilon": 1e-05, "center": true, "scale": true, "beta_initializer": {"class_name": "Zeros", "config": {}}, "gamma_initializer": {"class_name": "Ones", "config": {}}, "moving_mean_initializer": {"class_name": "Zeros", "config": {}}, "moving_variance_initializer": {"class_name": "Ones", "config": {}}, "beta_regularizer": null, "gamma_regularizer": null, "beta_constraint": null, "gamma_constraint": null, "freeze": false}, "inbound_nodes": [[["res3a_branch2b", 0, 0, {}]]]}, {"name": "bn3a_branch1", "class_name": "BatchNormalization", "config": {"name": "bn3a_branch1", "trainable": true, "dtype": "float32", "axis": 3, "momentum": 0.99, "epsilon": 1e-05, "center": true, "scale": true, "beta_initializer": {"class_name": "Zeros", "config": {}}, "gamma_initializer": {"class_name": "Ones", "config": {}}, "moving_mean_initializer": {"class_name": "Zeros", "config": {}}, "moving_variance_initializer": {"class_name": "Ones", "config": {}}, "beta_regularizer": null, "gamma_regularizer": null, "beta_constraint": null, "gamma_constraint": null, "freeze": false}, "inbound_nodes": [[["res3a_branch1", 0, 0, {}]]]}, {"name": "res3a", "class_name": "Add", "config": {"name": "res3a", "trainable": true, "dtype": "float32"}, "inbound_nodes": [[["bn3a_branch2b", 0, 0, {}], ["bn3a_branch1", 0, 0, {}]]]}, {"name": "res3a_relu", "class_name": "Activation", "config": {"name": "res3a_relu", "trainable": true, "dtype": "float32", "activation": "relu"}, "inbound_nodes": [[["res3a", 0, 0, {}]]]}, {"name": "padding3b1_branch2a", "class_name": "ZeroPadding2D", "config": {"name": "padding3b1_branch2a", "trainable": true, "dtype": "float32", "padding": [[1, 1], [1, 1]], "data_format": "channels_last"}, "inbound_nodes": [[["res3a_relu", 0, 0, {}]]]}, {"name": "res3b1_branch2a", "class_name": "Conv2D", "config": {"name": "res3b1_branch2a", "trainable": true, "dtype": "float32", "filters": 128, "kernel_size": [3, 3], "strides": [1, 1], "padding": "valid", "data_format": "channels_last", "dilation_rate": [1, 1], "activation": "linear", "use_bias": false, "kernel_initializer": {"class_name": "VarianceScaling", "config": {"scale": 2.0, "mode": "fan_in", "distribution": "normal", "seed": null}}, "bias_initializer": {"class_name": "Zeros", "config": {}}, "kernel_regularizer": null, "bias_regularizer": null, "activity_regularizer": null, "kernel_constraint": null, "bias_constraint": null}, "inbound_nodes": [[["padding3b1_branch2a", 0, 0, {}]]]}, {"name": "bn3b1_branch2a", "class_name": "BatchNormalization", "config": {"name": "bn3b1_branch2a", "trainable": true, "dtype": "float32", "axis": 3, "momentum": 0.99, "epsilon": 1e-05, "center": true, "scale": true, "beta_initializer": {"class_name": "Zeros", "config": {}}, "gamma_initializer": {"class_name": "Ones", "config": {}}, "moving_mean_initializer": {"class_name": "Zeros", "config": {}}, "moving_variance_initializer": {"class_name": "Ones", "config": {}}, "beta_regularizer": null, "gamma_regularizer": null, "beta_constraint": null, "gamma_constraint": null, "freeze": false}, "inbound_nodes": [[["res3b1_branch2a", 0, 0, {}]]]}, {"name": "res3b1_branch2a_relu", "class_name": "Activation", "config": {"name": "res3b1_branch2a_relu", "trainable": true, "dtype": "float32", "activation": "relu"}, "inbound_nodes": [[["bn3b1_branch2a", 0, 0, {}]]]}, {"name": "padding3b1_branch2b", "class_name": "ZeroPadding2D", "config": {"name": "padding3b1_branch2b", "trainable": true, "dtype": "float32", "padding": [[1, 1], [1, 1]], "data_format": "channels_last"}, "inbound_nodes": [[["res3b1_branch2a_relu", 0, 0, {}]]]}, {"name": "res3b1_branch2b", "class_name": "Conv2D", "config": {"name": "res3b1_branch2b", "trainable": true, "dtype": "float32", "filters": 128, "kernel_size": [3, 3], "strides": [1, 1], "padding": "valid", "data_format": "channels_last", "dilation_rate": [1, 1], "activation": "linear", "use_bias": false, "kernel_initializer": {"class_name": "VarianceScaling", "config": {"scale": 2.0, "mode": "fan_in", "distribution": "normal", "seed": null}}, "bias_initializer": {"class_name": "Zeros", "config": {}}, "kernel_regularizer": null, "bias_regularizer": null, "activity_regularizer": null, "kernel_constraint": null, "bias_constraint": null}, "inbound_nodes": [[["padding3b1_branch2b", 0, 0, {}]]]}, {"name": "bn3b1_branch2b", "class_name": "BatchNormalization", "config": {"name": "bn3b1_branch2b", "trainable": true, "dtype": "float32", "axis": 3, "momentum": 0.99, "epsilon": 1e-05, "center": true, "scale": true, "beta_initializer": {"class_name": "Zeros", "config": {}}, "gamma_initializer": {"class_name": "Ones", "config": {}}, "moving_mean_initializer": {"class_name": "Zeros", "config": {}}, "moving_variance_initializer": {"class_name": "Ones", "config": {}}, "beta_regularizer": null, "gamma_regularizer": null, "beta_constraint": null, "gamma_constraint": null, "freeze": false}, "inbound_nodes": [[["res3b1_branch2b", 0, 0, {}]]]}, {"name": "res3b1", "class_name": "Add", "config": {"name": "res3b1", "trainable": true, "dtype": "float32"}, "inbound_nodes": [[["bn3b1_branch2b", 0, 0, {}], ["res3a_relu", 0, 0, {}]]]}, {"name": "res3b1_relu", "class_name": "Activation", "config": {"name": "res3b1_relu", "trainable": true, "dtype": "float32", "activation": "relu"}, "inbound_nodes": [[["res3b1", 0, 0, {}]]]}, {"name": "padding4a_branch2a", "class_name": "ZeroPadding2D", "config": {"name": "padding4a_branch2a", "trainable": true, "dtype": "float32", "padding": [[1, 1], [1, 1]], "data_format": "channels_last"}, "inbound_nodes": [[["res3b1_relu", 0, 0, {}]]]}, {"name": "res4a_branch2a", "class_name": "Conv2D", "config": {"name": "res4a_branch2a", "trainable": true, "dtype": "float32", "filters": 256, "kernel_size": [3, 3], "strides": [2, 2], "padding": "valid", "data_format": "channels_last", "dilation_rate": [1, 1], "activation": "linear", "use_bias": false, "kernel_initializer": {"class_name": "VarianceScaling", "config": {"scale": 2.0, "mode": "fan_in", "distribution": "normal", "seed": null}}, "bias_initializer": {"class_name": "Zeros", "config": {}}, "kernel_regularizer": null, "bias_regularizer": null, "activity_regularizer": null, "kernel_constraint": null, "bias_constraint": null}, "inbound_nodes": [[["padding4a_branch2a", 0, 0, {}]]]}, {"name": "bn4a_branch2a", "class_name": "BatchNormalization", "config": {"name": "bn4a_branch2a", "trainable": true, "dtype": "float32", "axis": 3, "momentum": 0.99, "epsilon": 1e-05, "center": true, "scale": true, "beta_initializer": {"class_name": "Zeros", "config": {}}, "gamma_initializer": {"class_name": "Ones", "config": {}}, "moving_mean_initializer": {"class_name": "Zeros", "config": {}}, "moving_variance_initializer": {"class_name": "Ones", "config": {}}, "beta_regularizer": null, "gamma_regularizer": null, "beta_constraint": null, "gamma_constraint": null, "freeze": false}, "inbound_nodes": [[["res4a_branch2a", 0, 0, {}]]]}, {"name": "res4a_branch2a_relu", "class_name": "Activation", "config": {"name": "res4a_branch2a_relu", "trainable": true, "dtype": "float32", "activation": "relu"}, "inbound_nodes": [[["bn4a_branch2a", 0, 0, {}]]]}, {"name": "padding4a_branch2b", "class_name": "ZeroPadding2D", "config": {"name": "padding4a_branch2b", "trainable": true, "dtype": "float32", "padding": [[1, 1], [1, 1]], "data_format": "channels_last"}, "inbound_nodes": [[["res4a_branch2a_relu", 0, 0, {}]]]}, {"name": "res4a_branch2b", "class_name": "Conv2D", "config": {"name": "res4a_branch2b", "trainable": true, "dtype": "float32", "filters": 256, "kernel_size": [3, 3], "strides": [1, 1], "padding": "valid", "data_format": "channels_last", "dilation_rate": [1, 1], "activation": "linear", "use_bias": false, "kernel_initializer": {"class_name": "VarianceScaling", "config": {"scale": 2.0, "mode": "fan_in", "distribution": "normal", "seed": null}}, "bias_initializer": {"class_name": "Zeros", "config": {}}, "kernel_regularizer": null, "bias_regularizer": null, "activity_regularizer": null, "kernel_constraint": null, "bias_constraint": null}, "inbound_nodes": [[["padding4a_branch2b", 0, 0, {}]]]}, {"name": "res4a_branch1", "class_name": "Conv2D", "config": {"name": "res4a_branch1", "trainable": true, "dtype": "float32", "filters": 256, "kernel_size": [1, 1], "strides": [2, 2], "padding": "valid", "data_format": "channels_last", "dilation_rate": [1, 1], "activation": "linear", "use_bias": false, "kernel_initializer": {"class_name": "VarianceScaling", "config": {"scale": 2.0, "mode": "fan_in", "distribution": "normal", "seed": null}}, "bias_initializer": {"class_name": "Zeros", "config": {}}, "kernel_regularizer": null, "bias_regularizer": null, "activity_regularizer": null, "kernel_constraint": null, "bias_constraint": null}, "inbound_nodes": [[["res3b1_relu", 0, 0, {}]]]}, {"name": "bn4a_branch2b", "class_name": "BatchNormalization", "config": {"name": "bn4a_branch2b", "trainable": true, "dtype": "float32", "axis": 3, "momentum": 0.99, "epsilon": 1e-05, "center": true, "scale": true, "beta_initializer": {"class_name": "Zeros", "config": {}}, "gamma_initializer": {"class_name": "Ones", "config": {}}, "moving_mean_initializer": {"class_name": "Zeros", "config": {}}, "moving_variance_initializer": {"class_name": "Ones", "config": {}}, "beta_regularizer": null, "gamma_regularizer": null, "beta_constraint": null, "gamma_constraint": null, "freeze": false}, "inbound_nodes": [[["res4a_branch2b", 0, 0, {}]]]}, {"name": "bn4a_branch1", "class_name": "BatchNormalization", "config": {"name": "bn4a_branch1", "trainable": true, "dtype": "float32", "axis": 3, "momentum": 0.99, "epsilon": 1e-05, "center": true, "scale": true, "beta_initializer": {"class_name": "Zeros", "config": {}}, "gamma_initializer": {"class_name": "Ones", "config": {}}, "moving_mean_initializer": {"class_name": "Zeros", "config": {}}, "moving_variance_initializer": {"class_name": "Ones", "config": {}}, "beta_regularizer": null, "gamma_regularizer": null, "beta_constraint": null, "gamma_constraint": null, "freeze": false}, "inbound_nodes": [[["res4a_branch1", 0, 0, {}]]]}, {"name": "res4a", "class_name": "Add", "config": {"name": "res4a", "trainable": true, "dtype": "float32"}, "inbound_nodes": [[["bn4a_branch2b", 0, 0, {}], ["bn4a_branch1", 0, 0, {}]]]}, {"name": "res4a_relu", "class_name": "Activation", "config": {"name": "res4a_relu", "trainable": true, "dtype": "float32", "activation": "relu"}, "inbound_nodes": [[["res4a", 0, 0, {}]]]}, {"name": "padding4b1_branch2a", "class_name": "ZeroPadding2D", "config": {"name": "padding4b1_branch2a", "trainable": true, "dtype": "float32", "padding": [[1, 1], [1, 1]], "data_format": "channels_last"}, "inbound_nodes": [[["res4a_relu", 0, 0, {}]]]}, {"name": "res4b1_branch2a", "class_name": "Conv2D", "config": {"name": "res4b1_branch2a", "trainable": true, "dtype": "float32", "filters": 256, "kernel_size": [3, 3], "strides": [1, 1], "padding": "valid", "data_format": "channels_last", "dilation_rate": [1, 1], "activation": "linear", "use_bias": false, "kernel_initializer": {"class_name": "VarianceScaling", "config": {"scale": 2.0, "mode": "fan_in", "distribution": "normal", "seed": null}}, "bias_initializer": {"class_name": "Zeros", "config": {}}, "kernel_regularizer": null, "bias_regularizer": null, "activity_regularizer": null, "kernel_constraint": null, "bias_constraint": null}, "inbound_nodes": [[["padding4b1_branch2a", 0, 0, {}]]]}, {"name": "bn4b1_branch2a", "class_name": "BatchNormalization", "config": {"name": "bn4b1_branch2a", "trainable": true, "dtype": "float32", "axis": 3, "momentum": 0.99, "epsilon": 1e-05, "center": true, "scale": true, "beta_initializer": {"class_name": "Zeros", "config": {}}, "gamma_initializer": {"class_name": "Ones", "config": {}}, "moving_mean_initializer": {"class_name": "Zeros", "config": {}}, "moving_variance_initializer": {"class_name": "Ones", "config": {}}, "beta_regularizer": null, "gamma_regularizer": null, "beta_constraint": null, "gamma_constraint": null, "freeze": false}, "inbound_nodes": [[["res4b1_branch2a", 0, 0, {}]]]}, {"name": "res4b1_branch2a_relu", "class_name": "Activation", "config": {"name": "res4b1_branch2a_relu", "trainable": true, "dtype": "float32", "activation": "relu"}, "inbound_nodes": [[["bn4b1_branch2a", 0, 0, {}]]]}, {"name": "padding4b1_branch2b", "class_name": "ZeroPadding2D", "config": {"name": "padding4b1_branch2b", "trainable": true, "dtype": "float32", "padding": [[1, 1], [1, 1]], "data_format": "channels_last"}, "inbound_nodes": [[["res4b1_branch2a_relu", 0, 0, {}]]]}, {"name": "res4b1_branch2b", "class_name": "Conv2D", "config": {"name": "res4b1_branch2b", "trainable": true, "dtype": "float32", "filters": 256, "kernel_size": [3, 3], "strides": [1, 1], "padding": "valid", "data_format": "channels_last", "dilation_rate": [1, 1], "activation": "linear", "use_bias": false, "kernel_initializer": {"class_name": "VarianceScaling", "config": {"scale": 2.0, "mode": "fan_in", "distribution": "normal", "seed": null}}, "bias_initializer": {"class_name": "Zeros", "config": {}}, "kernel_regularizer": null, "bias_regularizer": null, "activity_regularizer": null, "kernel_constraint": null, "bias_constraint": null}, "inbound_nodes": [[["padding4b1_branch2b", 0, 0, {}]]]}, {"name": "bn4b1_branch2b", "class_name": "BatchNormalization", "config": {"name": "bn4b1_branch2b", "trainable": true, "dtype": "float32", "axis": 3, "momentum": 0.99, "epsilon": 1e-05, "center": true, "scale": true, "beta_initializer": {"class_name": "Zeros", "config": {}}, "gamma_initializer": {"class_name": "Ones", "config": {}}, "moving_mean_initializer": {"class_name": "Zeros", "config": {}}, "moving_variance_initializer": {"class_name": "Ones", "config": {}}, "beta_regularizer": null, "gamma_regularizer": null, "beta_constraint": null, "gamma_constraint": null, "freeze": false}, "inbound_nodes": [[["res4b1_branch2b", 0, 0, {}]]]}, {"name": "res4b1", "class_name": "Add", "config": {"name": "res4b1", "trainable": true, "dtype": "float32"}, "inbound_nodes": [[["bn4b1_branch2b", 0, 0, {}], ["res4a_relu", 0, 0, {}]]]}, {"name": "res4b1_relu", "class_name": "Activation", "config": {"name": "res4b1_relu", "trainable": true, "dtype": "float32", "activation": "relu"}, "inbound_nodes": [[["res4b1", 0, 0, {}]]]}, {"name": "padding5a_branch2a", "class_name": "ZeroPadding2D", "config": {"name": "padding5a_branch2a", "trainable": true, "dtype": "float32", "padding": [[1, 1], [1, 1]], "data_format": "channels_last"}, "inbound_nodes": [[["res4b1_relu", 0, 0, {}]]]}, {"name": "res5a_branch2a", "class_name": "Conv2D", "config": {"name": "res5a_branch2a", "trainable": true, "dtype": "float32", "filters": 512, "kernel_size": [3, 3], "strides": [2, 2], "padding": "valid", "data_format": "channels_last", "dilation_rate": [1, 1], "activation": "linear", "use_bias": false, "kernel_initializer": {"class_name": "VarianceScaling", "config": {"scale": 2.0, "mode": "fan_in", "distribution": "normal", "seed": null}}, "bias_initializer": {"class_name": "Zeros", "config": {}}, "kernel_regularizer": null, "bias_regularizer": null, "activity_regularizer": null, "kernel_constraint": null, "bias_constraint": null}, "inbound_nodes": [[["padding5a_branch2a", 0, 0, {}]]]}, {"name": "bn5a_branch2a", "class_name": "BatchNormalization", "config": {"name": "bn5a_branch2a", "trainable": true, "dtype": "float32", "axis": 3, "momentum": 0.99, "epsilon": 1e-05, "center": true, "scale": true, "beta_initializer": {"class_name": "Zeros", "config": {}}, "gamma_initializer": {"class_name": "Ones", "config": {}}, "moving_mean_initializer": {"class_name": "Zeros", "config": {}}, "moving_variance_initializer": {"class_name": "Ones", "config": {}}, "beta_regularizer": null, "gamma_regularizer": null, "beta_constraint": null, "gamma_constraint": null, "freeze": false}, "inbound_nodes": [[["res5a_branch2a", 0, 0, {}]]]}, {"name": "res5a_branch2a_relu", "class_name": "Activation", "config": {"name": "res5a_branch2a_relu", "trainable": true, "dtype": "float32", "activation": "relu"}, "inbound_nodes": [[["bn5a_branch2a", 0, 0, {}]]]}, {"name": "padding5a_branch2b", "class_name": "ZeroPadding2D", "config": {"name": "padding5a_branch2b", "trainable": true, "dtype": "float32", "padding": [[1, 1], [1, 1]], "data_format": "channels_last"}, "inbound_nodes": [[["res5a_branch2a_relu", 0, 0, {}]]]}, {"name": "res5a_branch2b", "class_name": "Conv2D", "config": {"name": "res5a_branch2b", "trainable": true, "dtype": "float32", "filters": 512, "kernel_size": [3, 3], "strides": [1, 1], "padding": "valid", "data_format": "channels_last", "dilation_rate": [1, 1], "activation": "linear", "use_bias": false, "kernel_initializer": {"class_name": "VarianceScaling", "config": {"scale": 2.0, "mode": "fan_in", "distribution": "normal", "seed": null}}, "bias_initializer": {"class_name": "Zeros", "config": {}}, "kernel_regularizer": null, "bias_regularizer": null, "activity_regularizer": null, "kernel_constraint": null, "bias_constraint": null}, "inbound_nodes": [[["padding5a_branch2b", 0, 0, {}]]]}, {"name": "res5a_branch1", "class_name": "Conv2D", "config": {"name": "res5a_branch1", "trainable": true, "dtype": "float32", "filters": 512, "kernel_size": [1, 1], "strides": [2, 2], "padding": "valid", "data_format": "channels_last", "dilation_rate": [1, 1], "activation": "linear", "use_bias": false, "kernel_initializer": {"class_name": "VarianceScaling", "config": {"scale": 2.0, "mode": "fan_in", "distribution": "normal", "seed": null}}, "bias_initializer": {"class_name": "Zeros", "config": {}}, "kernel_regularizer": null, "bias_regularizer": null, "activity_regularizer": null, "kernel_constraint": null, "bias_constraint": null}, "inbound_nodes": [[["res4b1_relu", 0, 0, {}]]]}, {"name": "bn5a_branch2b", "class_name": "BatchNormalization", "config": {"name": "bn5a_branch2b", "trainable": true, "dtype": "float32", "axis": 3, "momentum": 0.99, "epsilon": 1e-05, "center": true, "scale": true, "beta_initializer": {"class_name": "Zeros", "config": {}}, "gamma_initializer": {"class_name": "Ones", "config": {}}, "moving_mean_initializer": {"class_name": "Zeros", "config": {}}, "moving_variance_initializer": {"class_name": "Ones", "config": {}}, "beta_regularizer": null, "gamma_regularizer": null, "beta_constraint": null, "gamma_constraint": null, "freeze": false}, "inbound_nodes": [[["res5a_branch2b", 0, 0, {}]]]}, {"name": "bn5a_branch1", "class_name": "BatchNormalization", "config": {"name": "bn5a_branch1", "trainable": true, "dtype": "float32", "axis": 3, "momentum": 0.99, "epsilon": 1e-05, "center": true, "scale": true, "beta_initializer": {"class_name": "Zeros", "config": {}}, "gamma_initializer": {"class_name": "Ones", "config": {}}, "moving_mean_initializer": {"class_name": "Zeros", "config": {}}, "moving_variance_initializer": {"class_name": "Ones", "config": {}}, "beta_regularizer": null, "gamma_regularizer": null, "beta_constraint": null, "gamma_constraint": null, "freeze": false}, "inbound_nodes": [[["res5a_branch1", 0, 0, {}]]]}, {"name": "res5a", "class_name": "Add", "config": {"name": "res5a", "trainable": true, "dtype": "float32"}, "inbound_nodes": [[["bn5a_branch2b", 0, 0, {}], ["bn5a_branch1", 0, 0, {}]]]}, {"name": "res5a_relu", "class_name": "Activation", "config": {"name": "res5a_relu", "trainable": true, "dtype": "float32", "activation": "relu"}, "inbound_nodes": [[["res5a", 0, 0, {}]]]}, {"name": "padding5b1_branch2a", "class_name": "ZeroPadding2D", "config": {"name": "padding5b1_branch2a", "trainable": true, "dtype": "float32", "padding": [[1, 1], [1, 1]], "data_format": "channels_last"}, "inbound_nodes": [[["res5a_relu", 0, 0, {}]]]}, {"name": "res5b1_branch2a", "class_name": "Conv2D", "config": {"name": "res5b1_branch2a", "trainable": true, "dtype": "float32", "filters": 512, "kernel_size": [3, 3], "strides": [1, 1], "padding": "valid", "data_format": "channels_last", "dilation_rate": [1, 1], "activation": "linear", "use_bias": false, "kernel_initializer": {"class_name": "VarianceScaling", "config": {"scale": 2.0, "mode": "fan_in", "distribution": "normal", "seed": null}}, "bias_initializer": {"class_name": "Zeros", "config": {}}, "kernel_regularizer": null, "bias_regularizer": null, "activity_regularizer": null, "kernel_constraint": null, "bias_constraint": null}, "inbound_nodes": [[["padding5b1_branch2a", 0, 0, {}]]]}, {"name": "bn5b1_branch2a", "class_name": "BatchNormalization", "config": {"name": "bn5b1_branch2a", "trainable": true, "dtype": "float32", "axis": 3, "momentum": 0.99, "epsilon": 1e-05, "center": true, "scale": true, "beta_initializer": {"class_name": "Zeros", "config": {}}, "gamma_initializer": {"class_name": "Ones", "config": {}}, "moving_mean_initializer": {"class_name": "Zeros", "config": {}}, "moving_variance_initializer": {"class_name": "Ones", "config": {}}, "beta_regularizer": null, "gamma_regularizer": null, "beta_constraint": null, "gamma_constraint": null, "freeze": false}, "inbound_nodes": [[["res5b1_branch2a", 0, 0, {}]]]}, {"name": "res5b1_branch2a_relu", "class_name": "Activation", "config": {"name": "res5b1_branch2a_relu", "trainable": true, "dtype": "float32", "activation": "relu"}, "inbound_nodes": [[["bn5b1_branch2a", 0, 0, {}]]]}, {"name": "padding5b1_branch2b", "class_name": "ZeroPadding2D", "config": {"name": "padding5b1_branch2b", "trainable": true, "dtype": "float32", "padding": [[1, 1], [1, 1]], "data_format": "channels_last"}, "inbound_nodes": [[["res5b1_branch2a_relu", 0, 0, {}]]]}, {"name": "res5b1_branch2b", "class_name": "Conv2D", "config": {"name": "res5b1_branch2b", "trainable": true, "dtype": "float32", "filters": 512, "kernel_size": [3, 3], "strides": [1, 1], "padding": "valid", "data_format": "channels_last", "dilation_rate": [1, 1], "activation": "linear", "use_bias": false, "kernel_initializer": {"class_name": "VarianceScaling", "config": {"scale": 2.0, "mode": "fan_in", "distribution": "normal", "seed": null}}, "bias_initializer": {"class_name": "Zeros", "config": {}}, "kernel_regularizer": null, "bias_regularizer": null, "activity_regularizer": null, "kernel_constraint": null, "bias_constraint": null}, "inbound_nodes": [[["padding5b1_branch2b", 0, 0, {}]]]}, {"name": "bn5b1_branch2b", "class_name": "BatchNormalization", "config": {"name": "bn5b1_branch2b", "trainable": true, "dtype": "float32", "axis": 3, "momentum": 0.99, "epsilon": 1e-05, "center": true, "scale": true, "beta_initializer": {"class_name": "Zeros", "config": {}}, "gamma_initializer": {"class_name": "Ones", "config": {}}, "moving_mean_initializer": {"class_name": "Zeros", "config": {}}, "moving_variance_initializer": {"class_name": "Ones", "config": {}}, "beta_regularizer": null, "gamma_regularizer": null, "beta_constraint": null, "gamma_constraint": null, "freeze": false}, "inbound_nodes": [[["res5b1_branch2b", 0, 0, {}]]]}, {"name": "res5b1", "class_name": "Add", "config": {"name": "res5b1", "trainable": true, "dtype": "float32"}, "inbound_nodes": [[["bn5b1_branch2b", 0, 0, {}], ["res5a_relu", 0, 0, {}]]]}, {"name": "res5b1_relu", "class_name": "Activation", "config": {"name": "res5b1_relu", "trainable": true, "dtype": "float32", "activation": "relu"}, "inbound_nodes": [[["res5b1", 0, 0, {}]]]}, {"name": "C5_reduced", "class_name": "Conv2D", "config": {"name": "C5_reduced", "trainable": true, "dtype": "float32", "filters": 256, "kernel_size": [1, 1], "strides": [1, 1], "padding": "same", "data_format": "channels_last", "dilation_rate": [1, 1], "activation": "linear", "use_bias": true, "kernel_initializer": {"class_name": "VarianceScaling", "config": {"scale": 1.0, "mode": "fan_avg", "distribution": "uniform", "seed": null}}, "bias_initializer": {"class_name": "Zeros", "config": {}}, "kernel_regularizer": null, "bias_regularizer": null, "activity_regularizer": null, "kernel_constraint": null, "bias_constraint": null}, "inbound_nodes": [[["res5b1_relu", 0, 0, {}]]]}, {"name": "P5_upsampled", "class_name": "UpsampleLike", "config": {"name": "P5_upsampled", "trainable": true, "dtype": "float32"}, "inbound_nodes": [[["C5_reduced", 0, 0, {}], ["res4b1_relu", 0, 0, {}]]]}, {"name": "C4_reduced", "class_name": "Conv2D", "config": {"name": "C4_reduced", "trainable": true, "dtype": "float32", "filters": 256, "kernel_size": [1, 1], "strides": [1, 1], "padding": "same", "data_format": "channels_last", "dilation_rate": [1, 1], "activation": "linear", "use_bias": true, "kernel_initializer": {"class_name": "VarianceScaling", "config": {"scale": 1.0, "mode": "fan_avg", "distribution": "uniform", "seed": null}}, "bias_initializer": {"class_name": "Zeros", "config": {}}, "kernel_regularizer": null, "bias_regularizer": null, "activity_regularizer": null, "kernel_constraint": null, "bias_constraint": null}, "inbound_nodes": [[["res4b1_relu", 0, 0, {}]]]}, {"name": "P4_merged", "class_name": "Add", "config": {"name": "P4_merged", "trainable": true, "dtype": "float32"}, "inbound_nodes": [[["P5_upsampled", 0, 0, {}], ["C4_reduced", 0, 0, {}]]]}, {"name": "P4_upsampled", "class_name": "UpsampleLike", "config": {"name": "P4_upsampled", "trainable": true, "dtype": "float32"}, "inbound_nodes": [[["P4_merged", 0, 0, {}], ["res3b1_relu", 0, 0, {}]]]}, {"name": "C3_reduced", "class_name": "Conv2D", "config": {"name": "C3_reduced", "trainable": true, "dtype": "float32", "filters": 256, "kernel_size": [1, 1], "strides": [1, 1], "padding": "same", "data_format": "channels_last", "dilation_rate": [1, 1], "activation": "linear", "use_bias": true, "kernel_initializer": {"class_name": "VarianceScaling", "config": {"scale": 1.0, "mode": "fan_avg", "distribution": "uniform", "seed": null}}, "bias_initializer": {"class_name": "Zeros", "config": {}}, "kernel_regularizer": null, "bias_regularizer": null, "activity_regularizer": null, "kernel_constraint": null, "bias_constraint": null}, "inbound_nodes": [[["res3b1_relu", 0, 0, {}]]]}, {"name": "P6", "class_name": "Conv2D", "config": {"name": "P6", "trainable": true, "dtype": "float32", "filters": 256, "kernel_size": [3, 3], "strides": [2, 2], "padding": "same", "data_format": "channels_last", "dilation_rate": [1, 1], "activation": "linear", "use_bias": true, "kernel_initializer": {"class_name": "VarianceScaling", "config": {"scale": 1.0, "mode": "fan_avg", "distribution": "uniform", "seed": null}}, "bias_initializer": {"class_name": "Zeros", "config": {}}, "kernel_regularizer": null, "bias_regularizer": null, "activity_regularizer": null, "kernel_constraint": null, "bias_constraint": null}, "inbound_nodes": [[["res5b1_relu", 0, 0, {}]]]}, {"name": "P3_merged", "class_name": "Add", "config": {"name": "P3_merged", "trainable": true, "dtype": "float32"}, "inbound_nodes": [[["P4_upsampled", 0, 0, {}], ["C3_reduced", 0, 0, {}]]]}, {"name": "C6_relu", "class_name": "Activation", "config": {"name": "C6_relu", "trainable": true, "dtype": "float32", "activation": "relu"}, "inbound_nodes": [[["P6", 0, 0, {}]]]}, {"name": "P3", "class_name": "Conv2D", "config": {"name": "P3", "trainable": true, "dtype": "float32", "filters": 256, "kernel_size": [3, 3], "strides": [1, 1], "padding": "same", "data_format": "channels_last", "dilation_rate": [1, 1], "activation": "linear", "use_bias": true, "kernel_initializer": {"class_name": "VarianceScaling", "config": {"scale": 1.0, "mode": "fan_avg", "distribution": "uniform", "seed": null}}, "bias_initializer": {"class_name": "Zeros", "config": {}}, "kernel_regularizer": null, "bias_regularizer": null, "activity_regularizer": null, "kernel_constraint": null, "bias_constraint": null}, "inbound_nodes": [[["P3_merged", 0, 0, {}]]]}, {"name": "P4", "class_name": "Conv2D", "config": {"name": "P4", "trainable": true, "dtype": "float32", "filters": 256, "kernel_size": [3, 3], "strides": [1, 1], "padding": "same", "data_format": "channels_last", "dilation_rate": [1, 1], "activation": "linear", "use_bias": true, "kernel_initializer": {"class_name": "VarianceScaling", "config": {"scale": 1.0, "mode": "fan_avg", "distribution": "uniform", "seed": null}}, "bias_initializer": {"class_name": "Zeros", "config": {}}, "kernel_regularizer": null, "bias_regularizer": null, "activity_regularizer": null, "kernel_constraint": null, "bias_constraint": null}, "inbound_nodes": [[["P4_merged", 0, 0, {}]]]}, {"name": "P5", "class_name": "Conv2D", "config": {"name": "P5", "trainable": true, "dtype": "float32", "filters": 256, "kernel_size": [3, 3], "strides": [1, 1], "padding": "same", "data_format": "channels_last", "dilation_rate": [1, 1], "activation": "linear", "use_bias": true, "kernel_initializer": {"class_name": "VarianceScaling", "config": {"scale": 1.0, "mode": "fan_avg", "distribution": "uniform", "seed": null}}, "bias_initializer": {"class_name": "Zeros", "config": {}}, "kernel_regularizer": null, "bias_regularizer": null, "activity_regularizer": null, "kernel_constraint": null, "bias_constraint": null}, "inbound_nodes": [[["C5_reduced", 0, 0, {}]]]}, {"name": "P7", "class_name": "Conv2D", "config": {"name": "P7", "trainable": true, "dtype": "float32", "filters": 256, "kernel_size": [3, 3], "strides": [2, 2], "padding": "same", "data_format": "channels_last", "dilation_rate": [1, 1], "activation": "linear", "use_bias": true, "kernel_initializer": {"class_name": "VarianceScaling", "config": {"scale": 1.0, "mode": "fan_avg", "distribution": "uniform", "seed": null}}, "bias_initializer": {"class_name": "Zeros", "config": {}}, "kernel_regularizer": null, "bias_regularizer": null, "activity_regularizer": null, "kernel_constraint": null, "bias_constraint": null}, "inbound_nodes": [[["C6_relu", 0, 0, {}]]]}, {"name": "regression_submodel", "class_name": "Model", "config": {"name": "regression_submodel", "layers": [{"name": "input_2", "class_name": "InputLayer", "config": {"batch_input_shape": [null, null, null, 256], "dtype": "float32", "sparse": false, "name": "input_2"}, "inbound_nodes": []}, {"name": "pyramid_regression_0", "class_name": "Conv2D", "config": {"name": "pyramid_regression_0", "trainable": true, "dtype": "float32", "filters": 256, "kernel_size": [3, 3], "strides": [1, 1], "padding": "same", "data_format": "channels_last", "dilation_rate": [1, 1], "activation": "relu", "use_bias": true, "kernel_initializer": {"class_name": "RandomNormal", "config": {"mean": 0.0, "stddev": 0.01, "seed": null}}, "bias_initializer": {"class_name": "Zeros", "config": {}}, "kernel_regularizer": null, "bias_regularizer": null, "activity_regularizer": null, "kernel_constraint": null, "bias_constraint": null}, "inbound_nodes": [[["input_2", 0, 0, {}]]]}, {"name": "pyramid_regression_1", "class_name": "Conv2D", "config": {"name": "pyramid_regression_1", "trainable": true, "dtype": "float32", "filters": 256, "kernel_size": [3, 3], "strides": [1, 1], "padding": "same", "data_format": "channels_last", "dilation_rate": [1, 1], "activation": "relu", "use_bias": true, "kernel_initializer": {"class_name": "RandomNormal", "config": {"mean": 0.0, "stddev": 0.01, "seed": null}}, "bias_initializer": {"class_name": "Zeros", "config": {}}, "kernel_regularizer": null, "bias_regularizer": null, "activity_regularizer": null, "kernel_constraint": null, "bias_constraint": null}, "inbound_nodes": [[["pyramid_regression_0", 0, 0, {}]]]}, {"name": "pyramid_regression_2", "class_name": "Conv2D", "config": {"name": "pyramid_regression_2", "trainable": true, "dtype": "float32", "filters": 256, "kernel_size": [3, 3], "strides": [1, 1], "padding": "same", "data_format": "channels_last", "dilation_rate": [1, 1], "activation": "relu", "use_bias": true, "kernel_initializer": {"class_name": "RandomNormal", "config": {"mean": 0.0, "stddev": 0.01, "seed": null}}, "bias_initializer": {"class_name": "Zeros", "config": {}}, "kernel_regularizer": null, "bias_regularizer": null, "activity_regularizer": null, "kernel_constraint": null, "bias_constraint": null}, "inbound_nodes": [[["pyramid_regression_1", 0, 0, {}]]]}, {"name": "pyramid_regression_3", "class_name": "Conv2D", "config": {"name": "pyramid_regression_3", "trainable": true, "dtype": "float32", "filters": 256, "kernel_size": [3, 3], "strides": [1, 1], "padding": "same", "data_format": "channels_last", "dilation_rate": [1, 1], "activation": "relu", "use_bias": true, "kernel_initializer": {"class_name": "RandomNormal", "config": {"mean": 0.0, "stddev": 0.01, "seed": null}}, "bias_initializer": {"class_name": "Zeros", "config": {}}, "kernel_regularizer": null, "bias_regularizer": null, "activity_regularizer": null, "kernel_constraint": null, "bias_constraint": null}, "inbound_nodes": [[["pyramid_regression_2", 0, 0, {}]]]}, {"name": "pyramid_regression", "class_name": "Conv2D", "config": {"name": "pyramid_regression", "trainable": true, "dtype": "float32", "filters": 36, "kernel_size": [3, 3], "strides": [1, 1], "padding": "same", "data_format": "channels_last", "dilation_rate": [1, 1], "activation": "linear", "use_bias": true, "kernel_initializer": {"class_name": "RandomNormal", "config": {"mean": 0.0, "stddev": 0.01, "seed": null}}, "bias_initializer": {"class_name": "Zeros", "config": {}}, "kernel_regularizer": null, "bias_regularizer": null, "activity_regularizer": null, "kernel_constraint": null, "bias_constraint": null}, "inbound_nodes": [[["pyramid_regression_3", 0, 0, {}]]]}, {"name": "pyramid_regression_reshape", "class_name": "Reshape", "config": {"name": "pyramid_regression_reshape", "trainable": true, "dtype": "float32", "target_shape": [-1, 4]}, "inbound_nodes": [[["pyramid_regression", 0, 0, {}]]]}], "input_layers": [["input_2", 0, 0]], "output_layers": [["pyramid_regression_reshape", 0, 0]]}, "inbound_nodes": [[["P3", 0, 0, {}]], [["P4", 0, 0, {}]], [["P5", 0, 0, {}]], [["P6", 0, 0, {}]], [["P7", 0, 0, {}]]]}, {"name": "classification_submodel", "class_name": "Model", "config": {"name": "classification_submodel", "layers": [{"name": "input_3", "class_name": "InputLayer", "config": {"batch_input_shape": [null, null, null, 256], "dtype": "float32", "sparse": false, "name": "input_3"}, "inbound_nodes": []}, {"name": "pyramid_classification_0", "class_name": "Conv2D", "config": {"name": "pyramid_classification_0", "trainable": true, "dtype": "float32", "filters": 256, "kernel_size": [3, 3], "strides": [1, 1], "padding": "same", "data_format": "channels_last", "dilation_rate": [1, 1], "activation": "relu", "use_bias": true, "kernel_initializer": {"class_name": "RandomNormal", "config": {"mean": 0.0, "stddev": 0.01, "seed": null}}, "bias_initializer": {"class_name": "Zeros", "config": {}}, "kernel_regularizer": null, "bias_regularizer": null, "activity_regularizer": null, "kernel_constraint": null, "bias_constraint": null}, "inbound_nodes": [[["input_3", 0, 0, {}]]]}, {"name": "pyramid_classification_1", "class_name": "Conv2D", "config": {"name": "pyramid_classification_1", "trainable": true, "dtype": "float32", "filters": 256, "kernel_size": [3, 3], "strides": [1, 1], "padding": "same", "data_format": "channels_last", "dilation_rate": [1, 1], "activation": "relu", "use_bias": true, "kernel_initializer": {"class_name": "RandomNormal", "config": {"mean": 0.0, "stddev": 0.01, "seed": null}}, "bias_initializer": {"class_name": "Zeros", "config": {}}, "kernel_regularizer": null, "bias_regularizer": null, "activity_regularizer": null, "kernel_constraint": null, "bias_constraint": null}, "inbound_nodes": [[["pyramid_classification_0", 0, 0, {}]]]}, {"name": "pyramid_classification_2", "class_name": "Conv2D", "config": {"name": "pyramid_classification_2", "trainable": true, "dtype": "float32", "filters": 256, "kernel_size": [3, 3], "strides": [1, 1], "padding": "same", "data_format": "channels_last", "dilation_rate": [1, 1], "activation": "relu", "use_bias": true, "kernel_initializer": {"class_name": "RandomNormal", "config": {"mean": 0.0, "stddev": 0.01, "seed": null}}, "bias_initializer": {"class_name": "Zeros", "config": {}}, "kernel_regularizer": null, "bias_regularizer": null, "activity_regularizer": null, "kernel_constraint": null, "bias_constraint": null}, "inbound_nodes": [[["pyramid_classification_1", 0, 0, {}]]]}, {"name": "pyramid_classification_3", "class_name": "Conv2D", "config": {"name": "pyramid_classification_3", "trainable": true, "dtype": "float32", "filters": 256, "kernel_size": [3, 3], "strides": [1, 1], "padding": "same", "data_format": "channels_last", "dilation_rate": [1, 1], "activation": "relu", "use_bias": true, "kernel_initializer": {"class_name": "RandomNormal", "config": {"mean": 0.0, "stddev": 0.01, "seed": null}}, "bias_initializer": {"class_name": "Zeros", "config": {}}, "kernel_regularizer": null, "bias_regularizer": null, "activity_regularizer": null, "kernel_constraint": null, "bias_constraint": null}, "inbound_nodes": [[["pyramid_classification_2", 0, 0, {}]]]}, {"name": "pyramid_classification", "class_name": "Conv2D", "config": {"name": "pyramid_classification", "trainable": true, "dtype": "float32", "filters": 9, "kernel_size": [3, 3], "strides": [1, 1], "padding": "same", "data_format": "channels_last", "dilation_rate": [1, 1], "activation": "linear", "use_bias": true, "kernel_initializer": {"class_name": "RandomNormal", "config": {"mean": 0.0, "stddev": 0.01, "seed": null}}, "bias_initializer": {"class_name": "PriorProbability", "config": {"probability": 0.01}}, "kernel_regularizer": null, "bias_regularizer": null, "activity_regularizer": null, "kernel_constraint": null, "bias_constraint": null}, "inbound_nodes": [[["pyramid_classification_3", 0, 0, {}]]]}, {"name": "pyramid_classification_reshape", "class_name": "Reshape", "config": {"name": "pyramid_classification_reshape", "trainable": true, "dtype": "float32", "target_shape": [-1, 1]}, "inbound_nodes": [[["pyramid_classification", 0, 0, {}]]]}, {"name": "pyramid_classification_sigmoid", "class_name": "Activation", "config": {"name": "pyramid_classification_sigmoid", "trainable": true, "dtype": "float32", "activation": "sigmoid"}, "inbound_nodes": [[["pyramid_classification_reshape", 0, 0, {}]]]}], "input_layers": [["input_3", 0, 0]], "output_layers": [["pyramid_classification_sigmoid", 0, 0]]}, "inbound_nodes": [[["P3", 0, 0, {}]], [["P4", 0, 0, {}]], [["P5", 0, 0, {}]], [["P6", 0, 0, {}]], [["P7", 0, 0, {}]]]}, {"name": "regression", "class_name": "Concatenate", "config": {"name": "regression", "trainable": true, "dtype": "float32", "axis": 1}, "inbound_nodes": [[["regression_submodel", 1, 0, {}], ["regression_submodel", 2, 0, {}], ["regression_submodel", 3, 0, {}], ["regression_submodel", 4, 0, {}], ["regression_submodel", 5, 0, {}]]]}, {"name": "classification", "class_name": "Concatenate", "config": {"name": "classification", "trainable": true, "dtype": "float32", "axis": 1}, "inbound_nodes": [[["classification_submodel", 1, 0, {}], ["classification_submodel", 2, 0, {}], ["classification_submodel", 3, 0, {}], ["classification_submodel", 4, 0, {}], ["classification_submodel", 5, 0, {}]]]}], "input_layers": [["input_1", 0, 0]], "output_layers": [["regression", 0, 0], ["classification", 0, 0]]}}}, "weightsManifest": [{"paths": ["group1-shard1of5.bin", "group1-shard2of5.bin", "group1-shard3of5.bin", "group1-shard4of5.bin", "group1-shard5of5.bin"], "weights": [{"name": "C3_reduced/kernel", "shape": [1, 1, 128, 256], "dtype": "float32", "quantization": {"dtype": "uint8", "min": -0.12671642677456724, "scale": 0.0009899720841763065, "original_dtype": "float32"}}, {"name": "C3_reduced/bias", "shape": [256], "dtype": "float32", "quantization": {"dtype": "uint8", "min": -0.001165177542990183, "scale": 8.630944762890245e-06, "original_dtype": "float32"}}, {"name": "C4_reduced/kernel", "shape": [1, 1, 256, 256], "dtype": "float32", "quantization": {"dtype": "uint8", "min": -0.10936976773481742, "scale": 0.0008611792735024994, "original_dtype": "float32"}}, {"name": "C4_reduced/bias", "shape": [256], "dtype": "float32", "quantization": {"dtype": "uint8", "min": -0.0014662937955090812, "scale": 1.2640463754388631e-05, "original_dtype": "float32"}}, {"name": "C5_reduced/kernel", "shape": [1, 1, 512, 256], "dtype": "float32", "quantization": {"dtype": "uint8", "min": -0.1526450372794095, "scale": 0.0012410165632472318, "original_dtype": "float32"}}, {"name": "C5_reduced/bias", "shape": [256], "dtype": "float32", "quantization": {"dtype": "uint8", "min": -0.04753797181388911, "scale": 0.00038648757572267567, "original_dtype": "float32"}}, {"name": "P3/kernel", "shape": [3, 3, 256, 256], "dtype": "float32", "quantization": {"dtype": "uint8", "min": -0.038993110186329075, "scale": 0.0003070323636718825, "original_dtype": "float32"}}, {"name": "P3/bias", "shape": [256], "dtype": "float32", "quantization": {"dtype": "uint8", "min": -0.0010434912627234178, "scale": 7.787248229279237e-06, "original_dtype": "float32"}}, {"name": "P4/kernel", "shape": [3, 3, 256, 256], "dtype": "float32", "quantization": {"dtype": "uint8", "min": -0.039185190200805665, "scale": 0.0003037611643473307, "original_dtype": "float32"}}, {"name": "P4/bias", "shape": [256], "dtype": "float32", "quantization": {"dtype": "uint8", "min": -0.001127661050607761, "scale": 8.054721790055435e-06, "original_dtype": "float32"}}, {"name": "P5/kernel", "shape": [3, 3, 256, 256], "dtype": "float32", "quantization": {"dtype": "uint8", "min": -0.12460703990038703, "scale": 0.0009299032828387092, "original_dtype": "float32"}}, {"name": "P5/bias", "shape": [256], "dtype": "float32", "quantization": {"dtype": "uint8", "min": -0.08290691971778869, "scale": 0.0005418752922731287, "original_dtype": "float32"}}, {"name": "P6/kernel", "shape": [3, 3, 512, 256], "dtype": "float32", "quantization": {"dtype": "uint8", "min": -0.37239125365135717, "scale": 0.00231298915311402, "original_dtype": "float32"}}, {"name": "P6/bias", "shape": [256], "dtype": "float32", "quantization": {"dtype": "uint8", "min": -0.06981855508159189, "scale": 0.0010578568951756346, "original_dtype": "float32"}}, {"name": "P7/kernel", "shape": [3, 3, 256, 256], "dtype": "float32", "quantization": {"dtype": "uint8", "min": -0.302933230119593, "scale": 0.002103702986941618, "original_dtype": "float32"}}, {"name": "P7/bias", "shape": [256], "dtype": "float32", "quantization": {"dtype": "uint8", "min": -0.1999996175952986, "scale": 0.0009756078907087737, "original_dtype": "float32"}}, {"name": "bn2a_branch1/gamma", "shape": [64], "dtype": "float32", "quantization": {"dtype": "uint8", "min": 0.9046097993850708, "scale": 0.0016557716855815812, "original_dtype": "float32"}}, {"name": "bn2a_branch1/beta", "shape": [64], "dtype": "float32", "quantization": {"dtype": "uint8", "min": -0.13359612623850506, "scale": 0.0013632257779439291, "original_dtype": "float32"}}, {"name": "bn2a_branch1/moving_mean", "shape": [64], "dtype": "float32", "quantization": {"dtype": "uint8", "min": -2.609179838965921, "scale": 0.018504821552949795, "original_dtype": "float32"}}, {"name": "bn2a_branch1/moving_variance", "shape": [64], "dtype": "float32", "quantization": {"dtype": "uint8", "min": 0.5240193605422974, "scale": 0.020540958759831446, "original_dtype": "float32"}}, {"name": "bn2a_branch2a/gamma", "shape": [64], "dtype": "float32", "quantization": {"dtype": "uint8", "min": 0.8306884765625, "scale": 0.0010562172123030121, "original_dtype": "float32"}}, {"name": "bn2a_branch2a/beta", "shape": [64], "dtype": "float32", "quantization": {"dtype": "uint8", "min": -0.16012354957706787, "scale": 0.0010892758474630468, "original_dtype": "float32"}}, {"name": "bn2a_branch2a/moving_mean", "shape": [64], "dtype": "float32", "quantization": {"dtype": "uint8", "min": -7.055362407833922, "scale": 0.06472809548471488, "original_dtype": "float32"}}, {"name": "bn2a_branch2a/moving_variance", "shape": [64], "dtype": "float32", "quantization": {"dtype": "uint8", "min": 9.368558883666992, "scale": 0.23129063774557673, "original_dtype": "float32"}}, {"name": "bn2a_branch2b/gamma", "shape": [64], "dtype": "float32", "quantization": {"dtype": "uint8", "min": 0.8748705983161926, "scale": 0.0008491130436167997, "original_dtype": "float32"}}, {"name": "bn2a_branch2b/beta", "shape": [64], "dtype": "float32", "quantization": {"dtype": "uint8", "min": -0.13359612623850506, "scale": 0.0013632257779439291, "original_dtype": "float32"}}, {"name": "bn2a_branch2b/moving_mean", "shape": [64], "dtype": "float32", "quantization": {"dtype": "uint8", "min": -6.465824011260388, "scale": 0.048252417994480504, "original_dtype": "float32"}}, {"name": "bn2a_branch2b/moving_variance", "shape": [64], "dtype": "float32", "quantization": {"dtype": "uint8", "min": 7.167173385620117, "scale": 0.37517099567488127, "original_dtype": "float32"}}, {"name": "bn2b1_branch2a/gamma", "shape": [64], "dtype": "float32", "quantization": {"dtype": "uint8", "min": 0.8956924080848694, "scale": 0.0008626122100680483, "original_dtype": "float32"}}, {"name": "bn2b1_branch2a/beta", "shape": [64], "dtype": "float32", "quantization": {"dtype": "uint8", "min": -0.13195386283537922, "scale": 0.000956187411850574, "original_dtype": "float32"}}, {"name": "bn2b1_branch2a/moving_mean", "shape": [64], "dtype": "float32", "quantization": {"dtype": "uint8", "min": -6.759785122964897, "scale": 0.055865992751776006, "original_dtype": "float32"}}, {"name": "bn2b1_branch2a/moving_variance", "shape": [64], "dtype": "float32", "quantization": {"dtype": "uint8", "min": 17.844879150390625, "scale": 0.21685617484298406, "original_dtype": "float32"}}, {"name": "bn2b1_branch2b/gamma", "shape": [64], "dtype": "float32", "quantization": {"dtype": "uint8", "min": 0.7875985503196716, "scale": 0.000998385981017468, "original_dtype": "float32"}}, {"name": "bn2b1_branch2b/beta", "shape": [64], "dtype": "float32", "quantization": {"dtype": "uint8", "min": -0.19335524553761765, "scale": 0.0012009642579976251, "original_dtype": "float32"}}, {"name": "bn2b1_branch2b/moving_mean", "shape": [64], "dtype": "float32", "quantization": {"dtype": "uint8", "min": -5.084264014748966, "scale": 0.038517151626886105, "original_dtype": "float32"}}, {"name": "bn2b1_branch2b/moving_variance", "shape": [64], "dtype": "float32", "quantization": {"dtype": "uint8", "min": 11.835046768188477, "scale": 0.2654795852361941, "original_dtype": "float32"}}, {"name": "bn3a_branch1/gamma", "shape": [128], "dtype": "float32", "quantization": {"dtype": "uint8", "min": 0.9182229042053223, "scale": 0.0013486838808246687, "original_dtype": "float32"}}, {"name": "bn3a_branch1/beta", "shape": [128], "dtype": "float32", "quantization": {"dtype": "uint8", "min": -0.11127297857812807, "scale": 0.0008901838286250245, "original_dtype": "float32"}}, {"name": "bn3a_branch1/moving_mean", "shape": [128], "dtype": "float32", "quantization": {"dtype": "uint8", "min": -2.375112466251149, "scale": 0.021991782094918047, "original_dtype": "float32"}}, {"name": "bn3a_branch1/moving_variance", "shape": [128], "dtype": "float32", "quantization": {"dtype": "uint8", "min": 1.0500047206878662, "scale": 0.04104705604852415, "original_dtype": "float32"}}, {"name": "bn3a_branch2a/gamma", "shape": [128], "dtype": "float32", "quantization": {"dtype": "uint8", "min": 0.9212705492973328, "scale": 0.0006398179951836081, "original_dtype": "float32"}}, {"name": "bn3a_branch2a/beta", "shape": [128], "dtype": "float32", "quantization": {"dtype": "uint8", "min": -0.1234396497408549, "scale": 0.000907644483388639, "original_dtype": "float32"}}, {"name": "bn3a_branch2a/moving_mean", "shape": [128], "dtype": "float32", "quantization": {"dtype": "uint8", "min": -6.907435304978314, "scale": 0.04604956869985543, "original_dtype": "float32"}}, {"name": "bn3a_branch2a/moving_variance", "shape": [128], "dtype": "float32", "quantization": {"dtype": "uint8", "min": 6.903706073760986, "scale": 0.21348332236794865, "original_dtype": "float32"}}, {"name": "bn3a_branch2b/gamma", "shape": [128], "dtype": "float32", "quantization": {"dtype": "uint8", "min": 0.864201009273529, "scale": 0.0009229204233954935, "original_dtype": "float32"}}, {"name": "bn3a_branch2b/beta", "shape": [128], "dtype": "float32", "quantization": {"dtype": "uint8", "min": -0.11127297857812807, "scale": 0.0008901838286250245, "original_dtype": "float32"}}, {"name": "bn3a_branch2b/moving_mean", "shape": [128], "dtype": "float32", "quantization": {"dtype": "uint8", "min": -4.421916453978595, "scale": 0.03136110960268507, "original_dtype": "float32"}}, {"name": "bn3a_branch2b/moving_variance", "shape": [128], "dtype": "float32", "quantization": {"dtype": "uint8", "min": 6.0588765144348145, "scale": 0.2700608777064903, "original_dtype": "float32"}}, {"name": "bn3b1_branch2a/gamma", "shape": [128], "dtype": "float32", "quantization": {"dtype": "uint8", "min": 0.8992066383361816, "scale": 0.0007980468226414101, "original_dtype": "float32"}}, {"name": "bn3b1_branch2a/beta", "shape": [128], "dtype": "float32", "quantization": {"dtype": "uint8", "min": -0.0904659414992613, "scale": 0.0006154145680221857, "original_dtype": "float32"}}, {"name": "bn3b1_branch2a/moving_mean", "shape": [128], "dtype": "float32", "quantization": {"dtype": "uint8", "min": -6.578375363817402, "scale": 0.051393557529823455, "original_dtype": "float32"}}, {"name": "bn3b1_branch2a/moving_variance", "shape": [128], "dtype": "float32", "quantization": {"dtype": "uint8", "min": 16.11285400390625, "scale": 0.2472399543313419, "original_dtype": "float32"}}, {"name": "bn3b1_branch2b/gamma", "shape": [128], "dtype": "float32", "quantization": {"dtype": "uint8", "min": 0.7263073921203613, "scale": 0.0012617134580425189, "original_dtype": "float32"}}, {"name": "bn3b1_branch2b/beta", "shape": [128], "dtype": "float32", "quantization": {"dtype": "uint8", "min": -0.11445192215489407, "scale": 0.0007681337057375441, "original_dtype": "float32"}}, {"name": "bn3b1_branch2b/moving_mean", "shape": [128], "dtype": "float32", "quantization": {"dtype": "uint8", "min": -4.457129754272162, "scale": 0.03073882589153215, "original_dtype": "float32"}}, {"name": "bn3b1_branch2b/moving_variance", "shape": [128], "dtype": "float32", "quantization": {"dtype": "uint8", "min": 10.991360664367676, "scale": 0.4280454860014074, "original_dtype": "float32"}}, {"name": "bn4a_branch1/gamma", "shape": [256], "dtype": "float32", "quantization": {"dtype": "uint8", "min": 0.8933156132698059, "scale": 0.001135275176927155, "original_dtype": "float32"}}, {"name": "bn4a_branch1/beta", "shape": [256], "dtype": "float32", "quantization": {"dtype": "uint8", "min": -0.1660043487361833, "scale": 0.001338744747872446, "original_dtype": "float32"}}, {"name": "bn4a_branch1/moving_mean", "shape": [256], "dtype": "float32", "quantization": {"dtype": "uint8", "min": -5.133283992842132, "scale": 0.0351594794030283, "original_dtype": "float32"}}, {"name": "bn4a_branch1/moving_variance", "shape": [256], "dtype": "float32", "quantization": {"dtype": "uint8", "min": 2.2635157108306885, "scale": 0.0707311658298268, "original_dtype": "float32"}}, {"name": "bn4a_branch2a/gamma", "shape": [256], "dtype": "float32", "quantization": {"dtype": "uint8", "min": 0.9109023213386536, "scale": 0.0008352324074389888, "original_dtype": "float32"}}, {"name": "bn4a_branch2a/beta", "shape": [256], "dtype": "float32", "quantization": {"dtype": "uint8", "min": -0.09795987147326563, "scale": 0.0006009808065844517, "original_dtype": "float32"}}, {"name": "bn4a_branch2a/moving_mean", "shape": [256], "dtype": "float32", "quantization": {"dtype": "uint8", "min": -7.093286331027162, "scale": 0.060112596025653914, "original_dtype": "float32"}}, {"name": "bn4a_branch2a/moving_variance", "shape": [256], "dtype": "float32", "quantization": {"dtype": "uint8", "min": 11.700311660766602, "scale": 0.3875644983029833, "original_dtype": "float32"}}, {"name": "bn4a_branch2b/gamma", "shape": [256], "dtype": "float32", "quantization": {"dtype": "uint8", "min": 0.8698707818984985, "scale": 0.0009048915376850203, "original_dtype": "float32"}}, {"name": "bn4a_branch2b/beta", "shape": [256], "dtype": "float32", "quantization": {"dtype": "uint8", "min": -0.1660043487361833, "scale": 0.001338744747872446, "original_dtype": "float32"}}, {"name": "bn4a_branch2b/moving_mean", "shape": [256], "dtype": "float32", "quantization": {"dtype": "uint8", "min": -5.89562619527181, "scale": 0.04996293385823568, "original_dtype": "float32"}}, {"name": "bn4a_branch2b/moving_variance", "shape": [256], "dtype": "float32", "quantization": {"dtype": "uint8", "min": 15.538482666015625, "scale": 0.49311649098115806, "original_dtype": "float32"}}, {"name": "bn4b1_branch2a/gamma", "shape": [256], "dtype": "float32", "quantization": {"dtype": "uint8", "min": 0.9063121676445007, "scale": 0.0006380364006640865, "original_dtype": "float32"}}, {"name": "bn4b1_branch2a/beta", "shape": [256], "dtype": "float32", "quantization": {"dtype": "uint8", "min": -0.11239531855372821, "scale": 0.0007251310874434078, "original_dtype": "float32"}}, {"name": "bn4b1_branch2a/moving_mean", "shape": [256], "dtype": "float32", "quantization": {"dtype": "uint8", "min": -6.131347327138863, "scale": 0.054744172563739854, "original_dtype": "float32"}}, {"name": "bn4b1_branch2a/moving_variance", "shape": [256], "dtype": "float32", "quantization": {"dtype": "uint8", "min": 21.69084358215332, "scale": 0.7418729819503485, "original_dtype": "float32"}}, {"name": "bn4b1_branch2b/gamma", "shape": [256], "dtype": "float32", "quantization": {"dtype": "uint8", "min": 0.8289687037467957, "scale": 0.0010176899386387245, "original_dtype": "float32"}}, {"name": "bn4b1_branch2b/beta", "shape": [256], "dtype": "float32", "quantization": {"dtype": "uint8", "min": -0.15380056897799174, "scale": 0.0012924417561175777, "original_dtype": "float32"}}, {"name": "bn4b1_branch2b/moving_mean", "shape": [256], "dtype": "float32", "quantization": {"dtype": "uint8", "min": -7.344336954752604, "scale": 0.051720682779947916, "original_dtype": "float32"}}, {"name": "bn4b1_branch2b/moving_variance", "shape": [256], "dtype": "float32", "quantization": {"dtype": "uint8", "min": 36.221988677978516, "scale": 0.45588257733513327, "original_dtype": "float32"}}, {"name": "bn5a_branch1/gamma", "shape": [512], "dtype": "float32", "quantization": {"dtype": "uint8", "min": 0.6118068099021912, "scale": 0.0019810791109122483, "original_dtype": "float32"}}, {"name": "bn5a_branch1/beta", "shape": [512], "dtype": "float32", "quantization": {"dtype": "uint8", "min": -0.36617326736450195, "scale": 0.0011966790346538319, "original_dtype": "float32"}}, {"name": "bn5a_branch1/moving_mean", "shape": [512], "dtype": "float32", "quantization": {"dtype": "uint8", "min": -8.77549908394907, "scale": 0.0640547378390443, "original_dtype": "float32"}}, {"name": "bn5a_branch1/moving_variance", "shape": [512], "dtype": "float32", "quantization": {"dtype": "uint8", "min": 16.479814529418945, "scale": 1.5485343708711512, "original_dtype": "float32"}}, {"name": "bn5a_branch2a/gamma", "shape": [512], "dtype": "float32", "quantization": {"dtype": "uint8", "min": 0.8354653120040894, "scale": 0.0009671085021075081, "original_dtype": "float32"}}, {"name": "bn5a_branch2a/beta", "shape": [512], "dtype": "float32", "quantization": {"dtype": "uint8", "min": -0.0825960636138916, "scale": 0.0008097653295479569, "original_dtype": "float32"}}, {"name": "bn5a_branch2a/moving_mean", "shape": [512], "dtype": "float32", "quantization": {"dtype": "uint8", "min": -10.606823390137915, "scale": 0.08765969743915633, "original_dtype": "float32"}}, {"name": "bn5a_branch2a/moving_variance", "shape": [512], "dtype": "float32", "quantization": {"dtype": "uint8", "min": 36.8637580871582, "scale": 1.3725804198021982, "original_dtype": "float32"}}, {"name": "bn5a_branch2b/gamma", "shape": [512], "dtype": "float32", "quantization": {"dtype": "uint8", "min": 0.5383514165878296, "scale": 0.0023656293457629636, "original_dtype": "float32"}}, {"name": "bn5a_branch2b/beta", "shape": [512], "dtype": "float32", "quantization": {"dtype": "uint8", "min": -0.36617326736450195, "scale": 0.0011966790346538319, "original_dtype": "float32"}}, {"name": "bn5a_branch2b/moving_mean", "shape": [512], "dtype": "float32", "quantization": {"dtype": "uint8", "min": -25.095713678995768, "scale": 0.21088835024366193, "original_dtype": "float32"}}, {"name": "bn5a_branch2b/moving_variance", "shape": [512], "dtype": "float32", "quantization": {"dtype": "uint8", "min": 86.72541809082031, "scale": 18.219147027707567, "original_dtype": "float32"}}, {"name": "bn5b1_branch2a/gamma", "shape": [512], "dtype": "float32", "quantization": {"dtype": "uint8", "min": 0.8731791973114014, "scale": 0.0010874318141563266, "original_dtype": "float32"}}, {"name": "bn5b1_branch2a/beta", "shape": [512], "dtype": "float32", "quantization": {"dtype": "uint8", "min": -0.12390120984876857, "scale": 0.0009177867396205079, "original_dtype": "float32"}}, {"name": "bn5b1_branch2a/moving_mean", "shape": [512], "dtype": "float32", "quantization": {"dtype": "uint8", "min": -1.012452922147863, "scale": 0.010546384605706907, "original_dtype": "float32"}}, {"name": "bn5b1_branch2a/moving_variance", "shape": [512], "dtype": "float32", "quantization": {"dtype": "uint8", "min": 0.262008398771286, "scale": 0.01606123786346585, "original_dtype": "float32"}}, {"name": "bn5b1_branch2b/gamma", "shape": [512], "dtype": "float32", "quantization": {"dtype": "uint8", "min": 0.21201175451278687, "scale": 0.003248901226941277, "original_dtype": "float32"}}, {"name": "bn5b1_branch2b/beta", "shape": [512], "dtype": "float32", "quantization": {"dtype": "uint8", "min": -0.8250044584274292, "scale": 0.002780797201044419, "original_dtype": "float32"}}, {"name": "bn5b1_branch2b/moving_mean", "shape": [512], "dtype": "float32", "quantization": {"dtype": "uint8", "min": -27.61483310250675, "scale": 0.14161452873080385, "original_dtype": "float32"}}, {"name": "bn5b1_branch2b/moving_variance", "shape": [512], "dtype": "float32", "quantization": {"dtype": "uint8", "min": 50.42716598510742, "scale": 20.12169340545056, "original_dtype": "float32"}}, {"name": "bn_conv1/gamma", "shape": [64], "dtype": "float32", "quantization": {"dtype": "uint8", "min": 0.8015224933624268, "scale": 0.0018530920440075443, "original_dtype": "float32"}}, {"name": "bn_conv1/beta", "shape": [64], "dtype": "float32", "quantization": {"dtype": "uint8", "min": -0.20612725089578066, "scale": 0.0017177270907981722, "original_dtype": "float32"}}, {"name": "bn_conv1/moving_mean", "shape": [64], "dtype": "float32", "quantization": {"dtype": "uint8", "min": -186.4971155503217, "scale": 1.4128569359872856, "original_dtype": "float32"}}, {"name": "bn_conv1/moving_variance", "shape": [64], "dtype": "float32", "quantization": {"dtype": "uint8", "min": 4640.92578125, "scale": 179.74499080882353, "original_dtype": "float32"}}, {"name": "pyramid_classification_0/kernel", "shape": [3, 3, 256, 256], "dtype": "float32", "quantization": {"dtype": "uint8", "min": -0.15270300495858286, "scale": 0.0014009449996200262, "original_dtype": "float32"}}, {"name": "pyramid_classification_0/bias", "shape": [256], "dtype": "float32", "quantization": {"dtype": "uint8", "min": -0.05688948350794175, "scale": 0.00036467617633295993, "original_dtype": "float32"}}, {"name": "pyramid_classification_1/kernel", "shape": [3, 3, 256, 256], "dtype": "float32", "quantization": {"dtype": "uint8", "min": -0.18598665349623736, "scale": 0.001631461872774012, "original_dtype": "float32"}}, {"name": "pyramid_classification_1/bias", "shape": [256], "dtype": "float32", "quantization": {"dtype": "uint8", "min": -0.051361818699275745, "scale": 0.0005188062494876338, "original_dtype": "float32"}}, {"name": "pyramid_classification_2/kernel", "shape": [3, 3, 256, 256], "dtype": "float32", "quantization": {"dtype": "uint8", "min": -0.26840756278412015, "scale": 0.0018510866398904837, "original_dtype": "float32"}}, {"name": "pyramid_classification_2/bias", "shape": [256], "dtype": "float32", "quantization": {"dtype": "uint8", "min": -0.03715393683489631, "scale": 0.0006634631577660055, "original_dtype": "float32"}}, {"name": "pyramid_classification_3/kernel", "shape": [3, 3, 256, 256], "dtype": "float32", "quantization": {"dtype": "uint8", "min": -0.29317062625698015, "scale": 0.0021878404944550758, "original_dtype": "float32"}}, {"name": "pyramid_classification_3/bias", "shape": [256], "dtype": "float32", "quantization": {"dtype": "uint8", "min": -0.0413174474502311, "scale": 0.0005988035862352334, "original_dtype": "float32"}}, {"name": "pyramid_classification/kernel", "shape": [3, 3, 256, 9], "dtype": "float32", "quantization": {"dtype": "uint8", "min": -0.2118138219795975, "scale": 0.0018911948391035491, "original_dtype": "float32"}}, {"name": "pyramid_classification/bias", "shape": [9], "dtype": "float32", "quantization": {"dtype": "uint8", "min": -4.7855963706970215, "scale": 0.0013588568743537453, "original_dtype": "float32"}}, {"name": "conv1/kernel", "shape": [7, 7, 3, 64], "dtype": "float32", "quantization": {"dtype": "uint8", "min": -0.284553924202919, "scale": 0.0020181129376093546, "original_dtype": "float32"}}, {"name": "pyramid_regression_0/kernel", "shape": [3, 3, 256, 256], "dtype": "float32", "quantization": {"dtype": "uint8", "min": -0.298830740592059, "scale": 0.0026213222858952542, "original_dtype": "float32"}}, {"name": "pyramid_regression_0/bias", "shape": [256], "dtype": "float32", "quantization": {"dtype": "uint8", "min": -0.14075461796977942, "scale": 0.0006119765998686061, "original_dtype": "float32"}}, {"name": "pyramid_regression_1/kernel", "shape": [3, 3, 256, 256], "dtype": "float32", "quantization": {"dtype": "uint8", "min": -0.40198428420459525, "scale": 0.0023371179314220654, "original_dtype": "float32"}}, {"name": "pyramid_regression_1/bias", "shape": [256], "dtype": "float32", "quantization": {"dtype": "uint8", "min": -0.1312479143633562, "scale": 0.001902143686425452, "original_dtype": "float32"}}, {"name": "pyramid_regression_2/kernel", "shape": [3, 3, 256, 256], "dtype": "float32", "quantization": {"dtype": "uint8", "min": -0.39487441474316165, "scale": 0.0023787615345973595, "original_dtype": "float32"}}, {"name": "pyramid_regression_2/bias", "shape": [256], "dtype": "float32", "quantization": {"dtype": "uint8", "min": -0.17008859819056943, "scale": 0.001505208833544862, "original_dtype": "float32"}}, {"name": "pyramid_regression_3/kernel", "shape": [3, 3, 256, 256], "dtype": "float32", "quantization": {"dtype": "uint8", "min": -0.4939893558913586, "scale": 0.0029758394933214376, "original_dtype": "float32"}}, {"name": "pyramid_regression_3/bias", "shape": [256], "dtype": "float32", "quantization": {"dtype": "uint8", "min": -0.07001710358787985, "scale": 0.0016670738949495203, "original_dtype": "float32"}}, {"name": "pyramid_regression/kernel", "shape": [3, 3, 256, 36], "dtype": "float32", "quantization": {"dtype": "uint8", "min": -0.5897500281240425, "scale": 0.004756048613903569, "original_dtype": "float32"}}, {"name": "pyramid_regression/bias", "shape": [36], "dtype": "float32", "quantization": {"dtype": "uint8", "min": -0.20069323655437019, "scale": 0.0014866165670694089, "original_dtype": "float32"}}, {"name": "res2a_branch1/kernel", "shape": [1, 1, 64, 64], "dtype": "float32", "quantization": {"dtype": "uint8", "min": -0.5795564268149582, "scale": 0.004996176093232398, "original_dtype": "float32"}}, {"name": "res2a_branch2a/kernel", "shape": [3, 3, 64, 64], "dtype": "float32", "quantization": {"dtype": "uint8", "min": -0.2882208459517535, "scale": 0.002324361660901238, "original_dtype": "float32"}}, {"name": "res2a_branch2b/kernel", "shape": [3, 3, 64, 64], "dtype": "float32", "quantization": {"dtype": "uint8", "min": -0.23961253563563029, "scale": 0.0017881532510121664, "original_dtype": "float32"}}, {"name": "res2b1_branch2a/kernel", "shape": [3, 3, 64, 64], "dtype": "float32", "quantization": {"dtype": "uint8", "min": -0.22093886581121708, "scale": 0.0017260848891501334, "original_dtype": "float32"}}, {"name": "res2b1_branch2b/kernel", "shape": [3, 3, 64, 64], "dtype": "float32", "quantization": {"dtype": "uint8", "min": -0.22461490350611069, "scale": 0.001741200802372951, "original_dtype": "float32"}}, {"name": "res3a_branch1/kernel", "shape": [1, 1, 64, 128], "dtype": "float32", "quantization": {"dtype": "uint8", "min": -0.4954470290857203, "scale": 0.004028024626713173, "original_dtype": "float32"}}, {"name": "res3a_branch2a/kernel", "shape": [3, 3, 64, 128], "dtype": "float32", "quantization": {"dtype": "uint8", "min": -0.19084226944867302, "scale": 0.001703948834363152, "original_dtype": "float32"}}, {"name": "res3a_branch2b/kernel", "shape": [3, 3, 128, 128], "dtype": "float32", "quantization": {"dtype": "uint8", "min": -0.18787180968359407, "scale": 0.0015029744774687525, "original_dtype": "float32"}}, {"name": "res3b1_branch2a/kernel", "shape": [3, 3, 128, 128], "dtype": "float32", "quantization": {"dtype": "uint8", "min": -0.15619258722838233, "scale": 0.0012698584327510759, "original_dtype": "float32"}}, {"name": "res3b1_branch2b/kernel", "shape": [3, 3, 128, 128], "dtype": "float32", "quantization": {"dtype": "uint8", "min": -0.17380569051293768, "scale": 0.0014016587944591747, "original_dtype": "float32"}}, {"name": "res4a_branch1/kernel", "shape": [1, 1, 128, 256], "dtype": "float32", "quantization": {"dtype": "uint8", "min": -0.3930407145444084, "scale": 0.003119370750352448, "original_dtype": "float32"}}, {"name": "res4a_branch2a/kernel", "shape": [3, 3, 128, 256], "dtype": "float32", "quantization": {"dtype": "uint8", "min": -0.15000658759883806, "scale": 0.0013044051095551135, "original_dtype": "float32"}}, {"name": "res4a_branch2b/kernel", "shape": [3, 3, 256, 256], "dtype": "float32", "quantization": {"dtype": "uint8", "min": -0.12471419420896791, "scale": 0.0012725938184588563, "original_dtype": "float32"}}, {"name": "res4b1_branch2a/kernel", "shape": [3, 3, 256, 256], "dtype": "float32", "quantization": {"dtype": "uint8", "min": -0.10454385777314504, "scale": 0.0008785198132197062, "original_dtype": "float32"}}, {"name": "res4b1_branch2b/kernel", "shape": [3, 3, 256, 256], "dtype": "float32", "quantization": {"dtype": "uint8", "min": -0.13234554061702655, "scale": 0.0009876532881867653, "original_dtype": "float32"}}, {"name": "res5a_branch1/kernel", "shape": [1, 1, 256, 512], "dtype": "float32", "quantization": {"dtype": "uint8", "min": -0.41430688430281243, "scale": 0.0035410844812206192, "original_dtype": "float32"}}, {"name": "res5a_branch2a/kernel", "shape": [3, 3, 256, 512], "dtype": "float32", "quantization": {"dtype": "uint8", "min": -0.11134713403150147, "scale": 0.0009126814264877169, "original_dtype": "float32"}}, {"name": "res5a_branch2b/kernel", "shape": [3, 3, 512, 512], "dtype": "float32", "quantization": {"dtype": "uint8", "min": -0.18979804480777066, "scale": 0.0014713026729284548, "original_dtype": "float32"}}, {"name": "res5b1_branch2a/kernel", "shape": [3, 3, 512, 512], "dtype": "float32", "quantization": {"dtype": "uint8", "min": -0.14651804040460026, "scale": 0.0011357987628263586, "original_dtype": "float32"}}, {"name": "res5b1_branch2b/kernel", "shape": [3, 3, 512, 512], "dtype": "float32", "quantization": {"dtype": "uint8", "min": -0.19191887799431295, "scale": 0.00149936623433057, "original_dtype": "float32"}}]}]}