{"format": "layers-model", "generatedBy": "keras v2.3.1", "convertedBy": "TensorFlow.js Converter v2.0.1.post1", "modelTopology": {"keras_version": "2.3.1", "backend": "tensorflow", "model_config": {"class_name": "Model", "config": {"name": "retinanet", "layers": [{"name": "input_1", "class_name": "InputLayer", "config": {"batch_input_shape": [null, 512, 512, 3], "dtype": "float32", "sparse": false, "name": "input_1"}, "inbound_nodes": []}, {"name": "padding_conv1", "class_name": "ZeroPadding2D", "config": {"name": "padding_conv1", "trainable": true, "dtype": "float32", "padding": [[3, 3], [3, 3]], "data_format": "channels_last"}, "inbound_nodes": [[["input_1", 0, 0, {}]]]}, {"name": "conv1", "class_name": "Conv2D", "config": {"name": "conv1", "trainable": true, "dtype": "float32", "filters": 64, "kernel_size": [7, 7], "strides": [2, 2], "padding": "valid", "data_format": "channels_last", "dilation_rate": [1, 1], "activation": "linear", "use_bias": false, "kernel_initializer": {"class_name": "VarianceScaling", "config": {"scale": 1.0, "mode": "fan_avg", "distribution": "uniform", "seed": null}}, "bias_initializer": {"class_name": "Zeros", "config": {}}, "kernel_regularizer": null, "bias_regularizer": null, "activity_regularizer": null, "kernel_constraint": null, "bias_constraint": null}, "inbound_nodes": [[["padding_conv1", 0, 0, {}]]]}, {"name": "bn_conv1", "class_name": "BatchNormalization", "config": {"name": "bn_conv1", "trainable": false, "dtype": "float32", "axis": 3, "momentum": 0.99, "epsilon": 1e-05, "center": true, "scale": true, "beta_initializer": {"class_name": "Zeros", "config": {}}, "gamma_initializer": {"class_name": "Ones", "config": {}}, "moving_mean_initializer": {"class_name": "Zeros", "config": {}}, "moving_variance_initializer": {"class_name": "Ones", "config": {}}, "beta_regularizer": null, "gamma_regularizer": null, "beta_constraint": null, "gamma_constraint": null, "freeze": true}, "inbound_nodes": [[["conv1", 0, 0, {}]]]}, {"name": "conv1_relu", "class_name": "Activation", "config": {"name": "conv1_relu", "trainable": true, "dtype": "float32", "activation": "relu"}, "inbound_nodes": [[["bn_conv1", 0, 0, {}]]]}, {"name": "pool1", "class_name": "MaxPooling2D", "config": {"name": "pool1", "trainable": true, "dtype": "float32", "pool_size": [3, 3], "padding": "same", "strides": [2, 2], "data_format": "channels_last"}, "inbound_nodes": [[["conv1_relu", 0, 0, {}]]]}, {"name": "res2a_branch2a", "class_name": "Conv2D", "config": {"name": "res2a_branch2a", "trainable": true, "dtype": "float32", "filters": 64, "kernel_size": [1, 1], "strides": [1, 1], "padding": "valid", "data_format": "channels_last", "dilation_rate": [1, 1], "activation": "linear", "use_bias": false, "kernel_initializer": {"class_name": "VarianceScaling", "config": {"scale": 2.0, "mode": "fan_in", "distribution": "normal", "seed": null}}, "bias_initializer": {"class_name": "Zeros", "config": {}}, "kernel_regularizer": null, "bias_regularizer": null, "activity_regularizer": null, "kernel_constraint": null, "bias_constraint": null}, "inbound_nodes": [[["pool1", 0, 0, {}]]]}, {"name": "bn2a_branch2a", "class_name": "BatchNormalization", "config": {"name": "bn2a_branch2a", "trainable": false, "dtype": "float32", "axis": 3, "momentum": 0.99, "epsilon": 1e-05, "center": true, "scale": true, "beta_initializer": {"class_name": "Zeros", "config": {}}, "gamma_initializer": {"class_name": "Ones", "config": {}}, "moving_mean_initializer": {"class_name": "Zeros", "config": {}}, "moving_variance_initializer": {"class_name": "Ones", "config": {}}, "beta_regularizer": null, "gamma_regularizer": null, "beta_constraint": null, "gamma_constraint": null, "freeze": true}, "inbound_nodes": [[["res2a_branch2a", 0, 0, {}]]]}, {"name": "res2a_branch2a_relu", "class_name": "Activation", "config": {"name": "res2a_branch2a_relu", "trainable": true, "dtype": "float32", "activation": "relu"}, "inbound_nodes": [[["bn2a_branch2a", 0, 0, {}]]]}, {"name": "padding2a_branch2b", "class_name": "ZeroPadding2D", "config": {"name": "padding2a_branch2b", "trainable": true, "dtype": "float32", "padding": [[1, 1], [1, 1]], "data_format": "channels_last"}, "inbound_nodes": [[["res2a_branch2a_relu", 0, 0, {}]]]}, {"name": "res2a_branch2b", "class_name": "Conv2D", "config": {"name": "res2a_branch2b", "trainable": true, "dtype": "float32", "filters": 64, "kernel_size": [3, 3], "strides": [1, 1], "padding": "valid", "data_format": "channels_last", "dilation_rate": [1, 1], "activation": "linear", "use_bias": false, "kernel_initializer": {"class_name": "VarianceScaling", "config": {"scale": 2.0, "mode": "fan_in", "distribution": "normal", "seed": null}}, "bias_initializer": {"class_name": "Zeros", "config": {}}, "kernel_regularizer": null, "bias_regularizer": null, "activity_regularizer": null, "kernel_constraint": null, "bias_constraint": null}, "inbound_nodes": [[["padding2a_branch2b", 0, 0, {}]]]}, {"name": "bn2a_branch2b", "class_name": "BatchNormalization", "config": {"name": "bn2a_branch2b", "trainable": false, "dtype": "float32", "axis": 3, "momentum": 0.99, "epsilon": 1e-05, "center": true, "scale": true, "beta_initializer": {"class_name": "Zeros", "config": {}}, "gamma_initializer": {"class_name": "Ones", "config": {}}, "moving_mean_initializer": {"class_name": "Zeros", "config": {}}, "moving_variance_initializer": {"class_name": "Ones", "config": {}}, "beta_regularizer": null, "gamma_regularizer": null, "beta_constraint": null, "gamma_constraint": null, "freeze": true}, "inbound_nodes": [[["res2a_branch2b", 0, 0, {}]]]}, {"name": "res2a_branch2b_relu", "class_name": "Activation", "config": {"name": "res2a_branch2b_relu", "trainable": true, "dtype": "float32", "activation": "relu"}, "inbound_nodes": [[["bn2a_branch2b", 0, 0, {}]]]}, {"name": "res2a_branch2c", "class_name": "Conv2D", "config": {"name": "res2a_branch2c", "trainable": true, "dtype": "float32", "filters": 256, "kernel_size": [1, 1], "strides": [1, 1], "padding": "valid", "data_format": "channels_last", "dilation_rate": [1, 1], "activation": "linear", "use_bias": false, "kernel_initializer": {"class_name": "VarianceScaling", "config": {"scale": 2.0, "mode": "fan_in", "distribution": "normal", "seed": null}}, "bias_initializer": {"class_name": "Zeros", "config": {}}, "kernel_regularizer": null, "bias_regularizer": null, "activity_regularizer": null, "kernel_constraint": null, "bias_constraint": null}, "inbound_nodes": [[["res2a_branch2b_relu", 0, 0, {}]]]}, {"name": "res2a_branch1", "class_name": "Conv2D", "config": {"name": "res2a_branch1", "trainable": true, "dtype": "float32", "filters": 256, "kernel_size": [1, 1], "strides": [1, 1], "padding": "valid", "data_format": "channels_last", "dilation_rate": [1, 1], "activation": "linear", "use_bias": false, "kernel_initializer": {"class_name": "VarianceScaling", "config": {"scale": 2.0, "mode": "fan_in", "distribution": "normal", "seed": null}}, "bias_initializer": {"class_name": "Zeros", "config": {}}, "kernel_regularizer": null, "bias_regularizer": null, "activity_regularizer": null, "kernel_constraint": null, "bias_constraint": null}, "inbound_nodes": [[["pool1", 0, 0, {}]]]}, {"name": "bn2a_branch2c", "class_name": "BatchNormalization", "config": {"name": "bn2a_branch2c", "trainable": false, "dtype": "float32", "axis": 3, "momentum": 0.99, "epsilon": 1e-05, "center": true, "scale": true, "beta_initializer": {"class_name": "Zeros", "config": {}}, "gamma_initializer": {"class_name": "Ones", "config": {}}, "moving_mean_initializer": {"class_name": "Zeros", "config": {}}, "moving_variance_initializer": {"class_name": "Ones", "config": {}}, "beta_regularizer": null, "gamma_regularizer": null, "beta_constraint": null, "gamma_constraint": null, "freeze": true}, "inbound_nodes": [[["res2a_branch2c", 0, 0, {}]]]}, {"name": "bn2a_branch1", "class_name": "BatchNormalization", "config": {"name": "bn2a_branch1", "trainable": false, "dtype": "float32", "axis": 3, "momentum": 0.99, "epsilon": 1e-05, "center": true, "scale": true, "beta_initializer": {"class_name": "Zeros", "config": {}}, "gamma_initializer": {"class_name": "Ones", "config": {}}, "moving_mean_initializer": {"class_name": "Zeros", "config": {}}, "moving_variance_initializer": {"class_name": "Ones", "config": {}}, "beta_regularizer": null, "gamma_regularizer": null, "beta_constraint": null, "gamma_constraint": null, "freeze": true}, "inbound_nodes": [[["res2a_branch1", 0, 0, {}]]]}, {"name": "res2a", "class_name": "Add", "config": {"name": "res2a", "trainable": true, "dtype": "float32"}, "inbound_nodes": [[["bn2a_branch2c", 0, 0, {}], ["bn2a_branch1", 0, 0, {}]]]}, {"name": "res2a_relu", "class_name": "Activation", "config": {"name": "res2a_relu", "trainable": true, "dtype": "float32", "activation": "relu"}, "inbound_nodes": [[["res2a", 0, 0, {}]]]}, {"name": "res2b_branch2a", "class_name": "Conv2D", "config": {"name": "res2b_branch2a", "trainable": true, "dtype": "float32", "filters": 64, "kernel_size": [1, 1], "strides": [1, 1], "padding": "valid", "data_format": "channels_last", "dilation_rate": [1, 1], "activation": "linear", "use_bias": false, "kernel_initializer": {"class_name": "VarianceScaling", "config": {"scale": 2.0, "mode": "fan_in", "distribution": "normal", "seed": null}}, "bias_initializer": {"class_name": "Zeros", "config": {}}, "kernel_regularizer": null, "bias_regularizer": null, "activity_regularizer": null, "kernel_constraint": null, "bias_constraint": null}, "inbound_nodes": [[["res2a_relu", 0, 0, {}]]]}, {"name": "bn2b_branch2a", "class_name": "BatchNormalization", "config": {"name": "bn2b_branch2a", "trainable": false, "dtype": "float32", "axis": 3, "momentum": 0.99, "epsilon": 1e-05, "center": true, "scale": true, "beta_initializer": {"class_name": "Zeros", "config": {}}, "gamma_initializer": {"class_name": "Ones", "config": {}}, "moving_mean_initializer": {"class_name": "Zeros", "config": {}}, "moving_variance_initializer": {"class_name": "Ones", "config": {}}, "beta_regularizer": null, "gamma_regularizer": null, "beta_constraint": null, "gamma_constraint": null, "freeze": true}, "inbound_nodes": [[["res2b_branch2a", 0, 0, {}]]]}, {"name": "res2b_branch2a_relu", "class_name": "Activation", "config": {"name": "res2b_branch2a_relu", "trainable": true, "dtype": "float32", "activation": "relu"}, "inbound_nodes": [[["bn2b_branch2a", 0, 0, {}]]]}, {"name": "padding2b_branch2b", "class_name": "ZeroPadding2D", "config": {"name": "padding2b_branch2b", "trainable": true, "dtype": "float32", "padding": [[1, 1], [1, 1]], "data_format": "channels_last"}, "inbound_nodes": [[["res2b_branch2a_relu", 0, 0, {}]]]}, {"name": "res2b_branch2b", "class_name": "Conv2D", "config": {"name": "res2b_branch2b", "trainable": true, "dtype": "float32", "filters": 64, "kernel_size": [3, 3], "strides": [1, 1], "padding": "valid", "data_format": "channels_last", "dilation_rate": [1, 1], "activation": "linear", "use_bias": false, "kernel_initializer": {"class_name": "VarianceScaling", "config": {"scale": 2.0, "mode": "fan_in", "distribution": "normal", "seed": null}}, "bias_initializer": {"class_name": "Zeros", "config": {}}, "kernel_regularizer": null, "bias_regularizer": null, "activity_regularizer": null, "kernel_constraint": null, "bias_constraint": null}, "inbound_nodes": [[["padding2b_branch2b", 0, 0, {}]]]}, {"name": "bn2b_branch2b", "class_name": "BatchNormalization", "config": {"name": "bn2b_branch2b", "trainable": false, "dtype": "float32", "axis": 3, "momentum": 0.99, "epsilon": 1e-05, "center": true, "scale": true, "beta_initializer": {"class_name": "Zeros", "config": {}}, "gamma_initializer": {"class_name": "Ones", "config": {}}, "moving_mean_initializer": {"class_name": "Zeros", "config": {}}, "moving_variance_initializer": {"class_name": "Ones", "config": {}}, "beta_regularizer": null, "gamma_regularizer": null, "beta_constraint": null, "gamma_constraint": null, "freeze": true}, "inbound_nodes": [[["res2b_branch2b", 0, 0, {}]]]}, {"name": "res2b_branch2b_relu", "class_name": "Activation", "config": {"name": "res2b_branch2b_relu", "trainable": true, "dtype": "float32", "activation": "relu"}, "inbound_nodes": [[["bn2b_branch2b", 0, 0, {}]]]}, {"name": "res2b_branch2c", "class_name": "Conv2D", "config": {"name": "res2b_branch2c", "trainable": true, "dtype": "float32", "filters": 256, "kernel_size": [1, 1], "strides": [1, 1], "padding": "valid", "data_format": "channels_last", "dilation_rate": [1, 1], "activation": "linear", "use_bias": false, "kernel_initializer": {"class_name": "VarianceScaling", "config": {"scale": 2.0, "mode": "fan_in", "distribution": "normal", "seed": null}}, "bias_initializer": {"class_name": "Zeros", "config": {}}, "kernel_regularizer": null, "bias_regularizer": null, "activity_regularizer": null, "kernel_constraint": null, "bias_constraint": null}, "inbound_nodes": [[["res2b_branch2b_relu", 0, 0, {}]]]}, {"name": "bn2b_branch2c", "class_name": "BatchNormalization", "config": {"name": "bn2b_branch2c", "trainable": false, "dtype": "float32", "axis": 3, "momentum": 0.99, "epsilon": 1e-05, "center": true, "scale": true, "beta_initializer": {"class_name": "Zeros", "config": {}}, "gamma_initializer": {"class_name": "Ones", "config": {}}, "moving_mean_initializer": {"class_name": "Zeros", "config": {}}, "moving_variance_initializer": {"class_name": "Ones", "config": {}}, "beta_regularizer": null, "gamma_regularizer": null, "beta_constraint": null, "gamma_constraint": null, "freeze": true}, "inbound_nodes": [[["res2b_branch2c", 0, 0, {}]]]}, {"name": "res2b", "class_name": "Add", "config": {"name": "res2b", "trainable": true, "dtype": "float32"}, "inbound_nodes": [[["bn2b_branch2c", 0, 0, {}], ["res2a_relu", 0, 0, {}]]]}, {"name": "res2b_relu", "class_name": "Activation", "config": {"name": "res2b_relu", "trainable": true, "dtype": "float32", "activation": "relu"}, "inbound_nodes": [[["res2b", 0, 0, {}]]]}, {"name": "res2c_branch2a", "class_name": "Conv2D", "config": {"name": "res2c_branch2a", "trainable": true, "dtype": "float32", "filters": 64, "kernel_size": [1, 1], "strides": [1, 1], "padding": "valid", "data_format": "channels_last", "dilation_rate": [1, 1], "activation": "linear", "use_bias": false, "kernel_initializer": {"class_name": "VarianceScaling", "config": {"scale": 2.0, "mode": "fan_in", "distribution": "normal", "seed": null}}, "bias_initializer": {"class_name": "Zeros", "config": {}}, "kernel_regularizer": null, "bias_regularizer": null, "activity_regularizer": null, "kernel_constraint": null, "bias_constraint": null}, "inbound_nodes": [[["res2b_relu", 0, 0, {}]]]}, {"name": "bn2c_branch2a", "class_name": "BatchNormalization", "config": {"name": "bn2c_branch2a", "trainable": false, "dtype": "float32", "axis": 3, "momentum": 0.99, "epsilon": 1e-05, "center": true, "scale": true, "beta_initializer": {"class_name": "Zeros", "config": {}}, "gamma_initializer": {"class_name": "Ones", "config": {}}, "moving_mean_initializer": {"class_name": "Zeros", "config": {}}, "moving_variance_initializer": {"class_name": "Ones", "config": {}}, "beta_regularizer": null, "gamma_regularizer": null, "beta_constraint": null, "gamma_constraint": null, "freeze": true}, "inbound_nodes": [[["res2c_branch2a", 0, 0, {}]]]}, {"name": "res2c_branch2a_relu", "class_name": "Activation", "config": {"name": "res2c_branch2a_relu", "trainable": true, "dtype": "float32", "activation": "relu"}, "inbound_nodes": [[["bn2c_branch2a", 0, 0, {}]]]}, {"name": "padding2c_branch2b", "class_name": "ZeroPadding2D", "config": {"name": "padding2c_branch2b", "trainable": true, "dtype": "float32", "padding": [[1, 1], [1, 1]], "data_format": "channels_last"}, "inbound_nodes": [[["res2c_branch2a_relu", 0, 0, {}]]]}, {"name": "res2c_branch2b", "class_name": "Conv2D", "config": {"name": "res2c_branch2b", "trainable": true, "dtype": "float32", "filters": 64, "kernel_size": [3, 3], "strides": [1, 1], "padding": "valid", "data_format": "channels_last", "dilation_rate": [1, 1], "activation": "linear", "use_bias": false, "kernel_initializer": {"class_name": "VarianceScaling", "config": {"scale": 2.0, "mode": "fan_in", "distribution": "normal", "seed": null}}, "bias_initializer": {"class_name": "Zeros", "config": {}}, "kernel_regularizer": null, "bias_regularizer": null, "activity_regularizer": null, "kernel_constraint": null, "bias_constraint": null}, "inbound_nodes": [[["padding2c_branch2b", 0, 0, {}]]]}, {"name": "bn2c_branch2b", "class_name": "BatchNormalization", "config": {"name": "bn2c_branch2b", "trainable": false, "dtype": "float32", "axis": 3, "momentum": 0.99, "epsilon": 1e-05, "center": true, "scale": true, "beta_initializer": {"class_name": "Zeros", "config": {}}, "gamma_initializer": {"class_name": "Ones", "config": {}}, "moving_mean_initializer": {"class_name": "Zeros", "config": {}}, "moving_variance_initializer": {"class_name": "Ones", "config": {}}, "beta_regularizer": null, "gamma_regularizer": null, "beta_constraint": null, "gamma_constraint": null, "freeze": true}, "inbound_nodes": [[["res2c_branch2b", 0, 0, {}]]]}, {"name": "res2c_branch2b_relu", "class_name": "Activation", "config": {"name": "res2c_branch2b_relu", "trainable": true, "dtype": "float32", "activation": "relu"}, "inbound_nodes": [[["bn2c_branch2b", 0, 0, {}]]]}, {"name": "res2c_branch2c", "class_name": "Conv2D", "config": {"name": "res2c_branch2c", "trainable": true, "dtype": "float32", "filters": 256, "kernel_size": [1, 1], "strides": [1, 1], "padding": "valid", "data_format": "channels_last", "dilation_rate": [1, 1], "activation": "linear", "use_bias": false, "kernel_initializer": {"class_name": "VarianceScaling", "config": {"scale": 2.0, "mode": "fan_in", "distribution": "normal", "seed": null}}, "bias_initializer": {"class_name": "Zeros", "config": {}}, "kernel_regularizer": null, "bias_regularizer": null, "activity_regularizer": null, "kernel_constraint": null, "bias_constraint": null}, "inbound_nodes": [[["res2c_branch2b_relu", 0, 0, {}]]]}, {"name": "bn2c_branch2c", "class_name": "BatchNormalization", "config": {"name": "bn2c_branch2c", "trainable": false, "dtype": "float32", "axis": 3, "momentum": 0.99, "epsilon": 1e-05, "center": true, "scale": true, "beta_initializer": {"class_name": "Zeros", "config": {}}, "gamma_initializer": {"class_name": "Ones", "config": {}}, "moving_mean_initializer": {"class_name": "Zeros", "config": {}}, "moving_variance_initializer": {"class_name": "Ones", "config": {}}, "beta_regularizer": null, "gamma_regularizer": null, "beta_constraint": null, "gamma_constraint": null, "freeze": true}, "inbound_nodes": [[["res2c_branch2c", 0, 0, {}]]]}, {"name": "res2c", "class_name": "Add", "config": {"name": "res2c", "trainable": true, "dtype": "float32"}, "inbound_nodes": [[["bn2c_branch2c", 0, 0, {}], ["res2b_relu", 0, 0, {}]]]}, {"name": "res2c_relu", "class_name": "Activation", "config": {"name": "res2c_relu", "trainable": true, "dtype": "float32", "activation": "relu"}, "inbound_nodes": [[["res2c", 0, 0, {}]]]}, {"name": "res3a_branch2a", "class_name": "Conv2D", "config": {"name": "res3a_branch2a", "trainable": true, "dtype": "float32", "filters": 128, "kernel_size": [1, 1], "strides": [2, 2], "padding": "valid", "data_format": "channels_last", "dilation_rate": [1, 1], "activation": "linear", "use_bias": false, "kernel_initializer": {"class_name": "VarianceScaling", "config": {"scale": 2.0, "mode": "fan_in", "distribution": "normal", "seed": null}}, "bias_initializer": {"class_name": "Zeros", "config": {}}, "kernel_regularizer": null, "bias_regularizer": null, "activity_regularizer": null, "kernel_constraint": null, "bias_constraint": null}, "inbound_nodes": [[["res2c_relu", 0, 0, {}]]]}, {"name": "bn3a_branch2a", "class_name": "BatchNormalization", "config": {"name": "bn3a_branch2a", "trainable": false, "dtype": "float32", "axis": 3, "momentum": 0.99, "epsilon": 1e-05, "center": true, "scale": true, "beta_initializer": {"class_name": "Zeros", "config": {}}, "gamma_initializer": {"class_name": "Ones", "config": {}}, "moving_mean_initializer": {"class_name": "Zeros", "config": {}}, "moving_variance_initializer": {"class_name": "Ones", "config": {}}, "beta_regularizer": null, "gamma_regularizer": null, "beta_constraint": null, "gamma_constraint": null, "freeze": true}, "inbound_nodes": [[["res3a_branch2a", 0, 0, {}]]]}, {"name": "res3a_branch2a_relu", "class_name": "Activation", "config": {"name": "res3a_branch2a_relu", "trainable": true, "dtype": "float32", "activation": "relu"}, "inbound_nodes": [[["bn3a_branch2a", 0, 0, {}]]]}, {"name": "padding3a_branch2b", "class_name": "ZeroPadding2D", "config": {"name": "padding3a_branch2b", "trainable": true, "dtype": "float32", "padding": [[1, 1], [1, 1]], "data_format": "channels_last"}, "inbound_nodes": [[["res3a_branch2a_relu", 0, 0, {}]]]}, {"name": "res3a_branch2b", "class_name": "Conv2D", "config": {"name": "res3a_branch2b", "trainable": true, "dtype": "float32", "filters": 128, "kernel_size": [3, 3], "strides": [1, 1], "padding": "valid", "data_format": "channels_last", "dilation_rate": [1, 1], "activation": "linear", "use_bias": false, "kernel_initializer": {"class_name": "VarianceScaling", "config": {"scale": 2.0, "mode": "fan_in", "distribution": "normal", "seed": null}}, "bias_initializer": {"class_name": "Zeros", "config": {}}, "kernel_regularizer": null, "bias_regularizer": null, "activity_regularizer": null, "kernel_constraint": null, "bias_constraint": null}, "inbound_nodes": [[["padding3a_branch2b", 0, 0, {}]]]}, {"name": "bn3a_branch2b", "class_name": "BatchNormalization", "config": {"name": "bn3a_branch2b", "trainable": false, "dtype": "float32", "axis": 3, "momentum": 0.99, "epsilon": 1e-05, "center": true, "scale": true, "beta_initializer": {"class_name": "Zeros", "config": {}}, "gamma_initializer": {"class_name": "Ones", "config": {}}, "moving_mean_initializer": {"class_name": "Zeros", "config": {}}, "moving_variance_initializer": {"class_name": "Ones", "config": {}}, "beta_regularizer": null, "gamma_regularizer": null, "beta_constraint": null, "gamma_constraint": null, "freeze": true}, "inbound_nodes": [[["res3a_branch2b", 0, 0, {}]]]}, {"name": "res3a_branch2b_relu", "class_name": "Activation", "config": {"name": "res3a_branch2b_relu", "trainable": true, "dtype": "float32", "activation": "relu"}, "inbound_nodes": [[["bn3a_branch2b", 0, 0, {}]]]}, {"name": "res3a_branch2c", "class_name": "Conv2D", "config": {"name": "res3a_branch2c", "trainable": true, "dtype": "float32", "filters": 512, "kernel_size": [1, 1], "strides": [1, 1], "padding": "valid", "data_format": "channels_last", "dilation_rate": [1, 1], "activation": "linear", "use_bias": false, "kernel_initializer": {"class_name": "VarianceScaling", "config": {"scale": 2.0, "mode": "fan_in", "distribution": "normal", "seed": null}}, "bias_initializer": {"class_name": "Zeros", "config": {}}, "kernel_regularizer": null, "bias_regularizer": null, "activity_regularizer": null, "kernel_constraint": null, "bias_constraint": null}, "inbound_nodes": [[["res3a_branch2b_relu", 0, 0, {}]]]}, {"name": "res3a_branch1", "class_name": "Conv2D", "config": {"name": "res3a_branch1", "trainable": true, "dtype": "float32", "filters": 512, "kernel_size": [1, 1], "strides": [2, 2], "padding": "valid", "data_format": "channels_last", "dilation_rate": [1, 1], "activation": "linear", "use_bias": false, "kernel_initializer": {"class_name": "VarianceScaling", "config": {"scale": 2.0, "mode": "fan_in", "distribution": "normal", "seed": null}}, "bias_initializer": {"class_name": "Zeros", "config": {}}, "kernel_regularizer": null, "bias_regularizer": null, "activity_regularizer": null, "kernel_constraint": null, "bias_constraint": null}, "inbound_nodes": [[["res2c_relu", 0, 0, {}]]]}, {"name": "bn3a_branch2c", "class_name": "BatchNormalization", "config": {"name": "bn3a_branch2c", "trainable": false, "dtype": "float32", "axis": 3, "momentum": 0.99, "epsilon": 1e-05, "center": true, "scale": true, "beta_initializer": {"class_name": "Zeros", "config": {}}, "gamma_initializer": {"class_name": "Ones", "config": {}}, "moving_mean_initializer": {"class_name": "Zeros", "config": {}}, "moving_variance_initializer": {"class_name": "Ones", "config": {}}, "beta_regularizer": null, "gamma_regularizer": null, "beta_constraint": null, "gamma_constraint": null, "freeze": true}, "inbound_nodes": [[["res3a_branch2c", 0, 0, {}]]]}, {"name": "bn3a_branch1", "class_name": "BatchNormalization", "config": {"name": "bn3a_branch1", "trainable": false, "dtype": "float32", "axis": 3, "momentum": 0.99, "epsilon": 1e-05, "center": true, "scale": true, "beta_initializer": {"class_name": "Zeros", "config": {}}, "gamma_initializer": {"class_name": "Ones", "config": {}}, "moving_mean_initializer": {"class_name": "Zeros", "config": {}}, "moving_variance_initializer": {"class_name": "Ones", "config": {}}, "beta_regularizer": null, "gamma_regularizer": null, "beta_constraint": null, "gamma_constraint": null, "freeze": true}, "inbound_nodes": [[["res3a_branch1", 0, 0, {}]]]}, {"name": "res3a", "class_name": "Add", "config": {"name": "res3a", "trainable": true, "dtype": "float32"}, "inbound_nodes": [[["bn3a_branch2c", 0, 0, {}], ["bn3a_branch1", 0, 0, {}]]]}, {"name": "res3a_relu", "class_name": "Activation", "config": {"name": "res3a_relu", "trainable": true, "dtype": "float32", "activation": "relu"}, "inbound_nodes": [[["res3a", 0, 0, {}]]]}, {"name": "res3b_branch2a", "class_name": "Conv2D", "config": {"name": "res3b_branch2a", "trainable": true, "dtype": "float32", "filters": 128, "kernel_size": [1, 1], "strides": [1, 1], "padding": "valid", "data_format": "channels_last", "dilation_rate": [1, 1], "activation": "linear", "use_bias": false, "kernel_initializer": {"class_name": "VarianceScaling", "config": {"scale": 2.0, "mode": "fan_in", "distribution": "normal", "seed": null}}, "bias_initializer": {"class_name": "Zeros", "config": {}}, "kernel_regularizer": null, "bias_regularizer": null, "activity_regularizer": null, "kernel_constraint": null, "bias_constraint": null}, "inbound_nodes": [[["res3a_relu", 0, 0, {}]]]}, {"name": "bn3b_branch2a", "class_name": "BatchNormalization", "config": {"name": "bn3b_branch2a", "trainable": false, "dtype": "float32", "axis": 3, "momentum": 0.99, "epsilon": 1e-05, "center": true, "scale": true, "beta_initializer": {"class_name": "Zeros", "config": {}}, "gamma_initializer": {"class_name": "Ones", "config": {}}, "moving_mean_initializer": {"class_name": "Zeros", "config": {}}, "moving_variance_initializer": {"class_name": "Ones", "config": {}}, "beta_regularizer": null, "gamma_regularizer": null, "beta_constraint": null, "gamma_constraint": null, "freeze": true}, "inbound_nodes": [[["res3b_branch2a", 0, 0, {}]]]}, {"name": "res3b_branch2a_relu", "class_name": "Activation", "config": {"name": "res3b_branch2a_relu", "trainable": true, "dtype": "float32", "activation": "relu"}, "inbound_nodes": [[["bn3b_branch2a", 0, 0, {}]]]}, {"name": "padding3b_branch2b", "class_name": "ZeroPadding2D", "config": {"name": "padding3b_branch2b", "trainable": true, "dtype": "float32", "padding": [[1, 1], [1, 1]], "data_format": "channels_last"}, "inbound_nodes": [[["res3b_branch2a_relu", 0, 0, {}]]]}, {"name": "res3b_branch2b", "class_name": "Conv2D", "config": {"name": "res3b_branch2b", "trainable": true, "dtype": "float32", "filters": 128, "kernel_size": [3, 3], "strides": [1, 1], "padding": "valid", "data_format": "channels_last", "dilation_rate": [1, 1], "activation": "linear", "use_bias": false, "kernel_initializer": {"class_name": "VarianceScaling", "config": {"scale": 2.0, "mode": "fan_in", "distribution": "normal", "seed": null}}, "bias_initializer": {"class_name": "Zeros", "config": {}}, "kernel_regularizer": null, "bias_regularizer": null, "activity_regularizer": null, "kernel_constraint": null, "bias_constraint": null}, "inbound_nodes": [[["padding3b_branch2b", 0, 0, {}]]]}, {"name": "bn3b_branch2b", "class_name": "BatchNormalization", "config": {"name": "bn3b_branch2b", "trainable": false, "dtype": "float32", "axis": 3, "momentum": 0.99, "epsilon": 1e-05, "center": true, "scale": true, "beta_initializer": {"class_name": "Zeros", "config": {}}, "gamma_initializer": {"class_name": "Ones", "config": {}}, "moving_mean_initializer": {"class_name": "Zeros", "config": {}}, "moving_variance_initializer": {"class_name": "Ones", "config": {}}, "beta_regularizer": null, "gamma_regularizer": null, "beta_constraint": null, "gamma_constraint": null, "freeze": true}, "inbound_nodes": [[["res3b_branch2b", 0, 0, {}]]]}, {"name": "res3b_branch2b_relu", "class_name": "Activation", "config": {"name": "res3b_branch2b_relu", "trainable": true, "dtype": "float32", "activation": "relu"}, "inbound_nodes": [[["bn3b_branch2b", 0, 0, {}]]]}, {"name": "res3b_branch2c", "class_name": "Conv2D", "config": {"name": "res3b_branch2c", "trainable": true, "dtype": "float32", "filters": 512, "kernel_size": [1, 1], "strides": [1, 1], "padding": "valid", "data_format": "channels_last", "dilation_rate": [1, 1], "activation": "linear", "use_bias": false, "kernel_initializer": {"class_name": "VarianceScaling", "config": {"scale": 2.0, "mode": "fan_in", "distribution": "normal", "seed": null}}, "bias_initializer": {"class_name": "Zeros", "config": {}}, "kernel_regularizer": null, "bias_regularizer": null, "activity_regularizer": null, "kernel_constraint": null, "bias_constraint": null}, "inbound_nodes": [[["res3b_branch2b_relu", 0, 0, {}]]]}, {"name": "bn3b_branch2c", "class_name": "BatchNormalization", "config": {"name": "bn3b_branch2c", "trainable": false, "dtype": "float32", "axis": 3, "momentum": 0.99, "epsilon": 1e-05, "center": true, "scale": true, "beta_initializer": {"class_name": "Zeros", "config": {}}, "gamma_initializer": {"class_name": "Ones", "config": {}}, "moving_mean_initializer": {"class_name": "Zeros", "config": {}}, "moving_variance_initializer": {"class_name": "Ones", "config": {}}, "beta_regularizer": null, "gamma_regularizer": null, "beta_constraint": null, "gamma_constraint": null, "freeze": true}, "inbound_nodes": [[["res3b_branch2c", 0, 0, {}]]]}, {"name": "res3b", "class_name": "Add", "config": {"name": "res3b", "trainable": true, "dtype": "float32"}, "inbound_nodes": [[["bn3b_branch2c", 0, 0, {}], ["res3a_relu", 0, 0, {}]]]}, {"name": "res3b_relu", "class_name": "Activation", "config": {"name": "res3b_relu", "trainable": true, "dtype": "float32", "activation": "relu"}, "inbound_nodes": [[["res3b", 0, 0, {}]]]}, {"name": "res3c_branch2a", "class_name": "Conv2D", "config": {"name": "res3c_branch2a", "trainable": true, "dtype": "float32", "filters": 128, "kernel_size": [1, 1], "strides": [1, 1], "padding": "valid", "data_format": "channels_last", "dilation_rate": [1, 1], "activation": "linear", "use_bias": false, "kernel_initializer": {"class_name": "VarianceScaling", "config": {"scale": 2.0, "mode": "fan_in", "distribution": "normal", "seed": null}}, "bias_initializer": {"class_name": "Zeros", "config": {}}, "kernel_regularizer": null, "bias_regularizer": null, "activity_regularizer": null, "kernel_constraint": null, "bias_constraint": null}, "inbound_nodes": [[["res3b_relu", 0, 0, {}]]]}, {"name": "bn3c_branch2a", "class_name": "BatchNormalization", "config": {"name": "bn3c_branch2a", "trainable": false, "dtype": "float32", "axis": 3, "momentum": 0.99, "epsilon": 1e-05, "center": true, "scale": true, "beta_initializer": {"class_name": "Zeros", "config": {}}, "gamma_initializer": {"class_name": "Ones", "config": {}}, "moving_mean_initializer": {"class_name": "Zeros", "config": {}}, "moving_variance_initializer": {"class_name": "Ones", "config": {}}, "beta_regularizer": null, "gamma_regularizer": null, "beta_constraint": null, "gamma_constraint": null, "freeze": true}, "inbound_nodes": [[["res3c_branch2a", 0, 0, {}]]]}, {"name": "res3c_branch2a_relu", "class_name": "Activation", "config": {"name": "res3c_branch2a_relu", "trainable": true, "dtype": "float32", "activation": "relu"}, "inbound_nodes": [[["bn3c_branch2a", 0, 0, {}]]]}, {"name": "padding3c_branch2b", "class_name": "ZeroPadding2D", "config": {"name": "padding3c_branch2b", "trainable": true, "dtype": "float32", "padding": [[1, 1], [1, 1]], "data_format": "channels_last"}, "inbound_nodes": [[["res3c_branch2a_relu", 0, 0, {}]]]}, {"name": "res3c_branch2b", "class_name": "Conv2D", "config": {"name": "res3c_branch2b", "trainable": true, "dtype": "float32", "filters": 128, "kernel_size": [3, 3], "strides": [1, 1], "padding": "valid", "data_format": "channels_last", "dilation_rate": [1, 1], "activation": "linear", "use_bias": false, "kernel_initializer": {"class_name": "VarianceScaling", "config": {"scale": 2.0, "mode": "fan_in", "distribution": "normal", "seed": null}}, "bias_initializer": {"class_name": "Zeros", "config": {}}, "kernel_regularizer": null, "bias_regularizer": null, "activity_regularizer": null, "kernel_constraint": null, "bias_constraint": null}, "inbound_nodes": [[["padding3c_branch2b", 0, 0, {}]]]}, {"name": "bn3c_branch2b", "class_name": "BatchNormalization", "config": {"name": "bn3c_branch2b", "trainable": false, "dtype": "float32", "axis": 3, "momentum": 0.99, "epsilon": 1e-05, "center": true, "scale": true, "beta_initializer": {"class_name": "Zeros", "config": {}}, "gamma_initializer": {"class_name": "Ones", "config": {}}, "moving_mean_initializer": {"class_name": "Zeros", "config": {}}, "moving_variance_initializer": {"class_name": "Ones", "config": {}}, "beta_regularizer": null, "gamma_regularizer": null, "beta_constraint": null, "gamma_constraint": null, "freeze": true}, "inbound_nodes": [[["res3c_branch2b", 0, 0, {}]]]}, {"name": "res3c_branch2b_relu", "class_name": "Activation", "config": {"name": "res3c_branch2b_relu", "trainable": true, "dtype": "float32", "activation": "relu"}, "inbound_nodes": [[["bn3c_branch2b", 0, 0, {}]]]}, {"name": "res3c_branch2c", "class_name": "Conv2D", "config": {"name": "res3c_branch2c", "trainable": true, "dtype": "float32", "filters": 512, "kernel_size": [1, 1], "strides": [1, 1], "padding": "valid", "data_format": "channels_last", "dilation_rate": [1, 1], "activation": "linear", "use_bias": false, "kernel_initializer": {"class_name": "VarianceScaling", "config": {"scale": 2.0, "mode": "fan_in", "distribution": "normal", "seed": null}}, "bias_initializer": {"class_name": "Zeros", "config": {}}, "kernel_regularizer": null, "bias_regularizer": null, "activity_regularizer": null, "kernel_constraint": null, "bias_constraint": null}, "inbound_nodes": [[["res3c_branch2b_relu", 0, 0, {}]]]}, {"name": "bn3c_branch2c", "class_name": "BatchNormalization", "config": {"name": "bn3c_branch2c", "trainable": false, "dtype": "float32", "axis": 3, "momentum": 0.99, "epsilon": 1e-05, "center": true, "scale": true, "beta_initializer": {"class_name": "Zeros", "config": {}}, "gamma_initializer": {"class_name": "Ones", "config": {}}, "moving_mean_initializer": {"class_name": "Zeros", "config": {}}, "moving_variance_initializer": {"class_name": "Ones", "config": {}}, "beta_regularizer": null, "gamma_regularizer": null, "beta_constraint": null, "gamma_constraint": null, "freeze": true}, "inbound_nodes": [[["res3c_branch2c", 0, 0, {}]]]}, {"name": "res3c", "class_name": "Add", "config": {"name": "res3c", "trainable": true, "dtype": "float32"}, "inbound_nodes": [[["bn3c_branch2c", 0, 0, {}], ["res3b_relu", 0, 0, {}]]]}, {"name": "res3c_relu", "class_name": "Activation", "config": {"name": "res3c_relu", "trainable": true, "dtype": "float32", "activation": "relu"}, "inbound_nodes": [[["res3c", 0, 0, {}]]]}, {"name": "res3d_branch2a", "class_name": "Conv2D", "config": {"name": "res3d_branch2a", "trainable": true, "dtype": "float32", "filters": 128, "kernel_size": [1, 1], "strides": [1, 1], "padding": "valid", "data_format": "channels_last", "dilation_rate": [1, 1], "activation": "linear", "use_bias": false, "kernel_initializer": {"class_name": "VarianceScaling", "config": {"scale": 2.0, "mode": "fan_in", "distribution": "normal", "seed": null}}, "bias_initializer": {"class_name": "Zeros", "config": {}}, "kernel_regularizer": null, "bias_regularizer": null, "activity_regularizer": null, "kernel_constraint": null, "bias_constraint": null}, "inbound_nodes": [[["res3c_relu", 0, 0, {}]]]}, {"name": "bn3d_branch2a", "class_name": "BatchNormalization", "config": {"name": "bn3d_branch2a", "trainable": false, "dtype": "float32", "axis": 3, "momentum": 0.99, "epsilon": 1e-05, "center": true, "scale": true, "beta_initializer": {"class_name": "Zeros", "config": {}}, "gamma_initializer": {"class_name": "Ones", "config": {}}, "moving_mean_initializer": {"class_name": "Zeros", "config": {}}, "moving_variance_initializer": {"class_name": "Ones", "config": {}}, "beta_regularizer": null, "gamma_regularizer": null, "beta_constraint": null, "gamma_constraint": null, "freeze": true}, "inbound_nodes": [[["res3d_branch2a", 0, 0, {}]]]}, {"name": "res3d_branch2a_relu", "class_name": "Activation", "config": {"name": "res3d_branch2a_relu", "trainable": true, "dtype": "float32", "activation": "relu"}, "inbound_nodes": [[["bn3d_branch2a", 0, 0, {}]]]}, {"name": "padding3d_branch2b", "class_name": "ZeroPadding2D", "config": {"name": "padding3d_branch2b", "trainable": true, "dtype": "float32", "padding": [[1, 1], [1, 1]], "data_format": "channels_last"}, "inbound_nodes": [[["res3d_branch2a_relu", 0, 0, {}]]]}, {"name": "res3d_branch2b", "class_name": "Conv2D", "config": {"name": "res3d_branch2b", "trainable": true, "dtype": "float32", "filters": 128, "kernel_size": [3, 3], "strides": [1, 1], "padding": "valid", "data_format": "channels_last", "dilation_rate": [1, 1], "activation": "linear", "use_bias": false, "kernel_initializer": {"class_name": "VarianceScaling", "config": {"scale": 2.0, "mode": "fan_in", "distribution": "normal", "seed": null}}, "bias_initializer": {"class_name": "Zeros", "config": {}}, "kernel_regularizer": null, "bias_regularizer": null, "activity_regularizer": null, "kernel_constraint": null, "bias_constraint": null}, "inbound_nodes": [[["padding3d_branch2b", 0, 0, {}]]]}, {"name": "bn3d_branch2b", "class_name": "BatchNormalization", "config": {"name": "bn3d_branch2b", "trainable": false, "dtype": "float32", "axis": 3, "momentum": 0.99, "epsilon": 1e-05, "center": true, "scale": true, "beta_initializer": {"class_name": "Zeros", "config": {}}, "gamma_initializer": {"class_name": "Ones", "config": {}}, "moving_mean_initializer": {"class_name": "Zeros", "config": {}}, "moving_variance_initializer": {"class_name": "Ones", "config": {}}, "beta_regularizer": null, "gamma_regularizer": null, "beta_constraint": null, "gamma_constraint": null, "freeze": true}, "inbound_nodes": [[["res3d_branch2b", 0, 0, {}]]]}, {"name": "res3d_branch2b_relu", "class_name": "Activation", "config": {"name": "res3d_branch2b_relu", "trainable": true, "dtype": "float32", "activation": "relu"}, "inbound_nodes": [[["bn3d_branch2b", 0, 0, {}]]]}, {"name": "res3d_branch2c", "class_name": "Conv2D", "config": {"name": "res3d_branch2c", "trainable": true, "dtype": "float32", "filters": 512, "kernel_size": [1, 1], "strides": [1, 1], "padding": "valid", "data_format": "channels_last", "dilation_rate": [1, 1], "activation": "linear", "use_bias": false, "kernel_initializer": {"class_name": "VarianceScaling", "config": {"scale": 2.0, "mode": "fan_in", "distribution": "normal", "seed": null}}, "bias_initializer": {"class_name": "Zeros", "config": {}}, "kernel_regularizer": null, "bias_regularizer": null, "activity_regularizer": null, "kernel_constraint": null, "bias_constraint": null}, "inbound_nodes": [[["res3d_branch2b_relu", 0, 0, {}]]]}, {"name": "bn3d_branch2c", "class_name": "BatchNormalization", "config": {"name": "bn3d_branch2c", "trainable": false, "dtype": "float32", "axis": 3, "momentum": 0.99, "epsilon": 1e-05, "center": true, "scale": true, "beta_initializer": {"class_name": "Zeros", "config": {}}, "gamma_initializer": {"class_name": "Ones", "config": {}}, "moving_mean_initializer": {"class_name": "Zeros", "config": {}}, "moving_variance_initializer": {"class_name": "Ones", "config": {}}, "beta_regularizer": null, "gamma_regularizer": null, "beta_constraint": null, "gamma_constraint": null, "freeze": true}, "inbound_nodes": [[["res3d_branch2c", 0, 0, {}]]]}, {"name": "res3d", "class_name": "Add", "config": {"name": "res3d", "trainable": true, "dtype": "float32"}, "inbound_nodes": [[["bn3d_branch2c", 0, 0, {}], ["res3c_relu", 0, 0, {}]]]}, {"name": "res3d_relu", "class_name": "Activation", "config": {"name": "res3d_relu", "trainable": true, "dtype": "float32", "activation": "relu"}, "inbound_nodes": [[["res3d", 0, 0, {}]]]}, {"name": "res4a_branch2a", "class_name": "Conv2D", "config": {"name": "res4a_branch2a", "trainable": true, "dtype": "float32", "filters": 256, "kernel_size": [1, 1], "strides": [2, 2], "padding": "valid", "data_format": "channels_last", "dilation_rate": [1, 1], "activation": "linear", "use_bias": false, "kernel_initializer": {"class_name": "VarianceScaling", "config": {"scale": 2.0, "mode": "fan_in", "distribution": "normal", "seed": null}}, "bias_initializer": {"class_name": "Zeros", "config": {}}, "kernel_regularizer": null, "bias_regularizer": null, "activity_regularizer": null, "kernel_constraint": null, "bias_constraint": null}, "inbound_nodes": [[["res3d_relu", 0, 0, {}]]]}, {"name": "bn4a_branch2a", "class_name": "BatchNormalization", "config": {"name": "bn4a_branch2a", "trainable": false, "dtype": "float32", "axis": 3, "momentum": 0.99, "epsilon": 1e-05, "center": true, "scale": true, "beta_initializer": {"class_name": "Zeros", "config": {}}, "gamma_initializer": {"class_name": "Ones", "config": {}}, "moving_mean_initializer": {"class_name": "Zeros", "config": {}}, "moving_variance_initializer": {"class_name": "Ones", "config": {}}, "beta_regularizer": null, "gamma_regularizer": null, "beta_constraint": null, "gamma_constraint": null, "freeze": true}, "inbound_nodes": [[["res4a_branch2a", 0, 0, {}]]]}, {"name": "res4a_branch2a_relu", "class_name": "Activation", "config": {"name": "res4a_branch2a_relu", "trainable": true, "dtype": "float32", "activation": "relu"}, "inbound_nodes": [[["bn4a_branch2a", 0, 0, {}]]]}, {"name": "padding4a_branch2b", "class_name": "ZeroPadding2D", "config": {"name": "padding4a_branch2b", "trainable": true, "dtype": "float32", "padding": [[1, 1], [1, 1]], "data_format": "channels_last"}, "inbound_nodes": [[["res4a_branch2a_relu", 0, 0, {}]]]}, {"name": "res4a_branch2b", "class_name": "Conv2D", "config": {"name": "res4a_branch2b", "trainable": true, "dtype": "float32", "filters": 256, "kernel_size": [3, 3], "strides": [1, 1], "padding": "valid", "data_format": "channels_last", "dilation_rate": [1, 1], "activation": "linear", "use_bias": false, "kernel_initializer": {"class_name": "VarianceScaling", "config": {"scale": 2.0, "mode": "fan_in", "distribution": "normal", "seed": null}}, "bias_initializer": {"class_name": "Zeros", "config": {}}, "kernel_regularizer": null, "bias_regularizer": null, "activity_regularizer": null, "kernel_constraint": null, "bias_constraint": null}, "inbound_nodes": [[["padding4a_branch2b", 0, 0, {}]]]}, {"name": "bn4a_branch2b", "class_name": "BatchNormalization", "config": {"name": "bn4a_branch2b", "trainable": false, "dtype": "float32", "axis": 3, "momentum": 0.99, "epsilon": 1e-05, "center": true, "scale": true, "beta_initializer": {"class_name": "Zeros", "config": {}}, "gamma_initializer": {"class_name": "Ones", "config": {}}, "moving_mean_initializer": {"class_name": "Zeros", "config": {}}, "moving_variance_initializer": {"class_name": "Ones", "config": {}}, "beta_regularizer": null, "gamma_regularizer": null, "beta_constraint": null, "gamma_constraint": null, "freeze": true}, "inbound_nodes": [[["res4a_branch2b", 0, 0, {}]]]}, {"name": "res4a_branch2b_relu", "class_name": "Activation", "config": {"name": "res4a_branch2b_relu", "trainable": true, "dtype": "float32", "activation": "relu"}, "inbound_nodes": [[["bn4a_branch2b", 0, 0, {}]]]}, {"name": "res4a_branch2c", "class_name": "Conv2D", "config": {"name": "res4a_branch2c", "trainable": true, "dtype": "float32", "filters": 1024, "kernel_size": [1, 1], "strides": [1, 1], "padding": "valid", "data_format": "channels_last", "dilation_rate": [1, 1], "activation": "linear", "use_bias": false, "kernel_initializer": {"class_name": "VarianceScaling", "config": {"scale": 2.0, "mode": "fan_in", "distribution": "normal", "seed": null}}, "bias_initializer": {"class_name": "Zeros", "config": {}}, "kernel_regularizer": null, "bias_regularizer": null, "activity_regularizer": null, "kernel_constraint": null, "bias_constraint": null}, "inbound_nodes": [[["res4a_branch2b_relu", 0, 0, {}]]]}, {"name": "res4a_branch1", "class_name": "Conv2D", "config": {"name": "res4a_branch1", "trainable": true, "dtype": "float32", "filters": 1024, "kernel_size": [1, 1], "strides": [2, 2], "padding": "valid", "data_format": "channels_last", "dilation_rate": [1, 1], "activation": "linear", "use_bias": false, "kernel_initializer": {"class_name": "VarianceScaling", "config": {"scale": 2.0, "mode": "fan_in", "distribution": "normal", "seed": null}}, "bias_initializer": {"class_name": "Zeros", "config": {}}, "kernel_regularizer": null, "bias_regularizer": null, "activity_regularizer": null, "kernel_constraint": null, "bias_constraint": null}, "inbound_nodes": [[["res3d_relu", 0, 0, {}]]]}, {"name": "bn4a_branch2c", "class_name": "BatchNormalization", "config": {"name": "bn4a_branch2c", "trainable": false, "dtype": "float32", "axis": 3, "momentum": 0.99, "epsilon": 1e-05, "center": true, "scale": true, "beta_initializer": {"class_name": "Zeros", "config": {}}, "gamma_initializer": {"class_name": "Ones", "config": {}}, "moving_mean_initializer": {"class_name": "Zeros", "config": {}}, "moving_variance_initializer": {"class_name": "Ones", "config": {}}, "beta_regularizer": null, "gamma_regularizer": null, "beta_constraint": null, "gamma_constraint": null, "freeze": true}, "inbound_nodes": [[["res4a_branch2c", 0, 0, {}]]]}, {"name": "bn4a_branch1", "class_name": "BatchNormalization", "config": {"name": "bn4a_branch1", "trainable": false, "dtype": "float32", "axis": 3, "momentum": 0.99, "epsilon": 1e-05, "center": true, "scale": true, "beta_initializer": {"class_name": "Zeros", "config": {}}, "gamma_initializer": {"class_name": "Ones", "config": {}}, "moving_mean_initializer": {"class_name": "Zeros", "config": {}}, "moving_variance_initializer": {"class_name": "Ones", "config": {}}, "beta_regularizer": null, "gamma_regularizer": null, "beta_constraint": null, "gamma_constraint": null, "freeze": true}, "inbound_nodes": [[["res4a_branch1", 0, 0, {}]]]}, {"name": "res4a", "class_name": "Add", "config": {"name": "res4a", "trainable": true, "dtype": "float32"}, "inbound_nodes": [[["bn4a_branch2c", 0, 0, {}], ["bn4a_branch1", 0, 0, {}]]]}, {"name": "res4a_relu", "class_name": "Activation", "config": {"name": "res4a_relu", "trainable": true, "dtype": "float32", "activation": "relu"}, "inbound_nodes": [[["res4a", 0, 0, {}]]]}, {"name": "res4b_branch2a", "class_name": "Conv2D", "config": {"name": "res4b_branch2a", "trainable": true, "dtype": "float32", "filters": 256, "kernel_size": [1, 1], "strides": [1, 1], "padding": "valid", "data_format": "channels_last", "dilation_rate": [1, 1], "activation": "linear", "use_bias": false, "kernel_initializer": {"class_name": "VarianceScaling", "config": {"scale": 2.0, "mode": "fan_in", "distribution": "normal", "seed": null}}, "bias_initializer": {"class_name": "Zeros", "config": {}}, "kernel_regularizer": null, "bias_regularizer": null, "activity_regularizer": null, "kernel_constraint": null, "bias_constraint": null}, "inbound_nodes": [[["res4a_relu", 0, 0, {}]]]}, {"name": "bn4b_branch2a", "class_name": "BatchNormalization", "config": {"name": "bn4b_branch2a", "trainable": false, "dtype": "float32", "axis": 3, "momentum": 0.99, "epsilon": 1e-05, "center": true, "scale": true, "beta_initializer": {"class_name": "Zeros", "config": {}}, "gamma_initializer": {"class_name": "Ones", "config": {}}, "moving_mean_initializer": {"class_name": "Zeros", "config": {}}, "moving_variance_initializer": {"class_name": "Ones", "config": {}}, "beta_regularizer": null, "gamma_regularizer": null, "beta_constraint": null, "gamma_constraint": null, "freeze": true}, "inbound_nodes": [[["res4b_branch2a", 0, 0, {}]]]}, {"name": "res4b_branch2a_relu", "class_name": "Activation", "config": {"name": "res4b_branch2a_relu", "trainable": true, "dtype": "float32", "activation": "relu"}, "inbound_nodes": [[["bn4b_branch2a", 0, 0, {}]]]}, {"name": "padding4b_branch2b", "class_name": "ZeroPadding2D", "config": {"name": "padding4b_branch2b", "trainable": true, "dtype": "float32", "padding": [[1, 1], [1, 1]], "data_format": "channels_last"}, "inbound_nodes": [[["res4b_branch2a_relu", 0, 0, {}]]]}, {"name": "res4b_branch2b", "class_name": "Conv2D", "config": {"name": "res4b_branch2b", "trainable": true, "dtype": "float32", "filters": 256, "kernel_size": [3, 3], "strides": [1, 1], "padding": "valid", "data_format": "channels_last", "dilation_rate": [1, 1], "activation": "linear", "use_bias": false, "kernel_initializer": {"class_name": "VarianceScaling", "config": {"scale": 2.0, "mode": "fan_in", "distribution": "normal", "seed": null}}, "bias_initializer": {"class_name": "Zeros", "config": {}}, "kernel_regularizer": null, "bias_regularizer": null, "activity_regularizer": null, "kernel_constraint": null, "bias_constraint": null}, "inbound_nodes": [[["padding4b_branch2b", 0, 0, {}]]]}, {"name": "bn4b_branch2b", "class_name": "BatchNormalization", "config": {"name": "bn4b_branch2b", "trainable": false, "dtype": "float32", "axis": 3, "momentum": 0.99, "epsilon": 1e-05, "center": true, "scale": true, "beta_initializer": {"class_name": "Zeros", "config": {}}, "gamma_initializer": {"class_name": "Ones", "config": {}}, "moving_mean_initializer": {"class_name": "Zeros", "config": {}}, "moving_variance_initializer": {"class_name": "Ones", "config": {}}, "beta_regularizer": null, "gamma_regularizer": null, "beta_constraint": null, "gamma_constraint": null, "freeze": true}, "inbound_nodes": [[["res4b_branch2b", 0, 0, {}]]]}, {"name": "res4b_branch2b_relu", "class_name": "Activation", "config": {"name": "res4b_branch2b_relu", "trainable": true, "dtype": "float32", "activation": "relu"}, "inbound_nodes": [[["bn4b_branch2b", 0, 0, {}]]]}, {"name": "res4b_branch2c", "class_name": "Conv2D", "config": {"name": "res4b_branch2c", "trainable": true, "dtype": "float32", "filters": 1024, "kernel_size": [1, 1], "strides": [1, 1], "padding": "valid", "data_format": "channels_last", "dilation_rate": [1, 1], "activation": "linear", "use_bias": false, "kernel_initializer": {"class_name": "VarianceScaling", "config": {"scale": 2.0, "mode": "fan_in", "distribution": "normal", "seed": null}}, "bias_initializer": {"class_name": "Zeros", "config": {}}, "kernel_regularizer": null, "bias_regularizer": null, "activity_regularizer": null, "kernel_constraint": null, "bias_constraint": null}, "inbound_nodes": [[["res4b_branch2b_relu", 0, 0, {}]]]}, {"name": "bn4b_branch2c", "class_name": "BatchNormalization", "config": {"name": "bn4b_branch2c", "trainable": false, "dtype": "float32", "axis": 3, "momentum": 0.99, "epsilon": 1e-05, "center": true, "scale": true, "beta_initializer": {"class_name": "Zeros", "config": {}}, "gamma_initializer": {"class_name": "Ones", "config": {}}, "moving_mean_initializer": {"class_name": "Zeros", "config": {}}, "moving_variance_initializer": {"class_name": "Ones", "config": {}}, "beta_regularizer": null, "gamma_regularizer": null, "beta_constraint": null, "gamma_constraint": null, "freeze": true}, "inbound_nodes": [[["res4b_branch2c", 0, 0, {}]]]}, {"name": "res4b", "class_name": "Add", "config": {"name": "res4b", "trainable": true, "dtype": "float32"}, "inbound_nodes": [[["bn4b_branch2c", 0, 0, {}], ["res4a_relu", 0, 0, {}]]]}, {"name": "res4b_relu", "class_name": "Activation", "config": {"name": "res4b_relu", "trainable": true, "dtype": "float32", "activation": "relu"}, "inbound_nodes": [[["res4b", 0, 0, {}]]]}, {"name": "res4c_branch2a", "class_name": "Conv2D", "config": {"name": "res4c_branch2a", "trainable": true, "dtype": "float32", "filters": 256, "kernel_size": [1, 1], "strides": [1, 1], "padding": "valid", "data_format": "channels_last", "dilation_rate": [1, 1], "activation": "linear", "use_bias": false, "kernel_initializer": {"class_name": "VarianceScaling", "config": {"scale": 2.0, "mode": "fan_in", "distribution": "normal", "seed": null}}, "bias_initializer": {"class_name": "Zeros", "config": {}}, "kernel_regularizer": null, "bias_regularizer": null, "activity_regularizer": null, "kernel_constraint": null, "bias_constraint": null}, "inbound_nodes": [[["res4b_relu", 0, 0, {}]]]}, {"name": "bn4c_branch2a", "class_name": "BatchNormalization", "config": {"name": "bn4c_branch2a", "trainable": false, "dtype": "float32", "axis": 3, "momentum": 0.99, "epsilon": 1e-05, "center": true, "scale": true, "beta_initializer": {"class_name": "Zeros", "config": {}}, "gamma_initializer": {"class_name": "Ones", "config": {}}, "moving_mean_initializer": {"class_name": "Zeros", "config": {}}, "moving_variance_initializer": {"class_name": "Ones", "config": {}}, "beta_regularizer": null, "gamma_regularizer": null, "beta_constraint": null, "gamma_constraint": null, "freeze": true}, "inbound_nodes": [[["res4c_branch2a", 0, 0, {}]]]}, {"name": "res4c_branch2a_relu", "class_name": "Activation", "config": {"name": "res4c_branch2a_relu", "trainable": true, "dtype": "float32", "activation": "relu"}, "inbound_nodes": [[["bn4c_branch2a", 0, 0, {}]]]}, {"name": "padding4c_branch2b", "class_name": "ZeroPadding2D", "config": {"name": "padding4c_branch2b", "trainable": true, "dtype": "float32", "padding": [[1, 1], [1, 1]], "data_format": "channels_last"}, "inbound_nodes": [[["res4c_branch2a_relu", 0, 0, {}]]]}, {"name": "res4c_branch2b", "class_name": "Conv2D", "config": {"name": "res4c_branch2b", "trainable": true, "dtype": "float32", "filters": 256, "kernel_size": [3, 3], "strides": [1, 1], "padding": "valid", "data_format": "channels_last", "dilation_rate": [1, 1], "activation": "linear", "use_bias": false, "kernel_initializer": {"class_name": "VarianceScaling", "config": {"scale": 2.0, "mode": "fan_in", "distribution": "normal", "seed": null}}, "bias_initializer": {"class_name": "Zeros", "config": {}}, "kernel_regularizer": null, "bias_regularizer": null, "activity_regularizer": null, "kernel_constraint": null, "bias_constraint": null}, "inbound_nodes": [[["padding4c_branch2b", 0, 0, {}]]]}, {"name": "bn4c_branch2b", "class_name": "BatchNormalization", "config": {"name": "bn4c_branch2b", "trainable": false, "dtype": "float32", "axis": 3, "momentum": 0.99, "epsilon": 1e-05, "center": true, "scale": true, "beta_initializer": {"class_name": "Zeros", "config": {}}, "gamma_initializer": {"class_name": "Ones", "config": {}}, "moving_mean_initializer": {"class_name": "Zeros", "config": {}}, "moving_variance_initializer": {"class_name": "Ones", "config": {}}, "beta_regularizer": null, "gamma_regularizer": null, "beta_constraint": null, "gamma_constraint": null, "freeze": true}, "inbound_nodes": [[["res4c_branch2b", 0, 0, {}]]]}, {"name": "res4c_branch2b_relu", "class_name": "Activation", "config": {"name": "res4c_branch2b_relu", "trainable": true, "dtype": "float32", "activation": "relu"}, "inbound_nodes": [[["bn4c_branch2b", 0, 0, {}]]]}, {"name": "res4c_branch2c", "class_name": "Conv2D", "config": {"name": "res4c_branch2c", "trainable": true, "dtype": "float32", "filters": 1024, "kernel_size": [1, 1], "strides": [1, 1], "padding": "valid", "data_format": "channels_last", "dilation_rate": [1, 1], "activation": "linear", "use_bias": false, "kernel_initializer": {"class_name": "VarianceScaling", "config": {"scale": 2.0, "mode": "fan_in", "distribution": "normal", "seed": null}}, "bias_initializer": {"class_name": "Zeros", "config": {}}, "kernel_regularizer": null, "bias_regularizer": null, "activity_regularizer": null, "kernel_constraint": null, "bias_constraint": null}, "inbound_nodes": [[["res4c_branch2b_relu", 0, 0, {}]]]}, {"name": "bn4c_branch2c", "class_name": "BatchNormalization", "config": {"name": "bn4c_branch2c", "trainable": false, "dtype": "float32", "axis": 3, "momentum": 0.99, "epsilon": 1e-05, "center": true, "scale": true, "beta_initializer": {"class_name": "Zeros", "config": {}}, "gamma_initializer": {"class_name": "Ones", "config": {}}, "moving_mean_initializer": {"class_name": "Zeros", "config": {}}, "moving_variance_initializer": {"class_name": "Ones", "config": {}}, "beta_regularizer": null, "gamma_regularizer": null, "beta_constraint": null, "gamma_constraint": null, "freeze": true}, "inbound_nodes": [[["res4c_branch2c", 0, 0, {}]]]}, {"name": "res4c", "class_name": "Add", "config": {"name": "res4c", "trainable": true, "dtype": "float32"}, "inbound_nodes": [[["bn4c_branch2c", 0, 0, {}], ["res4b_relu", 0, 0, {}]]]}, {"name": "res4c_relu", "class_name": "Activation", "config": {"name": "res4c_relu", "trainable": true, "dtype": "float32", "activation": "relu"}, "inbound_nodes": [[["res4c", 0, 0, {}]]]}, {"name": "res4d_branch2a", "class_name": "Conv2D", "config": {"name": "res4d_branch2a", "trainable": true, "dtype": "float32", "filters": 256, "kernel_size": [1, 1], "strides": [1, 1], "padding": "valid", "data_format": "channels_last", "dilation_rate": [1, 1], "activation": "linear", "use_bias": false, "kernel_initializer": {"class_name": "VarianceScaling", "config": {"scale": 2.0, "mode": "fan_in", "distribution": "normal", "seed": null}}, "bias_initializer": {"class_name": "Zeros", "config": {}}, "kernel_regularizer": null, "bias_regularizer": null, "activity_regularizer": null, "kernel_constraint": null, "bias_constraint": null}, "inbound_nodes": [[["res4c_relu", 0, 0, {}]]]}, {"name": "bn4d_branch2a", "class_name": "BatchNormalization", "config": {"name": "bn4d_branch2a", "trainable": false, "dtype": "float32", "axis": 3, "momentum": 0.99, "epsilon": 1e-05, "center": true, "scale": true, "beta_initializer": {"class_name": "Zeros", "config": {}}, "gamma_initializer": {"class_name": "Ones", "config": {}}, "moving_mean_initializer": {"class_name": "Zeros", "config": {}}, "moving_variance_initializer": {"class_name": "Ones", "config": {}}, "beta_regularizer": null, "gamma_regularizer": null, "beta_constraint": null, "gamma_constraint": null, "freeze": true}, "inbound_nodes": [[["res4d_branch2a", 0, 0, {}]]]}, {"name": "res4d_branch2a_relu", "class_name": "Activation", "config": {"name": "res4d_branch2a_relu", "trainable": true, "dtype": "float32", "activation": "relu"}, "inbound_nodes": [[["bn4d_branch2a", 0, 0, {}]]]}, {"name": "padding4d_branch2b", "class_name": "ZeroPadding2D", "config": {"name": "padding4d_branch2b", "trainable": true, "dtype": "float32", "padding": [[1, 1], [1, 1]], "data_format": "channels_last"}, "inbound_nodes": [[["res4d_branch2a_relu", 0, 0, {}]]]}, {"name": "res4d_branch2b", "class_name": "Conv2D", "config": {"name": "res4d_branch2b", "trainable": true, "dtype": "float32", "filters": 256, "kernel_size": [3, 3], "strides": [1, 1], "padding": "valid", "data_format": "channels_last", "dilation_rate": [1, 1], "activation": "linear", "use_bias": false, "kernel_initializer": {"class_name": "VarianceScaling", "config": {"scale": 2.0, "mode": "fan_in", "distribution": "normal", "seed": null}}, "bias_initializer": {"class_name": "Zeros", "config": {}}, "kernel_regularizer": null, "bias_regularizer": null, "activity_regularizer": null, "kernel_constraint": null, "bias_constraint": null}, "inbound_nodes": [[["padding4d_branch2b", 0, 0, {}]]]}, {"name": "bn4d_branch2b", "class_name": "BatchNormalization", "config": {"name": "bn4d_branch2b", "trainable": false, "dtype": "float32", "axis": 3, "momentum": 0.99, "epsilon": 1e-05, "center": true, "scale": true, "beta_initializer": {"class_name": "Zeros", "config": {}}, "gamma_initializer": {"class_name": "Ones", "config": {}}, "moving_mean_initializer": {"class_name": "Zeros", "config": {}}, "moving_variance_initializer": {"class_name": "Ones", "config": {}}, "beta_regularizer": null, "gamma_regularizer": null, "beta_constraint": null, "gamma_constraint": null, "freeze": true}, "inbound_nodes": [[["res4d_branch2b", 0, 0, {}]]]}, {"name": "res4d_branch2b_relu", "class_name": "Activation", "config": {"name": "res4d_branch2b_relu", "trainable": true, "dtype": "float32", "activation": "relu"}, "inbound_nodes": [[["bn4d_branch2b", 0, 0, {}]]]}, {"name": "res4d_branch2c", "class_name": "Conv2D", "config": {"name": "res4d_branch2c", "trainable": true, "dtype": "float32", "filters": 1024, "kernel_size": [1, 1], "strides": [1, 1], "padding": "valid", "data_format": "channels_last", "dilation_rate": [1, 1], "activation": "linear", "use_bias": false, "kernel_initializer": {"class_name": "VarianceScaling", "config": {"scale": 2.0, "mode": "fan_in", "distribution": "normal", "seed": null}}, "bias_initializer": {"class_name": "Zeros", "config": {}}, "kernel_regularizer": null, "bias_regularizer": null, "activity_regularizer": null, "kernel_constraint": null, "bias_constraint": null}, "inbound_nodes": [[["res4d_branch2b_relu", 0, 0, {}]]]}, {"name": "bn4d_branch2c", "class_name": "BatchNormalization", "config": {"name": "bn4d_branch2c", "trainable": false, "dtype": "float32", "axis": 3, "momentum": 0.99, "epsilon": 1e-05, "center": true, "scale": true, "beta_initializer": {"class_name": "Zeros", "config": {}}, "gamma_initializer": {"class_name": "Ones", "config": {}}, "moving_mean_initializer": {"class_name": "Zeros", "config": {}}, "moving_variance_initializer": {"class_name": "Ones", "config": {}}, "beta_regularizer": null, "gamma_regularizer": null, "beta_constraint": null, "gamma_constraint": null, "freeze": true}, "inbound_nodes": [[["res4d_branch2c", 0, 0, {}]]]}, {"name": "res4d", "class_name": "Add", "config": {"name": "res4d", "trainable": true, "dtype": "float32"}, "inbound_nodes": [[["bn4d_branch2c", 0, 0, {}], ["res4c_relu", 0, 0, {}]]]}, {"name": "res4d_relu", "class_name": "Activation", "config": {"name": "res4d_relu", "trainable": true, "dtype": "float32", "activation": "relu"}, "inbound_nodes": [[["res4d", 0, 0, {}]]]}, {"name": "res4e_branch2a", "class_name": "Conv2D", "config": {"name": "res4e_branch2a", "trainable": true, "dtype": "float32", "filters": 256, "kernel_size": [1, 1], "strides": [1, 1], "padding": "valid", "data_format": "channels_last", "dilation_rate": [1, 1], "activation": "linear", "use_bias": false, "kernel_initializer": {"class_name": "VarianceScaling", "config": {"scale": 2.0, "mode": "fan_in", "distribution": "normal", "seed": null}}, "bias_initializer": {"class_name": "Zeros", "config": {}}, "kernel_regularizer": null, "bias_regularizer": null, "activity_regularizer": null, "kernel_constraint": null, "bias_constraint": null}, "inbound_nodes": [[["res4d_relu", 0, 0, {}]]]}, {"name": "bn4e_branch2a", "class_name": "BatchNormalization", "config": {"name": "bn4e_branch2a", "trainable": false, "dtype": "float32", "axis": 3, "momentum": 0.99, "epsilon": 1e-05, "center": true, "scale": true, "beta_initializer": {"class_name": "Zeros", "config": {}}, "gamma_initializer": {"class_name": "Ones", "config": {}}, "moving_mean_initializer": {"class_name": "Zeros", "config": {}}, "moving_variance_initializer": {"class_name": "Ones", "config": {}}, "beta_regularizer": null, "gamma_regularizer": null, "beta_constraint": null, "gamma_constraint": null, "freeze": true}, "inbound_nodes": [[["res4e_branch2a", 0, 0, {}]]]}, {"name": "res4e_branch2a_relu", "class_name": "Activation", "config": {"name": "res4e_branch2a_relu", "trainable": true, "dtype": "float32", "activation": "relu"}, "inbound_nodes": [[["bn4e_branch2a", 0, 0, {}]]]}, {"name": "padding4e_branch2b", "class_name": "ZeroPadding2D", "config": {"name": "padding4e_branch2b", "trainable": true, "dtype": "float32", "padding": [[1, 1], [1, 1]], "data_format": "channels_last"}, "inbound_nodes": [[["res4e_branch2a_relu", 0, 0, {}]]]}, {"name": "res4e_branch2b", "class_name": "Conv2D", "config": {"name": "res4e_branch2b", "trainable": true, "dtype": "float32", "filters": 256, "kernel_size": [3, 3], "strides": [1, 1], "padding": "valid", "data_format": "channels_last", "dilation_rate": [1, 1], "activation": "linear", "use_bias": false, "kernel_initializer": {"class_name": "VarianceScaling", "config": {"scale": 2.0, "mode": "fan_in", "distribution": "normal", "seed": null}}, "bias_initializer": {"class_name": "Zeros", "config": {}}, "kernel_regularizer": null, "bias_regularizer": null, "activity_regularizer": null, "kernel_constraint": null, "bias_constraint": null}, "inbound_nodes": [[["padding4e_branch2b", 0, 0, {}]]]}, {"name": "bn4e_branch2b", "class_name": "BatchNormalization", "config": {"name": "bn4e_branch2b", "trainable": false, "dtype": "float32", "axis": 3, "momentum": 0.99, "epsilon": 1e-05, "center": true, "scale": true, "beta_initializer": {"class_name": "Zeros", "config": {}}, "gamma_initializer": {"class_name": "Ones", "config": {}}, "moving_mean_initializer": {"class_name": "Zeros", "config": {}}, "moving_variance_initializer": {"class_name": "Ones", "config": {}}, "beta_regularizer": null, "gamma_regularizer": null, "beta_constraint": null, "gamma_constraint": null, "freeze": true}, "inbound_nodes": [[["res4e_branch2b", 0, 0, {}]]]}, {"name": "res4e_branch2b_relu", "class_name": "Activation", "config": {"name": "res4e_branch2b_relu", "trainable": true, "dtype": "float32", "activation": "relu"}, "inbound_nodes": [[["bn4e_branch2b", 0, 0, {}]]]}, {"name": "res4e_branch2c", "class_name": "Conv2D", "config": {"name": "res4e_branch2c", "trainable": true, "dtype": "float32", "filters": 1024, "kernel_size": [1, 1], "strides": [1, 1], "padding": "valid", "data_format": "channels_last", "dilation_rate": [1, 1], "activation": "linear", "use_bias": false, "kernel_initializer": {"class_name": "VarianceScaling", "config": {"scale": 2.0, "mode": "fan_in", "distribution": "normal", "seed": null}}, "bias_initializer": {"class_name": "Zeros", "config": {}}, "kernel_regularizer": null, "bias_regularizer": null, "activity_regularizer": null, "kernel_constraint": null, "bias_constraint": null}, "inbound_nodes": [[["res4e_branch2b_relu", 0, 0, {}]]]}, {"name": "bn4e_branch2c", "class_name": "BatchNormalization", "config": {"name": "bn4e_branch2c", "trainable": false, "dtype": "float32", "axis": 3, "momentum": 0.99, "epsilon": 1e-05, "center": true, "scale": true, "beta_initializer": {"class_name": "Zeros", "config": {}}, "gamma_initializer": {"class_name": "Ones", "config": {}}, "moving_mean_initializer": {"class_name": "Zeros", "config": {}}, "moving_variance_initializer": {"class_name": "Ones", "config": {}}, "beta_regularizer": null, "gamma_regularizer": null, "beta_constraint": null, "gamma_constraint": null, "freeze": true}, "inbound_nodes": [[["res4e_branch2c", 0, 0, {}]]]}, {"name": "res4e", "class_name": "Add", "config": {"name": "res4e", "trainable": true, "dtype": "float32"}, "inbound_nodes": [[["bn4e_branch2c", 0, 0, {}], ["res4d_relu", 0, 0, {}]]]}, {"name": "res4e_relu", "class_name": "Activation", "config": {"name": "res4e_relu", "trainable": true, "dtype": "float32", "activation": "relu"}, "inbound_nodes": [[["res4e", 0, 0, {}]]]}, {"name": "res4f_branch2a", "class_name": "Conv2D", "config": {"name": "res4f_branch2a", "trainable": true, "dtype": "float32", "filters": 256, "kernel_size": [1, 1], "strides": [1, 1], "padding": "valid", "data_format": "channels_last", "dilation_rate": [1, 1], "activation": "linear", "use_bias": false, "kernel_initializer": {"class_name": "VarianceScaling", "config": {"scale": 2.0, "mode": "fan_in", "distribution": "normal", "seed": null}}, "bias_initializer": {"class_name": "Zeros", "config": {}}, "kernel_regularizer": null, "bias_regularizer": null, "activity_regularizer": null, "kernel_constraint": null, "bias_constraint": null}, "inbound_nodes": [[["res4e_relu", 0, 0, {}]]]}, {"name": "bn4f_branch2a", "class_name": "BatchNormalization", "config": {"name": "bn4f_branch2a", "trainable": false, "dtype": "float32", "axis": 3, "momentum": 0.99, "epsilon": 1e-05, "center": true, "scale": true, "beta_initializer": {"class_name": "Zeros", "config": {}}, "gamma_initializer": {"class_name": "Ones", "config": {}}, "moving_mean_initializer": {"class_name": "Zeros", "config": {}}, "moving_variance_initializer": {"class_name": "Ones", "config": {}}, "beta_regularizer": null, "gamma_regularizer": null, "beta_constraint": null, "gamma_constraint": null, "freeze": true}, "inbound_nodes": [[["res4f_branch2a", 0, 0, {}]]]}, {"name": "res4f_branch2a_relu", "class_name": "Activation", "config": {"name": "res4f_branch2a_relu", "trainable": true, "dtype": "float32", "activation": "relu"}, "inbound_nodes": [[["bn4f_branch2a", 0, 0, {}]]]}, {"name": "padding4f_branch2b", "class_name": "ZeroPadding2D", "config": {"name": "padding4f_branch2b", "trainable": true, "dtype": "float32", "padding": [[1, 1], [1, 1]], "data_format": "channels_last"}, "inbound_nodes": [[["res4f_branch2a_relu", 0, 0, {}]]]}, {"name": "res4f_branch2b", "class_name": "Conv2D", "config": {"name": "res4f_branch2b", "trainable": true, "dtype": "float32", "filters": 256, "kernel_size": [3, 3], "strides": [1, 1], "padding": "valid", "data_format": "channels_last", "dilation_rate": [1, 1], "activation": "linear", "use_bias": false, "kernel_initializer": {"class_name": "VarianceScaling", "config": {"scale": 2.0, "mode": "fan_in", "distribution": "normal", "seed": null}}, "bias_initializer": {"class_name": "Zeros", "config": {}}, "kernel_regularizer": null, "bias_regularizer": null, "activity_regularizer": null, "kernel_constraint": null, "bias_constraint": null}, "inbound_nodes": [[["padding4f_branch2b", 0, 0, {}]]]}, {"name": "bn4f_branch2b", "class_name": "BatchNormalization", "config": {"name": "bn4f_branch2b", "trainable": false, "dtype": "float32", "axis": 3, "momentum": 0.99, "epsilon": 1e-05, "center": true, "scale": true, "beta_initializer": {"class_name": "Zeros", "config": {}}, "gamma_initializer": {"class_name": "Ones", "config": {}}, "moving_mean_initializer": {"class_name": "Zeros", "config": {}}, "moving_variance_initializer": {"class_name": "Ones", "config": {}}, "beta_regularizer": null, "gamma_regularizer": null, "beta_constraint": null, "gamma_constraint": null, "freeze": true}, "inbound_nodes": [[["res4f_branch2b", 0, 0, {}]]]}, {"name": "res4f_branch2b_relu", "class_name": "Activation", "config": {"name": "res4f_branch2b_relu", "trainable": true, "dtype": "float32", "activation": "relu"}, "inbound_nodes": [[["bn4f_branch2b", 0, 0, {}]]]}, {"name": "res4f_branch2c", "class_name": "Conv2D", "config": {"name": "res4f_branch2c", "trainable": true, "dtype": "float32", "filters": 1024, "kernel_size": [1, 1], "strides": [1, 1], "padding": "valid", "data_format": "channels_last", "dilation_rate": [1, 1], "activation": "linear", "use_bias": false, "kernel_initializer": {"class_name": "VarianceScaling", "config": {"scale": 2.0, "mode": "fan_in", "distribution": "normal", "seed": null}}, "bias_initializer": {"class_name": "Zeros", "config": {}}, "kernel_regularizer": null, "bias_regularizer": null, "activity_regularizer": null, "kernel_constraint": null, "bias_constraint": null}, "inbound_nodes": [[["res4f_branch2b_relu", 0, 0, {}]]]}, {"name": "bn4f_branch2c", "class_name": "BatchNormalization", "config": {"name": "bn4f_branch2c", "trainable": false, "dtype": "float32", "axis": 3, "momentum": 0.99, "epsilon": 1e-05, "center": true, "scale": true, "beta_initializer": {"class_name": "Zeros", "config": {}}, "gamma_initializer": {"class_name": "Ones", "config": {}}, "moving_mean_initializer": {"class_name": "Zeros", "config": {}}, "moving_variance_initializer": {"class_name": "Ones", "config": {}}, "beta_regularizer": null, "gamma_regularizer": null, "beta_constraint": null, "gamma_constraint": null, "freeze": true}, "inbound_nodes": [[["res4f_branch2c", 0, 0, {}]]]}, {"name": "res4f", "class_name": "Add", "config": {"name": "res4f", "trainable": true, "dtype": "float32"}, "inbound_nodes": [[["bn4f_branch2c", 0, 0, {}], ["res4e_relu", 0, 0, {}]]]}, {"name": "res4f_relu", "class_name": "Activation", "config": {"name": "res4f_relu", "trainable": true, "dtype": "float32", "activation": "relu"}, "inbound_nodes": [[["res4f", 0, 0, {}]]]}, {"name": "res5a_branch2a", "class_name": "Conv2D", "config": {"name": "res5a_branch2a", "trainable": true, "dtype": "float32", "filters": 512, "kernel_size": [1, 1], "strides": [2, 2], "padding": "valid", "data_format": "channels_last", "dilation_rate": [1, 1], "activation": "linear", "use_bias": false, "kernel_initializer": {"class_name": "VarianceScaling", "config": {"scale": 2.0, "mode": "fan_in", "distribution": "normal", "seed": null}}, "bias_initializer": {"class_name": "Zeros", "config": {}}, "kernel_regularizer": null, "bias_regularizer": null, "activity_regularizer": null, "kernel_constraint": null, "bias_constraint": null}, "inbound_nodes": [[["res4f_relu", 0, 0, {}]]]}, {"name": "bn5a_branch2a", "class_name": "BatchNormalization", "config": {"name": "bn5a_branch2a", "trainable": false, "dtype": "float32", "axis": 3, "momentum": 0.99, "epsilon": 1e-05, "center": true, "scale": true, "beta_initializer": {"class_name": "Zeros", "config": {}}, "gamma_initializer": {"class_name": "Ones", "config": {}}, "moving_mean_initializer": {"class_name": "Zeros", "config": {}}, "moving_variance_initializer": {"class_name": "Ones", "config": {}}, "beta_regularizer": null, "gamma_regularizer": null, "beta_constraint": null, "gamma_constraint": null, "freeze": true}, "inbound_nodes": [[["res5a_branch2a", 0, 0, {}]]]}, {"name": "res5a_branch2a_relu", "class_name": "Activation", "config": {"name": "res5a_branch2a_relu", "trainable": true, "dtype": "float32", "activation": "relu"}, "inbound_nodes": [[["bn5a_branch2a", 0, 0, {}]]]}, {"name": "padding5a_branch2b", "class_name": "ZeroPadding2D", "config": {"name": "padding5a_branch2b", "trainable": true, "dtype": "float32", "padding": [[1, 1], [1, 1]], "data_format": "channels_last"}, "inbound_nodes": [[["res5a_branch2a_relu", 0, 0, {}]]]}, {"name": "res5a_branch2b", "class_name": "Conv2D", "config": {"name": "res5a_branch2b", "trainable": true, "dtype": "float32", "filters": 512, "kernel_size": [3, 3], "strides": [1, 1], "padding": "valid", "data_format": "channels_last", "dilation_rate": [1, 1], "activation": "linear", "use_bias": false, "kernel_initializer": {"class_name": "VarianceScaling", "config": {"scale": 2.0, "mode": "fan_in", "distribution": "normal", "seed": null}}, "bias_initializer": {"class_name": "Zeros", "config": {}}, "kernel_regularizer": null, "bias_regularizer": null, "activity_regularizer": null, "kernel_constraint": null, "bias_constraint": null}, "inbound_nodes": [[["padding5a_branch2b", 0, 0, {}]]]}, {"name": "bn5a_branch2b", "class_name": "BatchNormalization", "config": {"name": "bn5a_branch2b", "trainable": false, "dtype": "float32", "axis": 3, "momentum": 0.99, "epsilon": 1e-05, "center": true, "scale": true, "beta_initializer": {"class_name": "Zeros", "config": {}}, "gamma_initializer": {"class_name": "Ones", "config": {}}, "moving_mean_initializer": {"class_name": "Zeros", "config": {}}, "moving_variance_initializer": {"class_name": "Ones", "config": {}}, "beta_regularizer": null, "gamma_regularizer": null, "beta_constraint": null, "gamma_constraint": null, "freeze": true}, "inbound_nodes": [[["res5a_branch2b", 0, 0, {}]]]}, {"name": "res5a_branch2b_relu", "class_name": "Activation", "config": {"name": "res5a_branch2b_relu", "trainable": true, "dtype": "float32", "activation": "relu"}, "inbound_nodes": [[["bn5a_branch2b", 0, 0, {}]]]}, {"name": "res5a_branch2c", "class_name": "Conv2D", "config": {"name": "res5a_branch2c", "trainable": true, "dtype": "float32", "filters": 2048, "kernel_size": [1, 1], "strides": [1, 1], "padding": "valid", "data_format": "channels_last", "dilation_rate": [1, 1], "activation": "linear", "use_bias": false, "kernel_initializer": {"class_name": "VarianceScaling", "config": {"scale": 2.0, "mode": "fan_in", "distribution": "normal", "seed": null}}, "bias_initializer": {"class_name": "Zeros", "config": {}}, "kernel_regularizer": null, "bias_regularizer": null, "activity_regularizer": null, "kernel_constraint": null, "bias_constraint": null}, "inbound_nodes": [[["res5a_branch2b_relu", 0, 0, {}]]]}, {"name": "res5a_branch1", "class_name": "Conv2D", "config": {"name": "res5a_branch1", "trainable": true, "dtype": "float32", "filters": 2048, "kernel_size": [1, 1], "strides": [2, 2], "padding": "valid", "data_format": "channels_last", "dilation_rate": [1, 1], "activation": "linear", "use_bias": false, "kernel_initializer": {"class_name": "VarianceScaling", "config": {"scale": 2.0, "mode": "fan_in", "distribution": "normal", "seed": null}}, "bias_initializer": {"class_name": "Zeros", "config": {}}, "kernel_regularizer": null, "bias_regularizer": null, "activity_regularizer": null, "kernel_constraint": null, "bias_constraint": null}, "inbound_nodes": [[["res4f_relu", 0, 0, {}]]]}, {"name": "bn5a_branch2c", "class_name": "BatchNormalization", "config": {"name": "bn5a_branch2c", "trainable": false, "dtype": "float32", "axis": 3, "momentum": 0.99, "epsilon": 1e-05, "center": true, "scale": true, "beta_initializer": {"class_name": "Zeros", "config": {}}, "gamma_initializer": {"class_name": "Ones", "config": {}}, "moving_mean_initializer": {"class_name": "Zeros", "config": {}}, "moving_variance_initializer": {"class_name": "Ones", "config": {}}, "beta_regularizer": null, "gamma_regularizer": null, "beta_constraint": null, "gamma_constraint": null, "freeze": true}, "inbound_nodes": [[["res5a_branch2c", 0, 0, {}]]]}, {"name": "bn5a_branch1", "class_name": "BatchNormalization", "config": {"name": "bn5a_branch1", "trainable": false, "dtype": "float32", "axis": 3, "momentum": 0.99, "epsilon": 1e-05, "center": true, "scale": true, "beta_initializer": {"class_name": "Zeros", "config": {}}, "gamma_initializer": {"class_name": "Ones", "config": {}}, "moving_mean_initializer": {"class_name": "Zeros", "config": {}}, "moving_variance_initializer": {"class_name": "Ones", "config": {}}, "beta_regularizer": null, "gamma_regularizer": null, "beta_constraint": null, "gamma_constraint": null, "freeze": true}, "inbound_nodes": [[["res5a_branch1", 0, 0, {}]]]}, {"name": "res5a", "class_name": "Add", "config": {"name": "res5a", "trainable": true, "dtype": "float32"}, "inbound_nodes": [[["bn5a_branch2c", 0, 0, {}], ["bn5a_branch1", 0, 0, {}]]]}, {"name": "res5a_relu", "class_name": "Activation", "config": {"name": "res5a_relu", "trainable": true, "dtype": "float32", "activation": "relu"}, "inbound_nodes": [[["res5a", 0, 0, {}]]]}, {"name": "res5b_branch2a", "class_name": "Conv2D", "config": {"name": "res5b_branch2a", "trainable": true, "dtype": "float32", "filters": 512, "kernel_size": [1, 1], "strides": [1, 1], "padding": "valid", "data_format": "channels_last", "dilation_rate": [1, 1], "activation": "linear", "use_bias": false, "kernel_initializer": {"class_name": "VarianceScaling", "config": {"scale": 2.0, "mode": "fan_in", "distribution": "normal", "seed": null}}, "bias_initializer": {"class_name": "Zeros", "config": {}}, "kernel_regularizer": null, "bias_regularizer": null, "activity_regularizer": null, "kernel_constraint": null, "bias_constraint": null}, "inbound_nodes": [[["res5a_relu", 0, 0, {}]]]}, {"name": "bn5b_branch2a", "class_name": "BatchNormalization", "config": {"name": "bn5b_branch2a", "trainable": false, "dtype": "float32", "axis": 3, "momentum": 0.99, "epsilon": 1e-05, "center": true, "scale": true, "beta_initializer": {"class_name": "Zeros", "config": {}}, "gamma_initializer": {"class_name": "Ones", "config": {}}, "moving_mean_initializer": {"class_name": "Zeros", "config": {}}, "moving_variance_initializer": {"class_name": "Ones", "config": {}}, "beta_regularizer": null, "gamma_regularizer": null, "beta_constraint": null, "gamma_constraint": null, "freeze": true}, "inbound_nodes": [[["res5b_branch2a", 0, 0, {}]]]}, {"name": "res5b_branch2a_relu", "class_name": "Activation", "config": {"name": "res5b_branch2a_relu", "trainable": true, "dtype": "float32", "activation": "relu"}, "inbound_nodes": [[["bn5b_branch2a", 0, 0, {}]]]}, {"name": "padding5b_branch2b", "class_name": "ZeroPadding2D", "config": {"name": "padding5b_branch2b", "trainable": true, "dtype": "float32", "padding": [[1, 1], [1, 1]], "data_format": "channels_last"}, "inbound_nodes": [[["res5b_branch2a_relu", 0, 0, {}]]]}, {"name": "res5b_branch2b", "class_name": "Conv2D", "config": {"name": "res5b_branch2b", "trainable": true, "dtype": "float32", "filters": 512, "kernel_size": [3, 3], "strides": [1, 1], "padding": "valid", "data_format": "channels_last", "dilation_rate": [1, 1], "activation": "linear", "use_bias": false, "kernel_initializer": {"class_name": "VarianceScaling", "config": {"scale": 2.0, "mode": "fan_in", "distribution": "normal", "seed": null}}, "bias_initializer": {"class_name": "Zeros", "config": {}}, "kernel_regularizer": null, "bias_regularizer": null, "activity_regularizer": null, "kernel_constraint": null, "bias_constraint": null}, "inbound_nodes": [[["padding5b_branch2b", 0, 0, {}]]]}, {"name": "bn5b_branch2b", "class_name": "BatchNormalization", "config": {"name": "bn5b_branch2b", "trainable": false, "dtype": "float32", "axis": 3, "momentum": 0.99, "epsilon": 1e-05, "center": true, "scale": true, "beta_initializer": {"class_name": "Zeros", "config": {}}, "gamma_initializer": {"class_name": "Ones", "config": {}}, "moving_mean_initializer": {"class_name": "Zeros", "config": {}}, "moving_variance_initializer": {"class_name": "Ones", "config": {}}, "beta_regularizer": null, "gamma_regularizer": null, "beta_constraint": null, "gamma_constraint": null, "freeze": true}, "inbound_nodes": [[["res5b_branch2b", 0, 0, {}]]]}, {"name": "res5b_branch2b_relu", "class_name": "Activation", "config": {"name": "res5b_branch2b_relu", "trainable": true, "dtype": "float32", "activation": "relu"}, "inbound_nodes": [[["bn5b_branch2b", 0, 0, {}]]]}, {"name": "res5b_branch2c", "class_name": "Conv2D", "config": {"name": "res5b_branch2c", "trainable": true, "dtype": "float32", "filters": 2048, "kernel_size": [1, 1], "strides": [1, 1], "padding": "valid", "data_format": "channels_last", "dilation_rate": [1, 1], "activation": "linear", "use_bias": false, "kernel_initializer": {"class_name": "VarianceScaling", "config": {"scale": 2.0, "mode": "fan_in", "distribution": "normal", "seed": null}}, "bias_initializer": {"class_name": "Zeros", "config": {}}, "kernel_regularizer": null, "bias_regularizer": null, "activity_regularizer": null, "kernel_constraint": null, "bias_constraint": null}, "inbound_nodes": [[["res5b_branch2b_relu", 0, 0, {}]]]}, {"name": "bn5b_branch2c", "class_name": "BatchNormalization", "config": {"name": "bn5b_branch2c", "trainable": false, "dtype": "float32", "axis": 3, "momentum": 0.99, "epsilon": 1e-05, "center": true, "scale": true, "beta_initializer": {"class_name": "Zeros", "config": {}}, "gamma_initializer": {"class_name": "Ones", "config": {}}, "moving_mean_initializer": {"class_name": "Zeros", "config": {}}, "moving_variance_initializer": {"class_name": "Ones", "config": {}}, "beta_regularizer": null, "gamma_regularizer": null, "beta_constraint": null, "gamma_constraint": null, "freeze": true}, "inbound_nodes": [[["res5b_branch2c", 0, 0, {}]]]}, {"name": "res5b", "class_name": "Add", "config": {"name": "res5b", "trainable": true, "dtype": "float32"}, "inbound_nodes": [[["bn5b_branch2c", 0, 0, {}], ["res5a_relu", 0, 0, {}]]]}, {"name": "res5b_relu", "class_name": "Activation", "config": {"name": "res5b_relu", "trainable": true, "dtype": "float32", "activation": "relu"}, "inbound_nodes": [[["res5b", 0, 0, {}]]]}, {"name": "res5c_branch2a", "class_name": "Conv2D", "config": {"name": "res5c_branch2a", "trainable": true, "dtype": "float32", "filters": 512, "kernel_size": [1, 1], "strides": [1, 1], "padding": "valid", "data_format": "channels_last", "dilation_rate": [1, 1], "activation": "linear", "use_bias": false, "kernel_initializer": {"class_name": "VarianceScaling", "config": {"scale": 2.0, "mode": "fan_in", "distribution": "normal", "seed": null}}, "bias_initializer": {"class_name": "Zeros", "config": {}}, "kernel_regularizer": null, "bias_regularizer": null, "activity_regularizer": null, "kernel_constraint": null, "bias_constraint": null}, "inbound_nodes": [[["res5b_relu", 0, 0, {}]]]}, {"name": "bn5c_branch2a", "class_name": "BatchNormalization", "config": {"name": "bn5c_branch2a", "trainable": false, "dtype": "float32", "axis": 3, "momentum": 0.99, "epsilon": 1e-05, "center": true, "scale": true, "beta_initializer": {"class_name": "Zeros", "config": {}}, "gamma_initializer": {"class_name": "Ones", "config": {}}, "moving_mean_initializer": {"class_name": "Zeros", "config": {}}, "moving_variance_initializer": {"class_name": "Ones", "config": {}}, "beta_regularizer": null, "gamma_regularizer": null, "beta_constraint": null, "gamma_constraint": null, "freeze": true}, "inbound_nodes": [[["res5c_branch2a", 0, 0, {}]]]}, {"name": "res5c_branch2a_relu", "class_name": "Activation", "config": {"name": "res5c_branch2a_relu", "trainable": true, "dtype": "float32", "activation": "relu"}, "inbound_nodes": [[["bn5c_branch2a", 0, 0, {}]]]}, {"name": "padding5c_branch2b", "class_name": "ZeroPadding2D", "config": {"name": "padding5c_branch2b", "trainable": true, "dtype": "float32", "padding": [[1, 1], [1, 1]], "data_format": "channels_last"}, "inbound_nodes": [[["res5c_branch2a_relu", 0, 0, {}]]]}, {"name": "res5c_branch2b", "class_name": "Conv2D", "config": {"name": "res5c_branch2b", "trainable": true, "dtype": "float32", "filters": 512, "kernel_size": [3, 3], "strides": [1, 1], "padding": "valid", "data_format": "channels_last", "dilation_rate": [1, 1], "activation": "linear", "use_bias": false, "kernel_initializer": {"class_name": "VarianceScaling", "config": {"scale": 2.0, "mode": "fan_in", "distribution": "normal", "seed": null}}, "bias_initializer": {"class_name": "Zeros", "config": {}}, "kernel_regularizer": null, "bias_regularizer": null, "activity_regularizer": null, "kernel_constraint": null, "bias_constraint": null}, "inbound_nodes": [[["padding5c_branch2b", 0, 0, {}]]]}, {"name": "bn5c_branch2b", "class_name": "BatchNormalization", "config": {"name": "bn5c_branch2b", "trainable": false, "dtype": "float32", "axis": 3, "momentum": 0.99, "epsilon": 1e-05, "center": true, "scale": true, "beta_initializer": {"class_name": "Zeros", "config": {}}, "gamma_initializer": {"class_name": "Ones", "config": {}}, "moving_mean_initializer": {"class_name": "Zeros", "config": {}}, "moving_variance_initializer": {"class_name": "Ones", "config": {}}, "beta_regularizer": null, "gamma_regularizer": null, "beta_constraint": null, "gamma_constraint": null, "freeze": true}, "inbound_nodes": [[["res5c_branch2b", 0, 0, {}]]]}, {"name": "res5c_branch2b_relu", "class_name": "Activation", "config": {"name": "res5c_branch2b_relu", "trainable": true, "dtype": "float32", "activation": "relu"}, "inbound_nodes": [[["bn5c_branch2b", 0, 0, {}]]]}, {"name": "res5c_branch2c", "class_name": "Conv2D", "config": {"name": "res5c_branch2c", "trainable": true, "dtype": "float32", "filters": 2048, "kernel_size": [1, 1], "strides": [1, 1], "padding": "valid", "data_format": "channels_last", "dilation_rate": [1, 1], "activation": "linear", "use_bias": false, "kernel_initializer": {"class_name": "VarianceScaling", "config": {"scale": 2.0, "mode": "fan_in", "distribution": "normal", "seed": null}}, "bias_initializer": {"class_name": "Zeros", "config": {}}, "kernel_regularizer": null, "bias_regularizer": null, "activity_regularizer": null, "kernel_constraint": null, "bias_constraint": null}, "inbound_nodes": [[["res5c_branch2b_relu", 0, 0, {}]]]}, {"name": "bn5c_branch2c", "class_name": "BatchNormalization", "config": {"name": "bn5c_branch2c", "trainable": false, "dtype": "float32", "axis": 3, "momentum": 0.99, "epsilon": 1e-05, "center": true, "scale": true, "beta_initializer": {"class_name": "Zeros", "config": {}}, "gamma_initializer": {"class_name": "Ones", "config": {}}, "moving_mean_initializer": {"class_name": "Zeros", "config": {}}, "moving_variance_initializer": {"class_name": "Ones", "config": {}}, "beta_regularizer": null, "gamma_regularizer": null, "beta_constraint": null, "gamma_constraint": null, "freeze": true}, "inbound_nodes": [[["res5c_branch2c", 0, 0, {}]]]}, {"name": "res5c", "class_name": "Add", "config": {"name": "res5c", "trainable": true, "dtype": "float32"}, "inbound_nodes": [[["bn5c_branch2c", 0, 0, {}], ["res5b_relu", 0, 0, {}]]]}, {"name": "res5c_relu", "class_name": "Activation", "config": {"name": "res5c_relu", "trainable": true, "dtype": "float32", "activation": "relu"}, "inbound_nodes": [[["res5c", 0, 0, {}]]]}, {"name": "C5_reduced", "class_name": "Conv2D", "config": {"name": "C5_reduced", "trainable": true, "dtype": "float32", "filters": 256, "kernel_size": [1, 1], "strides": [1, 1], "padding": "same", "data_format": "channels_last", "dilation_rate": [1, 1], "activation": "linear", "use_bias": true, "kernel_initializer": {"class_name": "VarianceScaling", "config": {"scale": 1.0, "mode": "fan_avg", "distribution": "uniform", "seed": null}}, "bias_initializer": {"class_name": "Zeros", "config": {}}, "kernel_regularizer": null, "bias_regularizer": null, "activity_regularizer": null, "kernel_constraint": null, "bias_constraint": null}, "inbound_nodes": [[["res5c_relu", 0, 0, {}]]]}, {"name": "P5_upsampled", "class_name": "UpsampleLike", "config": {"name": "P5_upsampled", "trainable": true, "dtype": "float32"}, "inbound_nodes": [[["C5_reduced", 0, 0, {}], ["res4f_relu", 0, 0, {}]]]}, {"name": "C4_reduced", "class_name": "Conv2D", "config": {"name": "C4_reduced", "trainable": true, "dtype": "float32", "filters": 256, "kernel_size": [1, 1], "strides": [1, 1], "padding": "same", "data_format": "channels_last", "dilation_rate": [1, 1], "activation": "linear", "use_bias": true, "kernel_initializer": {"class_name": "VarianceScaling", "config": {"scale": 1.0, "mode": "fan_avg", "distribution": "uniform", "seed": null}}, "bias_initializer": {"class_name": "Zeros", "config": {}}, "kernel_regularizer": null, "bias_regularizer": null, "activity_regularizer": null, "kernel_constraint": null, "bias_constraint": null}, "inbound_nodes": [[["res4f_relu", 0, 0, {}]]]}, {"name": "P4_merged", "class_name": "Add", "config": {"name": "P4_merged", "trainable": true, "dtype": "float32"}, "inbound_nodes": [[["P5_upsampled", 0, 0, {}], ["C4_reduced", 0, 0, {}]]]}, {"name": "P4_upsampled", "class_name": "UpsampleLike", "config": {"name": "P4_upsampled", "trainable": true, "dtype": "float32"}, "inbound_nodes": [[["P4_merged", 0, 0, {}], ["res3d_relu", 0, 0, {}]]]}, {"name": "C3_reduced", "class_name": "Conv2D", "config": {"name": "C3_reduced", "trainable": true, "dtype": "float32", "filters": 256, "kernel_size": [1, 1], "strides": [1, 1], "padding": "same", "data_format": "channels_last", "dilation_rate": [1, 1], "activation": "linear", "use_bias": true, "kernel_initializer": {"class_name": "VarianceScaling", "config": {"scale": 1.0, "mode": "fan_avg", "distribution": "uniform", "seed": null}}, "bias_initializer": {"class_name": "Zeros", "config": {}}, "kernel_regularizer": null, "bias_regularizer": null, "activity_regularizer": null, "kernel_constraint": null, "bias_constraint": null}, "inbound_nodes": [[["res3d_relu", 0, 0, {}]]]}, {"name": "P6", "class_name": "Conv2D", "config": {"name": "P6", "trainable": true, "dtype": "float32", "filters": 256, "kernel_size": [3, 3], "strides": [2, 2], "padding": "same", "data_format": "channels_last", "dilation_rate": [1, 1], "activation": "linear", "use_bias": true, "kernel_initializer": {"class_name": "VarianceScaling", "config": {"scale": 1.0, "mode": "fan_avg", "distribution": "uniform", "seed": null}}, "bias_initializer": {"class_name": "Zeros", "config": {}}, "kernel_regularizer": null, "bias_regularizer": null, "activity_regularizer": null, "kernel_constraint": null, "bias_constraint": null}, "inbound_nodes": [[["res5c_relu", 0, 0, {}]]]}, {"name": "P3_merged", "class_name": "Add", "config": {"name": "P3_merged", "trainable": true, "dtype": "float32"}, "inbound_nodes": [[["P4_upsampled", 0, 0, {}], ["C3_reduced", 0, 0, {}]]]}, {"name": "C6_relu", "class_name": "Activation", "config": {"name": "C6_relu", "trainable": true, "dtype": "float32", "activation": "relu"}, "inbound_nodes": [[["P6", 0, 0, {}]]]}, {"name": "P3", "class_name": "Conv2D", "config": {"name": "P3", "trainable": true, "dtype": "float32", "filters": 256, "kernel_size": [3, 3], "strides": [1, 1], "padding": "same", "data_format": "channels_last", "dilation_rate": [1, 1], "activation": "linear", "use_bias": true, "kernel_initializer": {"class_name": "VarianceScaling", "config": {"scale": 1.0, "mode": "fan_avg", "distribution": "uniform", "seed": null}}, "bias_initializer": {"class_name": "Zeros", "config": {}}, "kernel_regularizer": null, "bias_regularizer": null, "activity_regularizer": null, "kernel_constraint": null, "bias_constraint": null}, "inbound_nodes": [[["P3_merged", 0, 0, {}]]]}, {"name": "P4", "class_name": "Conv2D", "config": {"name": "P4", "trainable": true, "dtype": "float32", "filters": 256, "kernel_size": [3, 3], "strides": [1, 1], "padding": "same", "data_format": "channels_last", "dilation_rate": [1, 1], "activation": "linear", "use_bias": true, "kernel_initializer": {"class_name": "VarianceScaling", "config": {"scale": 1.0, "mode": "fan_avg", "distribution": "uniform", "seed": null}}, "bias_initializer": {"class_name": "Zeros", "config": {}}, "kernel_regularizer": null, "bias_regularizer": null, "activity_regularizer": null, "kernel_constraint": null, "bias_constraint": null}, "inbound_nodes": [[["P4_merged", 0, 0, {}]]]}, {"name": "P5", "class_name": "Conv2D", "config": {"name": "P5", "trainable": true, "dtype": "float32", "filters": 256, "kernel_size": [3, 3], "strides": [1, 1], "padding": "same", "data_format": "channels_last", "dilation_rate": [1, 1], "activation": "linear", "use_bias": true, "kernel_initializer": {"class_name": "VarianceScaling", "config": {"scale": 1.0, "mode": "fan_avg", "distribution": "uniform", "seed": null}}, "bias_initializer": {"class_name": "Zeros", "config": {}}, "kernel_regularizer": null, "bias_regularizer": null, "activity_regularizer": null, "kernel_constraint": null, "bias_constraint": null}, "inbound_nodes": [[["C5_reduced", 0, 0, {}]]]}, {"name": "P7", "class_name": "Conv2D", "config": {"name": "P7", "trainable": true, "dtype": "float32", "filters": 256, "kernel_size": [3, 3], "strides": [2, 2], "padding": "same", "data_format": "channels_last", "dilation_rate": [1, 1], "activation": "linear", "use_bias": true, "kernel_initializer": {"class_name": "VarianceScaling", "config": {"scale": 1.0, "mode": "fan_avg", "distribution": "uniform", "seed": null}}, "bias_initializer": {"class_name": "Zeros", "config": {}}, "kernel_regularizer": null, "bias_regularizer": null, "activity_regularizer": null, "kernel_constraint": null, "bias_constraint": null}, "inbound_nodes": [[["C6_relu", 0, 0, {}]]]}, {"name": "regression_submodel", "class_name": "Model", "config": {"name": "regression_submodel", "layers": [{"name": "input_2", "class_name": "InputLayer", "config": {"batch_input_shape": [null, null, null, 256], "dtype": "float32", "sparse": false, "name": "input_2"}, "inbound_nodes": []}, {"name": "pyramid_regression_0", "class_name": "Conv2D", "config": {"name": "pyramid_regression_0", "trainable": true, "dtype": "float32", "filters": 256, "kernel_size": [3, 3], "strides": [1, 1], "padding": "same", "data_format": "channels_last", "dilation_rate": [1, 1], "activation": "relu", "use_bias": true, "kernel_initializer": {"class_name": "RandomNormal", "config": {"mean": 0.0, "stddev": 0.01, "seed": null}}, "bias_initializer": {"class_name": "Zeros", "config": {}}, "kernel_regularizer": null, "bias_regularizer": null, "activity_regularizer": null, "kernel_constraint": null, "bias_constraint": null}, "inbound_nodes": [[["input_2", 0, 0, {}]]]}, {"name": "pyramid_regression_1", "class_name": "Conv2D", "config": {"name": "pyramid_regression_1", "trainable": true, "dtype": "float32", "filters": 256, "kernel_size": [3, 3], "strides": [1, 1], "padding": "same", "data_format": "channels_last", "dilation_rate": [1, 1], "activation": "relu", "use_bias": true, "kernel_initializer": {"class_name": "RandomNormal", "config": {"mean": 0.0, "stddev": 0.01, "seed": null}}, "bias_initializer": {"class_name": "Zeros", "config": {}}, "kernel_regularizer": null, "bias_regularizer": null, "activity_regularizer": null, "kernel_constraint": null, "bias_constraint": null}, "inbound_nodes": [[["pyramid_regression_0", 0, 0, {}]]]}, {"name": "pyramid_regression_2", "class_name": "Conv2D", "config": {"name": "pyramid_regression_2", "trainable": true, "dtype": "float32", "filters": 256, "kernel_size": [3, 3], "strides": [1, 1], "padding": "same", "data_format": "channels_last", "dilation_rate": [1, 1], "activation": "relu", "use_bias": true, "kernel_initializer": {"class_name": "RandomNormal", "config": {"mean": 0.0, "stddev": 0.01, "seed": null}}, "bias_initializer": {"class_name": "Zeros", "config": {}}, "kernel_regularizer": null, "bias_regularizer": null, "activity_regularizer": null, "kernel_constraint": null, "bias_constraint": null}, "inbound_nodes": [[["pyramid_regression_1", 0, 0, {}]]]}, {"name": "pyramid_regression_3", "class_name": "Conv2D", "config": {"name": "pyramid_regression_3", "trainable": true, "dtype": "float32", "filters": 256, "kernel_size": [3, 3], "strides": [1, 1], "padding": "same", "data_format": "channels_last", "dilation_rate": [1, 1], "activation": "relu", "use_bias": true, "kernel_initializer": {"class_name": "RandomNormal", "config": {"mean": 0.0, "stddev": 0.01, "seed": null}}, "bias_initializer": {"class_name": "Zeros", "config": {}}, "kernel_regularizer": null, "bias_regularizer": null, "activity_regularizer": null, "kernel_constraint": null, "bias_constraint": null}, "inbound_nodes": [[["pyramid_regression_2", 0, 0, {}]]]}, {"name": "pyramid_regression", "class_name": "Conv2D", "config": {"name": "pyramid_regression", "trainable": true, "dtype": "float32", "filters": 36, "kernel_size": [3, 3], "strides": [1, 1], "padding": "same", "data_format": "channels_last", "dilation_rate": [1, 1], "activation": "linear", "use_bias": true, "kernel_initializer": {"class_name": "RandomNormal", "config": {"mean": 0.0, "stddev": 0.01, "seed": null}}, "bias_initializer": {"class_name": "Zeros", "config": {}}, "kernel_regularizer": null, "bias_regularizer": null, "activity_regularizer": null, "kernel_constraint": null, "bias_constraint": null}, "inbound_nodes": [[["pyramid_regression_3", 0, 0, {}]]]}, {"name": "pyramid_regression_reshape", "class_name": "Reshape", "config": {"name": "pyramid_regression_reshape", "trainable": true, "dtype": "float32", "target_shape": [-1, 4]}, "inbound_nodes": [[["pyramid_regression", 0, 0, {}]]]}], "input_layers": [["input_2", 0, 0]], "output_layers": [["pyramid_regression_reshape", 0, 0]]}, "inbound_nodes": [[["P3", 0, 0, {}]], [["P4", 0, 0, {}]], [["P5", 0, 0, {}]], [["P6", 0, 0, {}]], [["P7", 0, 0, {}]]]}, {"name": "classification_submodel", "class_name": "Model", "config": {"name": "classification_submodel", "layers": [{"name": "input_3", "class_name": "InputLayer", "config": {"batch_input_shape": [null, null, null, 256], "dtype": "float32", "sparse": false, "name": "input_3"}, "inbound_nodes": []}, {"name": "pyramid_classification_0", "class_name": "Conv2D", "config": {"name": "pyramid_classification_0", "trainable": true, "dtype": "float32", "filters": 256, "kernel_size": [3, 3], "strides": [1, 1], "padding": "same", "data_format": "channels_last", "dilation_rate": [1, 1], "activation": "relu", "use_bias": true, "kernel_initializer": {"class_name": "RandomNormal", "config": {"mean": 0.0, "stddev": 0.01, "seed": null}}, "bias_initializer": {"class_name": "Zeros", "config": {}}, "kernel_regularizer": null, "bias_regularizer": null, "activity_regularizer": null, "kernel_constraint": null, "bias_constraint": null}, "inbound_nodes": [[["input_3", 0, 0, {}]]]}, {"name": "pyramid_classification_1", "class_name": "Conv2D", "config": {"name": "pyramid_classification_1", "trainable": true, "dtype": "float32", "filters": 256, "kernel_size": [3, 3], "strides": [1, 1], "padding": "same", "data_format": "channels_last", "dilation_rate": [1, 1], "activation": "relu", "use_bias": true, "kernel_initializer": {"class_name": "RandomNormal", "config": {"mean": 0.0, "stddev": 0.01, "seed": null}}, "bias_initializer": {"class_name": "Zeros", "config": {}}, "kernel_regularizer": null, "bias_regularizer": null, "activity_regularizer": null, "kernel_constraint": null, "bias_constraint": null}, "inbound_nodes": [[["pyramid_classification_0", 0, 0, {}]]]}, {"name": "pyramid_classification_2", "class_name": "Conv2D", "config": {"name": "pyramid_classification_2", "trainable": true, "dtype": "float32", "filters": 256, "kernel_size": [3, 3], "strides": [1, 1], "padding": "same", "data_format": "channels_last", "dilation_rate": [1, 1], "activation": "relu", "use_bias": true, "kernel_initializer": {"class_name": "RandomNormal", "config": {"mean": 0.0, "stddev": 0.01, "seed": null}}, "bias_initializer": {"class_name": "Zeros", "config": {}}, "kernel_regularizer": null, "bias_regularizer": null, "activity_regularizer": null, "kernel_constraint": null, "bias_constraint": null}, "inbound_nodes": [[["pyramid_classification_1", 0, 0, {}]]]}, {"name": "pyramid_classification_3", "class_name": "Conv2D", "config": {"name": "pyramid_classification_3", "trainable": true, "dtype": "float32", "filters": 256, "kernel_size": [3, 3], "strides": [1, 1], "padding": "same", "data_format": "channels_last", "dilation_rate": [1, 1], "activation": "relu", "use_bias": true, "kernel_initializer": {"class_name": "RandomNormal", "config": {"mean": 0.0, "stddev": 0.01, "seed": null}}, "bias_initializer": {"class_name": "Zeros", "config": {}}, "kernel_regularizer": null, "bias_regularizer": null, "activity_regularizer": null, "kernel_constraint": null, "bias_constraint": null}, "inbound_nodes": [[["pyramid_classification_2", 0, 0, {}]]]}, {"name": "pyramid_classification", "class_name": "Conv2D", "config": {"name": "pyramid_classification", "trainable": true, "dtype": "float32", "filters": 9, "kernel_size": [3, 3], "strides": [1, 1], "padding": "same", "data_format": "channels_last", "dilation_rate": [1, 1], "activation": "linear", "use_bias": true, "kernel_initializer": {"class_name": "RandomNormal", "config": {"mean": 0.0, "stddev": 0.01, "seed": null}}, "bias_initializer": {"class_name": "PriorProbability", "config": {"probability": 0.01}}, "kernel_regularizer": null, "bias_regularizer": null, "activity_regularizer": null, "kernel_constraint": null, "bias_constraint": null}, "inbound_nodes": [[["pyramid_classification_3", 0, 0, {}]]]}, {"name": "pyramid_classification_reshape", "class_name": "Reshape", "config": {"name": "pyramid_classification_reshape", "trainable": true, "dtype": "float32", "target_shape": [-1, 1]}, "inbound_nodes": [[["pyramid_classification", 0, 0, {}]]]}, {"name": "pyramid_classification_sigmoid", "class_name": "Activation", "config": {"name": "pyramid_classification_sigmoid", "trainable": true, "dtype": "float32", "activation": "sigmoid"}, "inbound_nodes": [[["pyramid_classification_reshape", 0, 0, {}]]]}], "input_layers": [["input_3", 0, 0]], "output_layers": [["pyramid_classification_sigmoid", 0, 0]]}, "inbound_nodes": [[["P3", 0, 0, {}]], [["P4", 0, 0, {}]], [["P5", 0, 0, {}]], [["P6", 0, 0, {}]], [["P7", 0, 0, {}]]]}, {"name": "regression", "class_name": "Concatenate", "config": {"name": "regression", "trainable": true, "dtype": "float32", "axis": 1}, "inbound_nodes": [[["regression_submodel", 1, 0, {}], ["regression_submodel", 2, 0, {}], ["regression_submodel", 3, 0, {}], ["regression_submodel", 4, 0, {}], ["regression_submodel", 5, 0, {}]]]}, {"name": "classification", "class_name": "Concatenate", "config": {"name": "classification", "trainable": true, "dtype": "float32", "axis": 1}, "inbound_nodes": [[["classification_submodel", 1, 0, {}], ["classification_submodel", 2, 0, {}], ["classification_submodel", 3, 0, {}], ["classification_submodel", 4, 0, {}], ["classification_submodel", 5, 0, {}]]]}], "input_layers": [["input_1", 0, 0]], "output_layers": [["regression", 0, 0], ["classification", 0, 0]]}}}, "weightsManifest": [{"paths": ["group1-shard1of9.bin", "group1-shard2of9.bin", "group1-shard3of9.bin", "group1-shard4of9.bin", "group1-shard5of9.bin", "group1-shard6of9.bin", "group1-shard7of9.bin", "group1-shard8of9.bin", "group1-shard9of9.bin"], "weights": [{"name": "C3_reduced/kernel", "shape": [1, 1, 512, 256], "dtype": "float32", "quantization": {"dtype": "uint8", "min": -0.08878347359451594, "scale": 0.0006936208874571558, "original_dtype": "float32"}}, {"name": "C3_reduced/bias", "shape": [256], "dtype": "float32", "quantization": {"dtype": "uint8", "min": -9.81709491872393e-05, "scale": 7.437193120245402e-07, "original_dtype": "float32"}}, {"name": "C4_reduced/kernel", "shape": [1, 1, 1024, 256], "dtype": "float32", "quantization": {"dtype": "uint8", "min": -0.0688057544184666, "scale": 0.0005375449563942704, "original_dtype": "float32"}}, {"name": "C4_reduced/bias", "shape": [256], "dtype": "float32", "quantization": {"dtype": "uint8", "min": -0.00011031768186583969, "scale": 7.879834418988549e-07, "original_dtype": "float32"}}, {"name": "C5_reduced/kernel", "shape": [1, 1, 2048, 256], "dtype": "float32", "quantization": {"dtype": "uint8", "min": -0.05131513438388413, "scale": 0.00040405617625105614, "original_dtype": "float32"}}, {"name": "C5_reduced/bias", "shape": [256], "dtype": "float32", "quantization": {"dtype": "uint8", "min": -0.00011721625827097643, "scale": 8.254666075420876e-07, "original_dtype": "float32"}}, {"name": "P3/kernel", "shape": [3, 3, 256, 256], "dtype": "float32", "quantization": {"dtype": "uint8", "min": -0.03641689150941138, "scale": 0.0002845069649172764, "original_dtype": "float32"}}, {"name": "P3/bias", "shape": [256], "dtype": "float32", "quantization": {"dtype": "uint8", "min": -6.696773834490016e-05, "scale": 5.773080891801738e-07, "original_dtype": "float32"}}, {"name": "P4/kernel", "shape": [3, 3, 256, 256], "dtype": "float32", "quantization": {"dtype": "uint8", "min": -0.036311888227275775, "scale": 0.000283686626775592, "original_dtype": "float32"}}, {"name": "P4/bias", "shape": [256], "dtype": "float32", "quantization": {"dtype": "uint8", "min": -2.6534807736478635e-05, "scale": 1.9655413138132322e-07, "original_dtype": "float32"}}, {"name": "P5/kernel", "shape": [3, 3, 256, 256], "dtype": "float32", "quantization": {"dtype": "uint8", "min": -0.03686855166566138, "scale": 0.00028803555988797953, "original_dtype": "float32"}}, {"name": "P5/bias", "shape": [256], "dtype": "float32", "quantization": {"dtype": "uint8", "min": -1.5276770646582292e-05, "scale": 1.1661656982123888e-07, "original_dtype": "float32"}}, {"name": "P6/kernel", "shape": [3, 3, 2048, 256], "dtype": "float32", "quantization": {"dtype": "uint8", "min": -0.017991756932700383, "scale": 0.00014166737742283766, "original_dtype": "float32"}}, {"name": "P6/bias", "shape": [256], "dtype": "float32", "quantization": {"dtype": "uint8", "min": -0.00012431134530868125, "scale": 9.346717692382049e-07, "original_dtype": "float32"}}, {"name": "P7/kernel", "shape": [3, 3, 256, 256], "dtype": "float32", "quantization": {"dtype": "uint8", "min": -0.03736102534275429, "scale": 0.0002918830104902679, "original_dtype": "float32"}}, {"name": "P7/bias", "shape": [256], "dtype": "float32", "quantization": {"dtype": "uint8", "min": -0.00012335604896732404, "scale": 9.63719132557219e-07, "original_dtype": "float32"}}, {"name": "bn2a_branch1/gamma", "shape": [256], "dtype": "float32", "quantization": {"dtype": "uint8", "min": 0.0043527209199965, "scale": 0.012000088939698887, "original_dtype": "float32"}}, {"name": "bn2a_branch1/beta", "shape": [256], "dtype": "float32", "quantization": {"dtype": "uint8", "min": -1.1212190571953269, "scale": 0.010381657936993768, "original_dtype": "float32"}}, {"name": "bn2a_branch1/moving_mean", "shape": [256], "dtype": "float32", "quantization": {"dtype": "uint8", "min": -6.6734639036889165, "scale": 0.06416792215085497, "original_dtype": "float32"}}, {"name": "bn2a_branch1/moving_variance", "shape": [256], "dtype": "float32", "quantization": {"dtype": "uint8", "min": 1.1424858712416608e-06, "scale": 0.028734928213443887, "original_dtype": "float32"}}, {"name": "bn2a_branch2a/gamma", "shape": [64], "dtype": "float32", "quantization": {"dtype": "uint8", "min": 0.5092175602912903, "scale": 0.006105371316274007, "original_dtype": "float32"}}, {"name": "bn2a_branch2a/beta", "shape": [64], "dtype": "float32", "quantization": {"dtype": "uint8", "min": -2.407364273071289, "scale": 0.023601610520306755, "original_dtype": "float32"}}, {"name": "bn2a_branch2a/moving_mean", "shape": [64], "dtype": "float32", "quantization": {"dtype": "uint8", "min": -4.6082068948184745, "scale": 0.04800215515435911, "original_dtype": "float32"}}, {"name": "bn2a_branch2a/moving_variance", "shape": [64], "dtype": "float32", "quantization": {"dtype": "uint8", "min": 0.05220366269350052, "scale": 0.03419518000354954, "original_dtype": "float32"}}, {"name": "bn2a_branch2b/gamma", "shape": [64], "dtype": "float32", "quantization": {"dtype": "uint8", "min": 0.4204263389110565, "scale": 0.008271011768602857, "original_dtype": "float32"}}, {"name": "bn2a_branch2b/beta", "shape": [64], "dtype": "float32", "quantization": {"dtype": "uint8", "min": -2.282603148853078, "scale": 0.032149340124691235, "original_dtype": "float32"}}, {"name": "bn2a_branch2b/moving_mean", "shape": [64], "dtype": "float32", "quantization": {"dtype": "uint8", "min": -4.013449042451148, "scale": 0.027489377003090055, "original_dtype": "float32"}}, {"name": "bn2a_branch2b/moving_variance", "shape": [64], "dtype": "float32", "quantization": {"dtype": "uint8", "min": 0.12235629558563232, "scale": 0.08373277000352448, "original_dtype": "float32"}}, {"name": "bn2a_branch2c/gamma", "shape": [256], "dtype": "float32", "quantization": {"dtype": "uint8", "min": 0.011003042571246624, "scale": 0.011015497370823926, "original_dtype": "float32"}}, {"name": "bn2a_branch2c/beta", "shape": [256], "dtype": "float32", "quantization": {"dtype": "uint8", "min": -1.1212190571953269, "scale": 0.010381657936993768, "original_dtype": "float32"}}, {"name": "bn2a_branch2c/moving_mean", "shape": [256], "dtype": "float32", "quantization": {"dtype": "uint8", "min": -2.005644028794532, "scale": 0.015080030291688208, "original_dtype": "float32"}}, {"name": "bn2a_branch2c/moving_variance", "shape": [256], "dtype": "float32", "quantization": {"dtype": "uint8", "min": 8.595875442551915e-07, "scale": 0.008380246063894875, "original_dtype": "float32"}}, {"name": "bn2b_branch2a/gamma", "shape": [64], "dtype": "float32", "quantization": {"dtype": "uint8", "min": 0.7461968660354614, "scale": 0.004716993313209683, "original_dtype": "float32"}}, {"name": "bn2b_branch2a/beta", "shape": [64], "dtype": "float32", "quantization": {"dtype": "uint8", "min": -1.6905940897324507, "scale": 0.012807530982821596, "original_dtype": "float32"}}, {"name": "bn2b_branch2a/moving_mean", "shape": [64], "dtype": "float32", "quantization": {"dtype": "uint8", "min": -2.515720709632425, "scale": 0.014213111353855508, "original_dtype": "float32"}}, {"name": "bn2b_branch2a/moving_variance", "shape": [64], "dtype": "float32", "quantization": {"dtype": "uint8", "min": 0.22886011004447937, "scale": 0.007600936819525326, "original_dtype": "float32"}}, {"name": "bn2b_branch2b/gamma", "shape": [64], "dtype": "float32", "quantization": {"dtype": "uint8", "min": 0.6205095648765564, "scale": 0.003910624980926513, "original_dtype": "float32"}}, {"name": "bn2b_branch2b/beta", "shape": [64], "dtype": "float32", "quantization": {"dtype": "uint8", "min": -2.002034819359873, "scale": 0.01725892085655063, "original_dtype": "float32"}}, {"name": "bn2b_branch2b/moving_mean", "shape": [64], "dtype": "float32", "quantization": {"dtype": "uint8", "min": -1.3406322282903333, "scale": 0.008937548188602222, "original_dtype": "float32"}}, {"name": "bn2b_branch2b/moving_variance", "shape": [64], "dtype": "float32", "quantization": {"dtype": "uint8", "min": 0.16632837057113647, "scale": 0.003731702122033811, "original_dtype": "float32"}}, {"name": "bn2b_branch2c/gamma", "shape": [256], "dtype": "float32", "quantization": {"dtype": "uint8", "min": -0.01683870656233208, "scale": 0.00841935328116604, "original_dtype": "float32"}}, {"name": "bn2b_branch2c/beta", "shape": [256], "dtype": "float32", "quantization": {"dtype": "uint8", "min": -1.7073775693482043, "scale": 0.011775017719642789, "original_dtype": "float32"}}, {"name": "bn2b_branch2c/moving_mean", "shape": [256], "dtype": "float32", "quantization": {"dtype": "uint8", "min": -1.086528488935209, "scale": 0.008169387134851195, "original_dtype": "float32"}}, {"name": "bn2b_branch2c/moving_variance", "shape": [256], "dtype": "float32", "quantization": {"dtype": "uint8", "min": 0.0003367012832313776, "scale": 0.0006959895502921998, "original_dtype": "float32"}}, {"name": "bn2c_branch2a/gamma", "shape": [64], "dtype": "float32", "quantization": {"dtype": "uint8", "min": 0.5740686058998108, "scale": 0.004368531236461565, "original_dtype": "float32"}}, {"name": "bn2c_branch2a/beta", "shape": [64], "dtype": "float32", "quantization": {"dtype": "uint8", "min": -1.8731157200009216, "scale": 0.011634259130440507, "original_dtype": "float32"}}, {"name": "bn2c_branch2a/moving_mean", "shape": [64], "dtype": "float32", "quantization": {"dtype": "uint8", "min": -1.9946179759268665, "scale": 0.014349769610984652, "original_dtype": "float32"}}, {"name": "bn2c_branch2a/moving_variance", "shape": [64], "dtype": "float32", "quantization": {"dtype": "uint8", "min": 2.1013129298808053e-06, "scale": 0.009826357398738836, "original_dtype": "float32"}}, {"name": "bn2c_branch2b/gamma", "shape": [64], "dtype": "float32", "quantization": {"dtype": "uint8", "min": 0.7570450901985168, "scale": 0.0034989546327029958, "original_dtype": "float32"}}, {"name": "bn2c_branch2b/beta", "shape": [64], "dtype": "float32", "quantization": {"dtype": "uint8", "min": -2.2182499548968146, "scale": 0.016074275035484163, "original_dtype": "float32"}}, {"name": "bn2c_branch2b/moving_mean", "shape": [64], "dtype": "float32", "quantization": {"dtype": "uint8", "min": -1.3440699354106305, "scale": 0.006369999693889244, "original_dtype": "float32"}}, {"name": "bn2c_branch2b/moving_variance", "shape": [64], "dtype": "float32", "quantization": {"dtype": "uint8", "min": 0.1354680061340332, "scale": 0.002801717028898351, "original_dtype": "float32"}}, {"name": "bn2c_branch2c/gamma", "shape": [256], "dtype": "float32", "quantization": {"dtype": "uint8", "min": -0.060734340373207546, "scale": 0.008676334339029649, "original_dtype": "float32"}}, {"name": "bn2c_branch2c/beta", "shape": [256], "dtype": "float32", "quantization": {"dtype": "uint8", "min": -1.5705417647081263, "scale": 0.012174742362078498, "original_dtype": "float32"}}, {"name": "bn2c_branch2c/moving_mean", "shape": [256], "dtype": "float32", "quantization": {"dtype": "uint8", "min": -1.087880879757451, "scale": 0.008304434196621763, "original_dtype": "float32"}}, {"name": "bn2c_branch2c/moving_variance", "shape": [256], "dtype": "float32", "quantization": {"dtype": "uint8", "min": 0.0005230105016380548, "scale": 0.0012333919814623453, "original_dtype": "float32"}}, {"name": "bn3a_branch1/gamma", "shape": [512], "dtype": "float32", "quantization": {"dtype": "uint8", "min": 0.005530852824449539, "scale": 0.009985768488224816, "original_dtype": "float32"}}, {"name": "bn3a_branch1/beta", "shape": [512], "dtype": "float32", "quantization": {"dtype": "uint8", "min": -1.5489482122309068, "scale": 0.010985448313694374, "original_dtype": "float32"}}, {"name": "bn3a_branch1/moving_mean", "shape": [512], "dtype": "float32", "quantization": {"dtype": "uint8", "min": -2.3862001419067385, "scale": 0.020052102032829734, "original_dtype": "float32"}}, {"name": "bn3a_branch1/moving_variance", "shape": [512], "dtype": "float32", "quantization": {"dtype": "uint8", "min": 0.0026763337664306164, "scale": 0.01592315098124684, "original_dtype": "float32"}}, {"name": "bn3a_branch2a/gamma", "shape": [128], "dtype": "float32", "quantization": {"dtype": "uint8", "min": 0.6103370785713196, "scale": 0.004047261266147389, "original_dtype": "float32"}}, {"name": "bn3a_branch2a/beta", "shape": [128], "dtype": "float32", "quantization": {"dtype": "uint8", "min": -1.5792655954173966, "scale": 0.011874177409153358, "original_dtype": "float32"}}, {"name": "bn3a_branch2a/moving_mean", "shape": [128], "dtype": "float32", "quantization": {"dtype": "uint8", "min": -2.9416965933407053, "scale": 0.018158620946547563, "original_dtype": "float32"}}, {"name": "bn3a_branch2a/moving_variance", "shape": [128], "dtype": "float32", "quantization": {"dtype": "uint8", "min": 0.17527830600738525, "scale": 0.009377583802915087, "original_dtype": "float32"}}, {"name": "bn3a_branch2b/gamma", "shape": [128], "dtype": "float32", "quantization": {"dtype": "uint8", "min": 0.6048915386199951, "scale": 0.003987195445042031, "original_dtype": "float32"}}, {"name": "bn3a_branch2b/beta", "shape": [128], "dtype": "float32", "quantization": {"dtype": "uint8", "min": -2.762347507476807, "scale": 0.01770735581715902, "original_dtype": "float32"}}, {"name": "bn3a_branch2b/moving_mean", "shape": [128], "dtype": "float32", "quantization": {"dtype": "uint8", "min": -4.103226992663215, "scale": 0.023855970887576832, "original_dtype": "float32"}}, {"name": "bn3a_branch2b/moving_variance", "shape": [128], "dtype": "float32", "quantization": {"dtype": "uint8", "min": 0.23013627529144287, "scale": 0.0075141500024234545, "original_dtype": "float32"}}, {"name": "bn3a_branch2c/gamma", "shape": [512], "dtype": "float32", "quantization": {"dtype": "uint8", "min": -0.010732674043552548, "scale": 0.010732674043552548, "original_dtype": "float32"}}, {"name": "bn3a_branch2c/beta", "shape": [512], "dtype": "float32", "quantization": {"dtype": "uint8", "min": -1.5489482122309068, "scale": 0.010985448313694374, "original_dtype": "float32"}}, {"name": "bn3a_branch2c/moving_mean", "shape": [512], "dtype": "float32", "quantization": {"dtype": "uint8", "min": -1.0709070808747234, "scale": 0.008432339219486011, "original_dtype": "float32"}}, {"name": "bn3a_branch2c/moving_variance", "shape": [512], "dtype": "float32", "quantization": {"dtype": "uint8", "min": 0.000684088678099215, "scale": 0.001741085191914702, "original_dtype": "float32"}}, {"name": "bn3b_branch2a/gamma", "shape": [128], "dtype": "float32", "quantization": {"dtype": "uint8", "min": 0.5784836411476135, "scale": 0.003334476667291978, "original_dtype": "float32"}}, {"name": "bn3b_branch2a/beta", "shape": [128], "dtype": "float32", "quantization": {"dtype": "uint8", "min": -4.356083624503192, "scale": 0.01936037166445863, "original_dtype": "float32"}}, {"name": "bn3b_branch2a/moving_mean", "shape": [128], "dtype": "float32", "quantization": {"dtype": "uint8", "min": -2.0983867205825506, "scale": 0.01362588779599059, "original_dtype": "float32"}}, {"name": "bn3b_branch2a/moving_variance", "shape": [128], "dtype": "float32", "quantization": {"dtype": "uint8", "min": 4.261433787178248e-06, "scale": 0.009396902838175175, "original_dtype": "float32"}}, {"name": "bn3b_branch2b/gamma", "shape": [128], "dtype": "float32", "quantization": {"dtype": "uint8", "min": 0.5107861161231995, "scale": 0.005032846740647859, "original_dtype": "float32"}}, {"name": "bn3b_branch2b/beta", "shape": [128], "dtype": "float32", "quantization": {"dtype": "uint8", "min": -3.8310447145910826, "scale": 0.020270077854979272, "original_dtype": "float32"}}, {"name": "bn3b_branch2b/moving_mean", "shape": [128], "dtype": "float32", "quantization": {"dtype": "uint8", "min": -1.4234880466087192, "scale": 0.009954461864396637, "original_dtype": "float32"}}, {"name": "bn3b_branch2b/moving_variance", "shape": [128], "dtype": "float32", "quantization": {"dtype": "uint8", "min": 0.17664289474487305, "scale": 0.0022617978208205277, "original_dtype": "float32"}}, {"name": "bn3b_branch2c/gamma", "shape": [512], "dtype": "float32", "quantization": {"dtype": "uint8", "min": -0.06883143630682254, "scale": 0.008603929538352817, "original_dtype": "float32"}}, {"name": "bn3b_branch2c/beta", "shape": [512], "dtype": "float32", "quantization": {"dtype": "uint8", "min": -1.5066896102007699, "scale": 0.010463122293060902, "original_dtype": "float32"}}, {"name": "bn3b_branch2c/moving_mean", "shape": [512], "dtype": "float32", "quantization": {"dtype": "uint8", "min": -0.625652100058163, "scale": 0.004344806250403909, "original_dtype": "float32"}}, {"name": "bn3b_branch2c/moving_variance", "shape": [512], "dtype": "float32", "quantization": {"dtype": "uint8", "min": 0.00038828252581879497, "scale": 0.0006010980466289409, "original_dtype": "float32"}}, {"name": "bn3c_branch2a/gamma", "shape": [128], "dtype": "float32", "quantization": {"dtype": "uint8", "min": 0.40599995851516724, "scale": 0.005057214989381678, "original_dtype": "float32"}}, {"name": "bn3c_branch2a/beta", "shape": [128], "dtype": "float32", "quantization": {"dtype": "uint8", "min": -2.693256499720555, "scale": 0.018197679052165912, "original_dtype": "float32"}}, {"name": "bn3c_branch2a/moving_mean", "shape": [128], "dtype": "float32", "quantization": {"dtype": "uint8", "min": -1.8729887948316688, "scale": 0.013283608473983466, "original_dtype": "float32"}}, {"name": "bn3c_branch2a/moving_variance", "shape": [128], "dtype": "float32", "quantization": {"dtype": "uint8", "min": 0.18360655009746552, "scale": 0.044506191097053824, "original_dtype": "float32"}}, {"name": "bn3c_branch2b/gamma", "shape": [128], "dtype": "float32", "quantization": {"dtype": "uint8", "min": 0.46005693078041077, "scale": 0.0067400889069426295, "original_dtype": "float32"}}, {"name": "bn3c_branch2b/beta", "shape": [128], "dtype": "float32", "quantization": {"dtype": "uint8", "min": -1.5868688835817226, "scale": 0.008531553137536143, "original_dtype": "float32"}}, {"name": "bn3c_branch2b/moving_mean", "shape": [128], "dtype": "float32", "quantization": {"dtype": "uint8", "min": -1.4762281011132634, "scale": 0.012617334197549259, "original_dtype": "float32"}}, {"name": "bn3c_branch2b/moving_variance", "shape": [128], "dtype": "float32", "quantization": {"dtype": "uint8", "min": 0.08016139268875122, "scale": 0.0070762005506777295, "original_dtype": "float32"}}, {"name": "bn3c_branch2c/gamma", "shape": [512], "dtype": "float32", "quantization": {"dtype": "uint8", "min": -0.0, "scale": 0.011953397232162603, "original_dtype": "float32"}}, {"name": "bn3c_branch2c/beta", "shape": [512], "dtype": "float32", "quantization": {"dtype": "uint8", "min": -2.3679071010327806, "scale": 0.011013521400152469, "original_dtype": "float32"}}, {"name": "bn3c_branch2c/moving_mean", "shape": [512], "dtype": "float32", "quantization": {"dtype": "uint8", "min": -0.521700945554995, "scale": 0.004013084196576885, "original_dtype": "float32"}}, {"name": "bn3c_branch2c/moving_variance", "shape": [512], "dtype": "float32", "quantization": {"dtype": "uint8", "min": 0.00010034152364823967, "scale": 0.0008596383587014405, "original_dtype": "float32"}}, {"name": "bn3d_branch2a/gamma", "shape": [128], "dtype": "float32", "quantization": {"dtype": "uint8", "min": 0.7355023622512817, "scale": 0.006505683356640386, "original_dtype": "float32"}}, {"name": "bn3d_branch2a/beta", "shape": [128], "dtype": "float32", "quantization": {"dtype": "uint8", "min": -2.6395202300127814, "scale": 0.013330910252589805, "original_dtype": "float32"}}, {"name": "bn3d_branch2a/moving_mean", "shape": [128], "dtype": "float32", "quantization": {"dtype": "uint8", "min": -1.5174549962960038, "scale": 0.01107631384157667, "original_dtype": "float32"}}, {"name": "bn3d_branch2a/moving_variance", "shape": [128], "dtype": "float32", "quantization": {"dtype": "uint8", "min": 0.3949695825576782, "scale": 0.008236408701129988, "original_dtype": "float32"}}, {"name": "bn3d_branch2b/gamma", "shape": [128], "dtype": "float32", "quantization": {"dtype": "uint8", "min": 0.6816897988319397, "scale": 0.003971695666219674, "original_dtype": "float32"}}, {"name": "bn3d_branch2b/beta", "shape": [128], "dtype": "float32", "quantization": {"dtype": "uint8", "min": -1.3599304549834308, "scale": 0.011623337222080605, "original_dtype": "float32"}}, {"name": "bn3d_branch2b/moving_mean", "shape": [128], "dtype": "float32", "quantization": {"dtype": "uint8", "min": -1.3801050298354205, "scale": 0.011795769485772824, "original_dtype": "float32"}}, {"name": "bn3d_branch2b/moving_variance", "shape": [128], "dtype": "float32", "quantization": {"dtype": "uint8", "min": 0.2500532567501068, "scale": 0.004850879954356773, "original_dtype": "float32"}}, {"name": "bn3d_branch2c/gamma", "shape": [512], "dtype": "float32", "quantization": {"dtype": "uint8", "min": -0.006783438762467281, "scale": 0.006783438762467281, "original_dtype": "float32"}}, {"name": "bn3d_branch2c/beta", "shape": [512], "dtype": "float32", "quantization": {"dtype": "uint8", "min": -1.8958592868318744, "scale": 0.012075536858801748, "original_dtype": "float32"}}, {"name": "bn3d_branch2c/moving_mean", "shape": [512], "dtype": "float32", "quantization": {"dtype": "uint8", "min": -0.9014393289883932, "scale": 0.007575120411667169, "original_dtype": "float32"}}, {"name": "bn3d_branch2c/moving_variance", "shape": [512], "dtype": "float32", "quantization": {"dtype": "uint8", "min": 0.00021288255811668932, "scale": 0.0009332763034549049, "original_dtype": "float32"}}, {"name": "bn4a_branch1/gamma", "shape": [1024], "dtype": "float32", "quantization": {"dtype": "uint8", "min": 0.033979933708906174, "scale": 0.010765537400456035, "original_dtype": "float32"}}, {"name": "bn4a_branch1/beta", "shape": [1024], "dtype": "float32", "quantization": {"dtype": "uint8", "min": -0.9375835227031333, "scale": 0.007157126127504835, "original_dtype": "float32"}}, {"name": "bn4a_branch1/moving_mean", "shape": [1024], "dtype": "float32", "quantization": {"dtype": "uint8", "min": -1.9995872030071182, "scale": 0.016390059041041953, "original_dtype": "float32"}}, {"name": "bn4a_branch1/moving_variance", "shape": [1024], "dtype": "float32", "quantization": {"dtype": "uint8", "min": 0.015027696266770363, "scale": 0.01128271820352358, "original_dtype": "float32"}}, {"name": "bn4a_branch2a/gamma", "shape": [256], "dtype": "float32", "quantization": {"dtype": "uint8", "min": 0.6213442087173462, "scale": 0.003980505232717477, "original_dtype": "float32"}}, {"name": "bn4a_branch2a/beta", "shape": [256], "dtype": "float32", "quantization": {"dtype": "uint8", "min": -1.4199508580507016, "scale": 0.009160973277746462, "original_dtype": "float32"}}, {"name": "bn4a_branch2a/moving_mean", "shape": [256], "dtype": "float32", "quantization": {"dtype": "uint8", "min": -1.7981004051133698, "scale": 0.012315756199406643, "original_dtype": "float32"}}, {"name": "bn4a_branch2a/moving_variance", "shape": [256], "dtype": "float32", "quantization": {"dtype": "uint8", "min": 0.40585967898368835, "scale": 0.008409963986452888, "original_dtype": "float32"}}, {"name": "bn4a_branch2b/gamma", "shape": [256], "dtype": "float32", "quantization": {"dtype": "uint8", "min": 0.5854782462120056, "scale": 0.0045634833036684525, "original_dtype": "float32"}}, {"name": "bn4a_branch2b/beta", "shape": [256], "dtype": "float32", "quantization": {"dtype": "uint8", "min": -1.8394469747356341, "scale": 0.012685841205073338, "original_dtype": "float32"}}, {"name": "bn4a_branch2b/moving_mean", "shape": [256], "dtype": "float32", "quantization": {"dtype": "uint8", "min": -4.137841998829561, "scale": 0.031347287869920915, "original_dtype": "float32"}}, {"name": "bn4a_branch2b/moving_variance", "shape": [256], "dtype": "float32", "quantization": {"dtype": "uint8", "min": 0.34219133853912354, "scale": 0.01904629492292217, "original_dtype": "float32"}}, {"name": "bn4a_branch2c/gamma", "shape": [1024], "dtype": "float32", "quantization": {"dtype": "uint8", "min": 0.07113350182771683, "scale": 0.009002757043230768, "original_dtype": "float32"}}, {"name": "bn4a_branch2c/beta", "shape": [1024], "dtype": "float32", "quantization": {"dtype": "uint8", "min": -0.9375835227031333, "scale": 0.007157126127504835, "original_dtype": "float32"}}, {"name": "bn4a_branch2c/moving_mean", "shape": [1024], "dtype": "float32", "quantization": {"dtype": "uint8", "min": -0.7359124983058256, "scale": 0.004906083322038838, "original_dtype": "float32"}}, {"name": "bn4a_branch2c/moving_variance", "shape": [1024], "dtype": "float32", "quantization": {"dtype": "uint8", "min": 0.005249861162155867, "scale": 0.001388090251780608, "original_dtype": "float32"}}, {"name": "bn4b_branch2a/gamma", "shape": [256], "dtype": "float32", "quantization": {"dtype": "uint8", "min": 0.5655062198638916, "scale": 0.004619026184082031, "original_dtype": "float32"}}, {"name": "bn4b_branch2a/beta", "shape": [256], "dtype": "float32", "quantization": {"dtype": "uint8", "min": -2.702526631074793, "scale": 0.014687644734102136, "original_dtype": "float32"}}, {"name": "bn4b_branch2a/moving_mean", "shape": [256], "dtype": "float32", "quantization": {"dtype": "uint8", "min": -5.852475035424326, "scale": 0.03163500019148284, "original_dtype": "float32"}}, {"name": "bn4b_branch2a/moving_variance", "shape": [256], "dtype": "float32", "quantization": {"dtype": "uint8", "min": 0.36715057492256165, "scale": 0.015014005992926804, "original_dtype": "float32"}}, {"name": "bn4b_branch2b/gamma", "shape": [256], "dtype": "float32", "quantization": {"dtype": "uint8", "min": 0.5147577524185181, "scale": 0.00700385570526123, "original_dtype": "float32"}}, {"name": "bn4b_branch2b/beta", "shape": [256], "dtype": "float32", "quantization": {"dtype": "uint8", "min": -2.556510229671703, "scale": 0.017273717768052047, "original_dtype": "float32"}}, {"name": "bn4b_branch2b/moving_mean", "shape": [256], "dtype": "float32", "quantization": {"dtype": "uint8", "min": -2.377994551378138, "scale": 0.014070973676793715, "original_dtype": "float32"}}, {"name": "bn4b_branch2b/moving_variance", "shape": [256], "dtype": "float32", "quantization": {"dtype": "uint8", "min": 0.10513381659984589, "scale": 0.00478037087356343, "original_dtype": "float32"}}, {"name": "bn4b_branch2c/gamma", "shape": [1024], "dtype": "float32", "quantization": {"dtype": "uint8", "min": 0.05497802793979645, "scale": 0.007403893973313126, "original_dtype": "float32"}}, {"name": "bn4b_branch2c/beta", "shape": [1024], "dtype": "float32", "quantization": {"dtype": "uint8", "min": -1.6495784834319471, "scale": 0.010440370148303462, "original_dtype": "float32"}}, {"name": "bn4b_branch2c/moving_mean", "shape": [1024], "dtype": "float32", "quantization": {"dtype": "uint8", "min": -0.431716503349005, "scale": 0.0029569623517055137, "original_dtype": "float32"}}, {"name": "bn4b_branch2c/moving_variance", "shape": [1024], "dtype": "float32", "quantization": {"dtype": "uint8", "min": 0.0014270668616518378, "scale": 0.0004776426193797413, "original_dtype": "float32"}}, {"name": "bn4c_branch2a/gamma", "shape": [256], "dtype": "float32", "quantization": {"dtype": "uint8", "min": 0.4627031981945038, "scale": 0.005580297287772684, "original_dtype": "float32"}}, {"name": "bn4c_branch2a/beta", "shape": [256], "dtype": "float32", "quantization": {"dtype": "uint8", "min": -2.399995290999319, "scale": 0.011320732504713769, "original_dtype": "float32"}}, {"name": "bn4c_branch2a/moving_mean", "shape": [256], "dtype": "float32", "quantization": {"dtype": "uint8", "min": -2.171348979893853, "scale": 0.013656282892414167, "original_dtype": "float32"}}, {"name": "bn4c_branch2a/moving_variance", "shape": [256], "dtype": "float32", "quantization": {"dtype": "uint8", "min": 0.31561028957366943, "scale": 0.013274288644977645, "original_dtype": "float32"}}, {"name": "bn4c_branch2b/gamma", "shape": [256], "dtype": "float32", "quantization": {"dtype": "uint8", "min": 0.5552687048912048, "scale": 0.005275631184671439, "original_dtype": "float32"}}, {"name": "bn4c_branch2b/beta", "shape": [256], "dtype": "float32", "quantization": {"dtype": "uint8", "min": -1.6561929513426388, "scale": 0.009252474588506362, "original_dtype": "float32"}}, {"name": "bn4c_branch2b/moving_mean", "shape": [256], "dtype": "float32", "quantization": {"dtype": "uint8", "min": -0.9588183283805847, "scale": 0.007319223880767822, "original_dtype": "float32"}}, {"name": "bn4c_branch2b/moving_variance", "shape": [256], "dtype": "float32", "quantization": {"dtype": "uint8", "min": 0.08332255482673645, "scale": 0.001503892272126441, "original_dtype": "float32"}}, {"name": "bn4c_branch2c/gamma", "shape": [1024], "dtype": "float32", "quantization": {"dtype": "uint8", "min": 0.0488269217312336, "scale": 0.0054936423459473775, "original_dtype": "float32"}}, {"name": "bn4c_branch2c/beta", "shape": [1024], "dtype": "float32", "quantization": {"dtype": "uint8", "min": -1.1985715249005486, "scale": 0.007009190204096775, "original_dtype": "float32"}}, {"name": "bn4c_branch2c/moving_mean", "shape": [1024], "dtype": "float32", "quantization": {"dtype": "uint8", "min": -0.30009238521258036, "scale": 0.0025217847496855493, "original_dtype": "float32"}}, {"name": "bn4c_branch2c/moving_variance", "shape": [1024], "dtype": "float32", "quantization": {"dtype": "uint8", "min": 0.0017046096036210656, "scale": 0.0003771924263085513, "original_dtype": "float32"}}, {"name": "bn4d_branch2a/gamma", "shape": [256], "dtype": "float32", "quantization": {"dtype": "uint8", "min": 0.4422333836555481, "scale": 0.003570565756629495, "original_dtype": "float32"}}, {"name": "bn4d_branch2a/beta", "shape": [256], "dtype": "float32", "quantization": {"dtype": "uint8", "min": -2.320081736527237, "scale": 0.0111008695527619, "original_dtype": "float32"}}, {"name": "bn4d_branch2a/moving_mean", "shape": [256], "dtype": "float32", "quantization": {"dtype": "uint8", "min": -1.940459681959713, "scale": 0.011152067137699501, "original_dtype": "float32"}}, {"name": "bn4d_branch2a/moving_variance", "shape": [256], "dtype": "float32", "quantization": {"dtype": "uint8", "min": 0.3172389268875122, "scale": 0.009561955227571375, "original_dtype": "float32"}}, {"name": "bn4d_branch2b/gamma", "shape": [256], "dtype": "float32", "quantization": {"dtype": "uint8", "min": 0.5292788743972778, "scale": 0.005529026424183565, "original_dtype": "float32"}}, {"name": "bn4d_branch2b/beta", "shape": [256], "dtype": "float32", "quantization": {"dtype": "uint8", "min": -1.6094315566268622, "scale": 0.009357160212946873, "original_dtype": "float32"}}, {"name": "bn4d_branch2b/moving_mean", "shape": [256], "dtype": "float32", "quantization": {"dtype": "uint8", "min": -1.1220225927876493, "scale": 0.008565057960211063, "original_dtype": "float32"}}, {"name": "bn4d_branch2b/moving_variance", "shape": [256], "dtype": "float32", "quantization": {"dtype": "uint8", "min": 0.07131592184305191, "scale": 0.0023700637852444367, "original_dtype": "float32"}}, {"name": "bn4d_branch2c/gamma", "shape": [1024], "dtype": "float32", "quantization": {"dtype": "uint8", "min": -0.039588720482938426, "scale": 0.006598120080489738, "original_dtype": "float32"}}, {"name": "bn4d_branch2c/beta", "shape": [1024], "dtype": "float32", "quantization": {"dtype": "uint8", "min": -1.4840727693894329, "scale": 0.007169433668547985, "original_dtype": "float32"}}, {"name": "bn4d_branch2c/moving_mean", "shape": [1024], "dtype": "float32", "quantization": {"dtype": "uint8", "min": -0.3640890156521516, "scale": 0.0029843361938700955, "original_dtype": "float32"}}, {"name": "bn4d_branch2c/moving_variance", "shape": [1024], "dtype": "float32", "quantization": {"dtype": "uint8", "min": 8.513742068316787e-05, "scale": 0.00041752554180657527, "original_dtype": "float32"}}, {"name": "bn4e_branch2a/gamma", "shape": [256], "dtype": "float32", "quantization": {"dtype": "uint8", "min": 0.4382966458797455, "scale": 0.003950978844773536, "original_dtype": "float32"}}, {"name": "bn4e_branch2a/beta", "shape": [256], "dtype": "float32", "quantization": {"dtype": "uint8", "min": -2.514182472930235, "scale": 0.012029581210192512, "original_dtype": "float32"}}, {"name": "bn4e_branch2a/moving_mean", "shape": [256], "dtype": "float32", "quantization": {"dtype": "uint8", "min": -2.5767556386835433, "scale": 0.01244809487286736, "original_dtype": "float32"}}, {"name": "bn4e_branch2a/moving_variance", "shape": [256], "dtype": "float32", "quantization": {"dtype": "uint8", "min": 0.4042649567127228, "scale": 0.005722995248495364, "original_dtype": "float32"}}, {"name": "bn4e_branch2b/gamma", "shape": [256], "dtype": "float32", "quantization": {"dtype": "uint8", "min": 0.650596022605896, "scale": 0.004735287030537923, "original_dtype": "float32"}}, {"name": "bn4e_branch2b/beta", "shape": [256], "dtype": "float32", "quantization": {"dtype": "uint8", "min": -1.587631996940164, "scale": 0.008820177760778689, "original_dtype": "float32"}}, {"name": "bn4e_branch2b/moving_mean", "shape": [256], "dtype": "float32", "quantization": {"dtype": "uint8", "min": -0.4664080012078379, "scale": 0.0037613548484503054, "original_dtype": "float32"}}, {"name": "bn4e_branch2b/moving_variance", "shape": [256], "dtype": "float32", "quantization": {"dtype": "uint8", "min": 0.05927896872162819, "scale": 0.0011478822459192837, "original_dtype": "float32"}}, {"name": "bn4e_branch2c/gamma", "shape": [1024], "dtype": "float32", "quantization": {"dtype": "uint8", "min": -0.0, "scale": 0.005889593064328473, "original_dtype": "float32"}}, {"name": "bn4e_branch2c/beta", "shape": [1024], "dtype": "float32", "quantization": {"dtype": "uint8", "min": -1.1102164591059966, "scale": 0.006853188019172818, "original_dtype": "float32"}}, {"name": "bn4e_branch2c/moving_mean", "shape": [1024], "dtype": "float32", "quantization": {"dtype": "uint8", "min": -0.582913356668809, "scale": 0.006476815074097877, "original_dtype": "float32"}}, {"name": "bn4e_branch2c/moving_variance", "shape": [1024], "dtype": "float32", "quantization": {"dtype": "uint8", "min": 0.0003081673930864781, "scale": 0.000678920701223736, "original_dtype": "float32"}}, {"name": "bn4f_branch2a/gamma", "shape": [256], "dtype": "float32", "quantization": {"dtype": "uint8", "min": 0.4254356026649475, "scale": 0.004397019451739741, "original_dtype": "float32"}}, {"name": "bn4f_branch2a/beta", "shape": [256], "dtype": "float32", "quantization": {"dtype": "uint8", "min": -1.973412836299223, "scale": 0.010963404646106794, "original_dtype": "float32"}}, {"name": "bn4f_branch2a/moving_mean", "shape": [256], "dtype": "float32", "quantization": {"dtype": "uint8", "min": -1.1526873623623568, "scale": 0.008175087676328772, "original_dtype": "float32"}}, {"name": "bn4f_branch2a/moving_variance", "shape": [256], "dtype": "float32", "quantization": {"dtype": "uint8", "min": 0.41855305433273315, "scale": 0.006663093613643273, "original_dtype": "float32"}}, {"name": "bn4f_branch2b/gamma", "shape": [256], "dtype": "float32", "quantization": {"dtype": "uint8", "min": 0.6498118042945862, "scale": 0.00898982660443175, "original_dtype": "float32"}}, {"name": "bn4f_branch2b/beta", "shape": [256], "dtype": "float32", "quantization": {"dtype": "uint8", "min": -1.089297287604388, "scale": 0.007310720051036161, "original_dtype": "float32"}}, {"name": "bn4f_branch2b/moving_mean", "shape": [256], "dtype": "float32", "quantization": {"dtype": "uint8", "min": -0.9005843653398401, "scale": 0.005525057456072639, "original_dtype": "float32"}}, {"name": "bn4f_branch2b/moving_variance", "shape": [256], "dtype": "float32", "quantization": {"dtype": "uint8", "min": 0.08530989289283752, "scale": 0.003451955201579075, "original_dtype": "float32"}}, {"name": "bn4f_branch2c/gamma", "shape": [1024], "dtype": "float32", "quantization": {"dtype": "uint8", "min": 0.0042371368035674095, "scale": 0.00776500202642352, "original_dtype": "float32"}}, {"name": "bn4f_branch2c/beta", "shape": [1024], "dtype": "float32", "quantization": {"dtype": "uint8", "min": -1.6410384411905325, "scale": 0.01131750649096919, "original_dtype": "float32"}}, {"name": "bn4f_branch2c/moving_mean", "shape": [1024], "dtype": "float32", "quantization": {"dtype": "uint8", "min": -0.6195256667978624, "scale": 0.0044893164260714664, "original_dtype": "float32"}}, {"name": "bn4f_branch2c/moving_variance", "shape": [1024], "dtype": "float32", "quantization": {"dtype": "uint8", "min": 0.0005924173747189343, "scale": 0.004464478793270959, "original_dtype": "float32"}}, {"name": "bn5a_branch1/gamma", "shape": [2048], "dtype": "float32", "quantization": {"dtype": "uint8", "min": 0.26086774468421936, "scale": 0.016916715748169844, "original_dtype": "float32"}}, {"name": "bn5a_branch1/beta", "shape": [2048], "dtype": "float32", "quantization": {"dtype": "uint8", "min": -1.805515895871555, "scale": 0.010942520581039727, "original_dtype": "float32"}}, {"name": "bn5a_branch1/moving_mean", "shape": [2048], "dtype": "float32", "quantization": {"dtype": "uint8", "min": -1.4655994840696747, "scale": 0.01510927303164613, "original_dtype": "float32"}}, {"name": "bn5a_branch1/moving_variance", "shape": [2048], "dtype": "float32", "quantization": {"dtype": "uint8", "min": 0.08673897385597229, "scale": 0.003595751757715263, "original_dtype": "float32"}}, {"name": "bn5a_branch2a/gamma", "shape": [512], "dtype": "float32", "quantization": {"dtype": "uint8", "min": 0.5353331565856934, "scale": 0.004153029591429467, "original_dtype": "float32"}}, {"name": "bn5a_branch2a/beta", "shape": [512], "dtype": "float32", "quantization": {"dtype": "uint8", "min": -1.755297362804413, "scale": 0.008015056451161703, "original_dtype": "float32"}}, {"name": "bn5a_branch2a/moving_mean", "shape": [512], "dtype": "float32", "quantization": {"dtype": "uint8", "min": -2.4887769909466018, "scale": 0.014554251409044454, "original_dtype": "float32"}}, {"name": "bn5a_branch2a/moving_variance", "shape": [512], "dtype": "float32", "quantization": {"dtype": "uint8", "min": 0.480496883392334, "scale": 0.00536352138893277, "original_dtype": "float32"}}, {"name": "bn5a_branch2b/gamma", "shape": [512], "dtype": "float32", "quantization": {"dtype": "uint8", "min": 0.4557577669620514, "scale": 0.004259940572813445, "original_dtype": "float32"}}, {"name": "bn5a_branch2b/beta", "shape": [512], "dtype": "float32", "quantization": {"dtype": "uint8", "min": -1.8243408203125002, "scale": 0.0104248046875, "original_dtype": "float32"}}, {"name": "bn5a_branch2b/moving_mean", "shape": [512], "dtype": "float32", "quantization": {"dtype": "uint8", "min": -2.401713337617762, "scale": 0.013196227129767923, "original_dtype": "float32"}}, {"name": "bn5a_branch2b/moving_variance", "shape": [512], "dtype": "float32", "quantization": {"dtype": "uint8", "min": 0.1678875833749771, "scale": 0.0036803642324372836, "original_dtype": "float32"}}, {"name": "bn5a_branch2c/gamma", "shape": [2048], "dtype": "float32", "quantization": {"dtype": "uint8", "min": 0.8884433507919312, "scale": 0.010211021292443369, "original_dtype": "float32"}}, {"name": "bn5a_branch2c/beta", "shape": [2048], "dtype": "float32", "quantization": {"dtype": "uint8", "min": -1.805515895871555, "scale": 0.010942520581039727, "original_dtype": "float32"}}, {"name": "bn5a_branch2c/moving_mean", "shape": [2048], "dtype": "float32", "quantization": {"dtype": "uint8", "min": -0.5905624913234336, "scale": 0.005004766875622319, "original_dtype": "float32"}}, {"name": "bn5a_branch2c/moving_variance", "shape": [2048], "dtype": "float32", "quantization": {"dtype": "uint8", "min": 0.007425349205732346, "scale": 0.0007112999318861494, "original_dtype": "float32"}}, {"name": "bn5b_branch2a/gamma", "shape": [512], "dtype": "float32", "quantization": {"dtype": "uint8", "min": 0.39774012565612793, "scale": 0.004044647777781767, "original_dtype": "float32"}}, {"name": "bn5b_branch2a/beta", "shape": [512], "dtype": "float32", "quantization": {"dtype": "uint8", "min": -1.382709545247695, "scale": 0.00709081818075741, "original_dtype": "float32"}}, {"name": "bn5b_branch2a/moving_mean", "shape": [512], "dtype": "float32", "quantization": {"dtype": "uint8", "min": -4.960612519582113, "scale": 0.035687859853108725, "original_dtype": "float32"}}, {"name": "bn5b_branch2a/moving_variance", "shape": [512], "dtype": "float32", "quantization": {"dtype": "uint8", "min": 1.6245973110198975, "scale": 0.02873849027297076, "original_dtype": "float32"}}, {"name": "bn5b_branch2b/gamma", "shape": [512], "dtype": "float32", "quantization": {"dtype": "uint8", "min": 0.34943196177482605, "scale": 0.004707350099787993, "original_dtype": "float32"}}, {"name": "bn5b_branch2b/beta", "shape": [512], "dtype": "float32", "quantization": {"dtype": "uint8", "min": -1.863582505198086, "scale": 0.010772153209237492, "original_dtype": "float32"}}, {"name": "bn5b_branch2b/moving_mean", "shape": [512], "dtype": "float32", "quantization": {"dtype": "uint8", "min": -1.2159251255147596, "scale": 0.008385690520791446, "original_dtype": "float32"}}, {"name": "bn5b_branch2b/moving_variance", "shape": [512], "dtype": "float32", "quantization": {"dtype": "uint8", "min": 0.09389364719390869, "scale": 0.0011790023130529067, "original_dtype": "float32"}}, {"name": "bn5b_branch2c/gamma", "shape": [2048], "dtype": "float32", "quantization": {"dtype": "uint8", "min": 0.5736075043678284, "scale": 0.00891353172414443, "original_dtype": "float32"}}, {"name": "bn5b_branch2c/beta", "shape": [2048], "dtype": "float32", "quantization": {"dtype": "uint8", "min": -2.6330751645798776, "scale": 0.012479029216018378, "original_dtype": "float32"}}, {"name": "bn5b_branch2c/moving_mean", "shape": [2048], "dtype": "float32", "quantization": {"dtype": "uint8", "min": -0.4197201464690414, "scale": 0.004465107941160015, "original_dtype": "float32"}}, {"name": "bn5b_branch2c/moving_variance", "shape": [2048], "dtype": "float32", "quantization": {"dtype": "uint8", "min": 0.003206176683306694, "scale": 0.00021551924155038945, "original_dtype": "float32"}}, {"name": "bn5c_branch2a/gamma", "shape": [512], "dtype": "float32", "quantization": {"dtype": "uint8", "min": 0.36630937457084656, "scale": 0.0034622006556567025, "original_dtype": "float32"}}, {"name": "bn5c_branch2a/beta", "shape": [512], "dtype": "float32", "quantization": {"dtype": "uint8", "min": -1.6685365265490961, "scale": 0.00948032117357441, "original_dtype": "float32"}}, {"name": "bn5c_branch2a/moving_mean", "shape": [512], "dtype": "float32", "quantization": {"dtype": "uint8", "min": -2.134944433324477, "scale": 0.029245814155129824, "original_dtype": "float32"}}, {"name": "bn5c_branch2a/moving_variance", "shape": [512], "dtype": "float32", "quantization": {"dtype": "uint8", "min": 1.9676108360290527, "scale": 0.07313845952351888, "original_dtype": "float32"}}, {"name": "bn5c_branch2b/gamma", "shape": [512], "dtype": "float32", "quantization": {"dtype": "uint8", "min": 0.5163489580154419, "scale": 0.0032090930377735812, "original_dtype": "float32"}}, {"name": "bn5c_branch2b/beta", "shape": [512], "dtype": "float32", "quantization": {"dtype": "uint8", "min": -1.8670849800109863, "scale": 0.011968493461608887, "original_dtype": "float32"}}, {"name": "bn5c_branch2b/moving_mean", "shape": [512], "dtype": "float32", "quantization": {"dtype": "uint8", "min": -0.6359181035967434, "scale": 0.0041026974425596345, "original_dtype": "float32"}}, {"name": "bn5c_branch2b/moving_variance", "shape": [512], "dtype": "float32", "quantization": {"dtype": "uint8", "min": 0.06622914969921112, "scale": 0.00113393857198603, "original_dtype": "float32"}}, {"name": "bn5c_branch2c/gamma", "shape": [2048], "dtype": "float32", "quantization": {"dtype": "uint8", "min": 0.4347835183143616, "scale": 0.010346646168652702, "original_dtype": "float32"}}, {"name": "bn5c_branch2c/beta", "shape": [2048], "dtype": "float32", "quantization": {"dtype": "uint8", "min": -3.884742021560669, "scale": 0.014257884726804846, "original_dtype": "float32"}}, {"name": "bn5c_branch2c/moving_mean", "shape": [2048], "dtype": "float32", "quantization": {"dtype": "uint8", "min": -0.246233778256996, "scale": 0.0012959672539841894, "original_dtype": "float32"}}, {"name": "bn5c_branch2c/moving_variance", "shape": [2048], "dtype": "float32", "quantization": {"dtype": "uint8", "min": 0.0013256424572318792, "scale": 0.00016640974847855522, "original_dtype": "float32"}}, {"name": "bn_conv1/gamma", "shape": [64], "dtype": "float32", "quantization": {"dtype": "uint8", "min": 0.5126429200172424, "scale": 0.008454681611528583, "original_dtype": "float32"}}, {"name": "bn_conv1/beta", "shape": [64], "dtype": "float32", "quantization": {"dtype": "uint8", "min": -2.6492998179267437, "scale": 0.03532399757235658, "original_dtype": "float32"}}, {"name": "bn_conv1/moving_mean", "shape": [64], "dtype": "float32", "quantization": {"dtype": "uint8", "min": -3.5301476338330438, "scale": 0.026947691861320944, "original_dtype": "float32"}}, {"name": "bn_conv1/moving_variance", "shape": [64], "dtype": "float32", "quantization": {"dtype": "uint8", "min": 184.10784912109375, "scale": 327.1789275524663, "original_dtype": "float32"}}, {"name": "pyramid_classification_0/kernel", "shape": [3, 3, 256, 256], "dtype": "float32", "quantization": {"dtype": "uint8", "min": -0.04764587943460427, "scale": 0.00036370900331758984, "original_dtype": "float32"}}, {"name": "pyramid_classification_0/bias", "shape": [256], "dtype": "float32", "quantization": {"dtype": "uint8", "min": -8.623656262095798e-05, "scale": 1.30661458516603e-06, "original_dtype": "float32"}}, {"name": "pyramid_classification_1/kernel", "shape": [3, 3, 256, 256], "dtype": "float32", "quantization": {"dtype": "uint8", "min": -0.048673678569349586, "scale": 0.00036596750804022244, "original_dtype": "float32"}}, {"name": "pyramid_classification_1/bias", "shape": [256], "dtype": "float32", "quantization": {"dtype": "uint8", "min": -0.00032110507234784903, "scale": 3.2110507234784903e-06, "original_dtype": "float32"}}, {"name": "pyramid_classification_2/kernel", "shape": [3, 3, 256, 256], "dtype": "float32", "quantization": {"dtype": "uint8", "min": -0.05201282156448738, "scale": 0.00039107384634952917, "original_dtype": "float32"}}, {"name": "pyramid_classification_2/bias", "shape": [256], "dtype": "float32", "quantization": {"dtype": "uint8", "min": -0.0005187563673483537, "scale": 8.234228053148471e-06, "original_dtype": "float32"}}, {"name": "pyramid_classification_3/kernel", "shape": [3, 3, 256, 256], "dtype": "float32", "quantization": {"dtype": "uint8", "min": -0.045464371699912874, "scale": 0.00035519040390556933, "original_dtype": "float32"}}, {"name": "pyramid_classification_3/bias", "shape": [256], "dtype": "float32", "quantization": {"dtype": "uint8", "min": -0.0006256488667727978, "scale": 9.625367181119965e-06, "original_dtype": "float32"}}, {"name": "pyramid_classification/kernel", "shape": [3, 3, 256, 9], "dtype": "float32", "quantization": {"dtype": "uint8", "min": -0.04284415893694933, "scale": 0.00032457696164355556, "original_dtype": "float32"}}, {"name": "pyramid_classification/bias", "shape": [9], "dtype": "float32", "quantization": {"dtype": "uint8", "min": -4.602616310119629, "scale": 2.7993146110983455e-05, "original_dtype": "float32"}}, {"name": "conv1/kernel", "shape": [7, 7, 3, 64], "dtype": "float32", "quantization": {"dtype": "uint8", "min": -0.6687733865251728, "scale": 0.005393333762299781, "original_dtype": "float32"}}, {"name": "pyramid_regression_0/kernel", "shape": [3, 3, 256, 256], "dtype": "float32", "quantization": {"dtype": "uint8", "min": -0.04579278603196144, "scale": 0.000384813327999676, "original_dtype": "float32"}}, {"name": "pyramid_regression_0/bias", "shape": [256], "dtype": "float32", "quantization": {"dtype": "uint8", "min": -0.00030668186042092597, "scale": 2.341082903976534e-06, "original_dtype": "float32"}}, {"name": "pyramid_regression_1/kernel", "shape": [3, 3, 256, 256], "dtype": "float32", "quantization": {"dtype": "uint8", "min": -0.04822032793479807, "scale": 0.00038270101535554024, "original_dtype": "float32"}}, {"name": "pyramid_regression_1/bias", "shape": [256], "dtype": "float32", "quantization": {"dtype": "uint8", "min": -0.000734928893107994, "scale": 5.741631977406203e-06, "original_dtype": "float32"}}, {"name": "pyramid_regression_2/kernel", "shape": [3, 3, 256, 256], "dtype": "float32", "quantization": {"dtype": "uint8", "min": -0.055656882390087724, "scale": 0.0004153498685827442, "original_dtype": "float32"}}, {"name": "pyramid_regression_2/bias", "shape": [256], "dtype": "float32", "quantization": {"dtype": "uint8", "min": -0.0006363327067126246, "scale": 7.231053485370734e-06, "original_dtype": "float32"}}, {"name": "pyramid_regression_3/kernel", "shape": [3, 3, 256, 256], "dtype": "float32", "quantization": {"dtype": "uint8", "min": -0.04745293218715518, "scale": 0.0003650225552858091, "original_dtype": "float32"}}, {"name": "pyramid_regression_3/bias", "shape": [256], "dtype": "float32", "quantization": {"dtype": "uint8", "min": -0.0009819814017699923, "scale": 9.91900405828275e-06, "original_dtype": "float32"}}, {"name": "pyramid_regression/kernel", "shape": [3, 3, 256, 36], "dtype": "float32", "quantization": {"dtype": "uint8", "min": -0.04252652205965098, "scale": 0.0003296629617027208, "original_dtype": "float32"}}, {"name": "pyramid_regression/bias", "shape": [36], "dtype": "float32", "quantization": {"dtype": "uint8", "min": -0.001309458940636878, "scale": 1.0230147973725609e-05, "original_dtype": "float32"}}, {"name": "res2a_branch1/kernel", "shape": [1, 1, 64, 256], "dtype": "float32", "quantization": {"dtype": "uint8", "min": -0.7748182553871005, "scale": 0.006566256401585598, "original_dtype": "float32"}}, {"name": "res2a_branch2a/kernel", "shape": [1, 1, 64, 64], "dtype": "float32", "quantization": {"dtype": "uint8", "min": -0.7186040685457342, "scale": 0.00435517617300445, "original_dtype": "float32"}}, {"name": "res2a_branch2b/kernel", "shape": [3, 3, 64, 64], "dtype": "float32", "quantization": {"dtype": "uint8", "min": -0.39063769228318157, "scale": 0.0029593764566907695, "original_dtype": "float32"}}, {"name": "res2a_branch2c/kernel", "shape": [1, 1, 64, 256], "dtype": "float32", "quantization": {"dtype": "uint8", "min": -0.39762538274129233, "scale": 0.002923716049568326, "original_dtype": "float32"}}, {"name": "res2b_branch2a/kernel", "shape": [1, 1, 256, 64], "dtype": "float32", "quantization": {"dtype": "uint8", "min": -0.2958857067659789, "scale": 0.0020266144299039652, "original_dtype": "float32"}}, {"name": "res2b_branch2b/kernel", "shape": [3, 3, 64, 64], "dtype": "float32", "quantization": {"dtype": "uint8", "min": -0.240811428603004, "scale": 0.0021891948054818546, "original_dtype": "float32"}}, {"name": "res2b_branch2c/kernel", "shape": [1, 1, 64, 256], "dtype": "float32", "quantization": {"dtype": "uint8", "min": -0.24019717363750234, "scale": 0.0020355692681144266, "original_dtype": "float32"}}, {"name": "res2c_branch2a/kernel", "shape": [1, 1, 256, 64], "dtype": "float32", "quantization": {"dtype": "uint8", "min": -0.2100449092247907, "scale": 0.0018588045064140768, "original_dtype": "float32"}}, {"name": "res2c_branch2b/kernel", "shape": [3, 3, 64, 64], "dtype": "float32", "quantization": {"dtype": "uint8", "min": -0.2188039657532, "scale": 0.0016451425996481203, "original_dtype": "float32"}}, {"name": "res2c_branch2c/kernel", "shape": [1, 1, 64, 256], "dtype": "float32", "quantization": {"dtype": "uint8", "min": -0.2746803882075291, "scale": 0.002452503466138653, "original_dtype": "float32"}}, {"name": "res3a_branch1/kernel", "shape": [1, 1, 256, 512], "dtype": "float32", "quantization": {"dtype": "uint8", "min": -0.4653471353007298, "scale": 0.004349038647670372, "original_dtype": "float32"}}, {"name": "res3a_branch2a/kernel", "shape": [1, 1, 256, 128], "dtype": "float32", "quantization": {"dtype": "uint8", "min": -0.3327850358158934, "scale": 0.002483470416536518, "original_dtype": "float32"}}, {"name": "res3a_branch2b/kernel", "shape": [3, 3, 128, 128], "dtype": "float32", "quantization": {"dtype": "uint8", "min": -0.38494794964790346, "scale": 0.0029840926329294843, "original_dtype": "float32"}}, {"name": "res3a_branch2c/kernel", "shape": [1, 1, 128, 512], "dtype": "float32", "quantization": {"dtype": "uint8", "min": -0.3740488968643488, "scale": 0.003169905905630074, "original_dtype": "float32"}}, {"name": "res3b_branch2a/kernel", "shape": [1, 1, 512, 128], "dtype": "float32", "quantization": {"dtype": "uint8", "min": -0.16233111316082524, "scale": 0.0013994061479381487, "original_dtype": "float32"}}, {"name": "res3b_branch2b/kernel", "shape": [3, 3, 128, 128], "dtype": "float32", "quantization": {"dtype": "uint8", "min": -0.17580324195179287, "scale": 0.0013842774956834083, "original_dtype": "float32"}}, {"name": "res3b_branch2c/kernel", "shape": [1, 1, 128, 512], "dtype": "float32", "quantization": {"dtype": "uint8", "min": -0.3436115734717425, "scale": 0.0026636556083080814, "original_dtype": "float32"}}, {"name": "res3c_branch2a/kernel", "shape": [1, 1, 512, 128], "dtype": "float32", "quantization": {"dtype": "uint8", "min": -0.32858649422140684, "scale": 0.00273822078517839, "original_dtype": "float32"}}, {"name": "res3c_branch2b/kernel", "shape": [3, 3, 128, 128], "dtype": "float32", "quantization": {"dtype": "uint8", "min": -0.32643239895502724, "scale": 0.002743129402983422, "original_dtype": "float32"}}, {"name": "res3c_branch2c/kernel", "shape": [1, 1, 128, 512], "dtype": "float32", "quantization": {"dtype": "uint8", "min": -0.2874532767954995, "scale": 0.002038675721953897, "original_dtype": "float32"}}, {"name": "res3d_branch2a/kernel", "shape": [1, 1, 512, 128], "dtype": "float32", "quantization": {"dtype": "uint8", "min": -0.29763419020409676, "scale": 0.00252232364579743, "original_dtype": "float32"}}, {"name": "res3d_branch2b/kernel", "shape": [3, 3, 128, 128], "dtype": "float32", "quantization": {"dtype": "uint8", "min": -0.2720802531522863, "scale": 0.0018894462024464326, "original_dtype": "float32"}}, {"name": "res3d_branch2c/kernel", "shape": [1, 1, 128, 512], "dtype": "float32", "quantization": {"dtype": "uint8", "min": -0.2788880988663318, "scale": 0.0021959692824120615, "original_dtype": "float32"}}, {"name": "res4a_branch1/kernel", "shape": [1, 1, 512, 1024], "dtype": "float32", "quantization": {"dtype": "uint8", "min": -0.3339947888664171, "scale": 0.002955706096162983, "original_dtype": "float32"}}, {"name": "res4a_branch2a/kernel", "shape": [1, 1, 512, 256], "dtype": "float32", "quantization": {"dtype": "uint8", "min": -0.23079565687506806, "scale": 0.002240734532767651, "original_dtype": "float32"}}, {"name": "res4a_branch2b/kernel", "shape": [3, 3, 256, 256], "dtype": "float32", "quantization": {"dtype": "uint8", "min": -0.2678142964839935, "scale": 0.001750420238457474, "original_dtype": "float32"}}, {"name": "res4a_branch2c/kernel", "shape": [1, 1, 256, 1024], "dtype": "float32", "quantization": {"dtype": "uint8", "min": -0.33192178969289743, "scale": 0.0028128965228211645, "original_dtype": "float32"}}, {"name": "res4b_branch2a/kernel", "shape": [1, 1, 1024, 256], "dtype": "float32", "quantization": {"dtype": "uint8", "min": -0.19665542653962675, "scale": 0.001695305401203679, "original_dtype": "float32"}}, {"name": "res4b_branch2b/kernel", "shape": [3, 3, 256, 256], "dtype": "float32", "quantization": {"dtype": "uint8", "min": -0.4364724551930147, "scale": 0.0024799571317784927, "original_dtype": "float32"}}, {"name": "res4b_branch2c/kernel", "shape": [1, 1, 256, 1024], "dtype": "float32", "quantization": {"dtype": "uint8", "min": -0.43713373202903594, "scale": 0.0028758798159804998, "original_dtype": "float32"}}, {"name": "res4c_branch2a/kernel", "shape": [1, 1, 1024, 256], "dtype": "float32", "quantization": {"dtype": "uint8", "min": -0.3862545331319173, "scale": 0.002840106861264098, "original_dtype": "float32"}}, {"name": "res4c_branch2b/kernel", "shape": [3, 3, 256, 256], "dtype": "float32", "quantization": {"dtype": "uint8", "min": -0.16403686281512767, "scale": 0.0016569380082336127, "original_dtype": "float32"}}, {"name": "res4c_branch2c/kernel", "shape": [1, 1, 256, 1024], "dtype": "float32", "quantization": {"dtype": "uint8", "min": -0.2893805648766312, "scale": 0.002159556454303218, "original_dtype": "float32"}}, {"name": "res4d_branch2a/kernel", "shape": [1, 1, 1024, 256], "dtype": "float32", "quantization": {"dtype": "uint8", "min": -0.19379497252258598, "scale": 0.0019187621041840198, "original_dtype": "float32"}}, {"name": "res4d_branch2b/kernel", "shape": [3, 3, 256, 256], "dtype": "float32", "quantization": {"dtype": "uint8", "min": -0.20103693803151448, "scale": 0.0014782127796434889, "original_dtype": "float32"}}, {"name": "res4d_branch2c/kernel", "shape": [1, 1, 256, 1024], "dtype": "float32", "quantization": {"dtype": "uint8", "min": -0.2056924160789041, "scale": 0.001743156068465289, "original_dtype": "float32"}}, {"name": "res4e_branch2a/kernel", "shape": [1, 1, 1024, 256], "dtype": "float32", "quantization": {"dtype": "uint8", "min": -0.22551875815672034, "scale": 0.0020881366495992624, "original_dtype": "float32"}}, {"name": "res4e_branch2b/kernel", "shape": [3, 3, 256, 256], "dtype": "float32", "quantization": {"dtype": "uint8", "min": -0.14684395766725727, "scale": 0.0014539005709629433, "original_dtype": "float32"}}, {"name": "res4e_branch2c/kernel", "shape": [1, 1, 256, 1024], "dtype": "float32", "quantization": {"dtype": "uint8", "min": -0.1773380398750305, "scale": 0.0017386082340689266, "original_dtype": "float32"}}, {"name": "res4f_branch2a/kernel", "shape": [1, 1, 1024, 256], "dtype": "float32", "quantization": {"dtype": "uint8", "min": -0.15342599872280568, "scale": 0.0018941481323803172, "original_dtype": "float32"}}, {"name": "res4f_branch2b/kernel", "shape": [3, 3, 256, 256], "dtype": "float32", "quantization": {"dtype": "uint8", "min": -0.29271615521580563, "scale": 0.002234474467296226, "original_dtype": "float32"}}, {"name": "res4f_branch2c/kernel", "shape": [1, 1, 256, 1024], "dtype": "float32", "quantization": {"dtype": "uint8", "min": -0.23301407063708585, "scale": 0.0020620714215671314, "original_dtype": "float32"}}, {"name": "res5a_branch1/kernel", "shape": [1, 1, 1024, 2048], "dtype": "float32", "quantization": {"dtype": "uint8", "min": -0.6225454674047581, "scale": 0.004264010050717522, "original_dtype": "float32"}}, {"name": "res5a_branch2a/kernel", "shape": [1, 1, 1024, 512], "dtype": "float32", "quantization": {"dtype": "uint8", "min": -0.18382503664961047, "scale": 0.0020200553477979174, "original_dtype": "float32"}}, {"name": "res5a_branch2b/kernel", "shape": [3, 3, 512, 512], "dtype": "float32", "quantization": {"dtype": "uint8", "min": -0.17467421059514962, "scale": 0.0017467421059514962, "original_dtype": "float32"}}, {"name": "res5a_branch2c/kernel", "shape": [1, 1, 512, 2048], "dtype": "float32", "quantization": {"dtype": "uint8", "min": -0.3325201048570521, "scale": 0.0029956766203338026, "original_dtype": "float32"}}, {"name": "res5b_branch2a/kernel", "shape": [1, 1, 2048, 512], "dtype": "float32", "quantization": {"dtype": "uint8", "min": -0.31467092387816487, "scale": 0.003496343598646276, "original_dtype": "float32"}}, {"name": "res5b_branch2b/kernel", "shape": [3, 3, 512, 512], "dtype": "float32", "quantization": {"dtype": "uint8", "min": -0.21804150903926175, "scale": 0.0019643379192726285, "original_dtype": "float32"}}, {"name": "res5b_branch2c/kernel", "shape": [1, 1, 512, 2048], "dtype": "float32", "quantization": {"dtype": "uint8", "min": -0.19975384035531213, "scale": 0.0018668583210776834, "original_dtype": "float32"}}, {"name": "res5c_branch2a/kernel", "shape": [1, 1, 2048, 512], "dtype": "float32", "quantization": {"dtype": "uint8", "min": -0.2899341714148428, "scale": 0.0031514583849439433, "original_dtype": "float32"}}, {"name": "res5c_branch2b/kernel", "shape": [3, 3, 512, 512], "dtype": "float32", "quantization": {"dtype": "uint8", "min": -0.14206206868676577, "scale": 0.0011185989660375257, "original_dtype": "float32"}}, {"name": "res5c_branch2c/kernel", "shape": [1, 1, 512, 2048], "dtype": "float32", "quantization": {"dtype": "uint8", "min": -0.13460580881904155, "scale": 0.0017038709977093866, "original_dtype": "float32"}}]}]}