{"format": "graph-model", "generatedBy": "2.2.0", "convertedBy": "TensorFlow.js Converter v2.0.1.post1", "userDefinedMetadata": {"signature": {"inputs": {"input_1:0": {"name": "input_1:0", "dtype": "DT_FLOAT", "tensorShape": {"dim": [{"size": "-1"}, {"size": "-1"}, {"size": "-1"}, {"size": "3"}]}}}, "outputs": {"Identity_1:0": {"name": "Identity_1:0", "dtype": "DT_FLOAT", "tensorShape": {"dim": [{"size": "-1"}, {"size": "-1"}, {"size": "-1"}, {"size": "18"}]}}, "Identity:0": {"name": "Identity:0", "dtype": "DT_FLOAT", "tensorShape": {"dim": [{"size": "-1"}, {"size": "-1"}, {"size": "-1"}, {"size": "18"}]}}, "Identity_2:0": {"name": "Identity_2:0", "dtype": "DT_FLOAT", "tensorShape": {"dim": [{"size": "-1"}, {"size": "-1"}, {"size": "-1"}, {"size": "18"}]}}}}}, "modelTopology": {"node": [{"name": "input_1", "op": "Placeholder", "attr": {"shape": {"shape": {"dim": [{"size": "-1"}, {"size": "-1"}, {"size": "-1"}, {"size": "3"}]}}, "dtype": {"type": "DT_FLOAT"}}}, {"name": "StatefulPartitionedCall/model_2/conv2d_1/Conv2D_weights", "op": "Const", "attr": {"value": {"tensor": {"dtype": "DT_FLOAT", "tensorShape": {"dim": [{"size": "3"}, {"size": "3"}, {"size": "3"}, {"size": "32"}]}}}, "dtype": {"type": "DT_FLOAT"}}}, {"name": "StatefulPartitionedCall/model_2/conv2d_1/Conv2D_bn_offset", "op": "Const", "attr": {"dtype": {"type": "DT_FLOAT"}, "value": {"tensor": {"dtype": "DT_FLOAT", "tensorShape": {"dim": [{"size": "32"}]}}}}}, {"name": "StatefulPartitionedCall/model_2/conv2d_2/Conv2D_weights", "op": "Const", "attr": {"value": {"tensor": {"dtype": "DT_FLOAT", "tensorShape": {"dim": [{"size": "3"}, {"size": "3"}, {"size": "32"}, {"size": "64"}]}}}, "dtype": {"type": "DT_FLOAT"}}}, {"name": "StatefulPartitionedCall/model_2/conv2d_61/Conv2D_bn_offset", "op": "Const", "attr": {"dtype": {"type": "DT_FLOAT"}, "value": {"tensor": {"dtype": "DT_FLOAT", "tensorShape": {"dim": [{"size": "256"}]}}}}}, {"name": "StatefulPartitionedCall/model_2/conv2d_2/Conv2D_bn_offset", "op": "Const", "attr": {"value": {"tensor": {"dtype": "DT_FLOAT", "tensorShape": {"dim": [{"size": "64"}]}}}, "dtype": {"type": "DT_FLOAT"}}}, {"name": "StatefulPartitionedCall/model_2/conv2d_3/Conv2D_weights", "op": "Const", "attr": {"dtype": {"type": "DT_FLOAT"}, "value": {"tensor": {"dtype": "DT_FLOAT", "tensorShape": {"dim": [{"size": "1"}, {"size": "1"}, {"size": "64"}, {"size": "32"}]}}}}}, {"name": "StatefulPartitionedCall/model_2/conv2d_3/Conv2D_bn_offset", "op": "Const", "attr": {"value": {"tensor": {"dtype": "DT_FLOAT", "tensorShape": {"dim": [{"size": "32"}]}}}, "dtype": {"type": "DT_FLOAT"}}}, {"name": "StatefulPartitionedCall/model_2/conv2d_4/Conv2D_weights", "op": "Const", "attr": {"dtype": {"type": "DT_FLOAT"}, "value": {"tensor": {"dtype": "DT_FLOAT", "tensorShape": {"dim": [{"size": "3"}, {"size": "3"}, {"size": "32"}, {"size": "64"}]}}}}}, {"name": "StatefulPartitionedCall/model_2/conv2d_4/Conv2D_bn_offset", "op": "Const", "attr": {"dtype": {"type": "DT_FLOAT"}, "value": {"tensor": {"dtype": "DT_FLOAT", "tensorShape": {"dim": [{"size": "64"}]}}}}}, {"name": "StatefulPartitionedCall/model_2/conv2d_5/Conv2D_weights", "op": "Const", "attr": {"dtype": {"type": "DT_FLOAT"}, "value": {"tensor": {"dtype": "DT_FLOAT", "tensorShape": {"dim": [{"size": "3"}, {"size": "3"}, {"size": "64"}, {"size": "128"}]}}}}}, {"name": "StatefulPartitionedCall/model_2/conv2d_62/Conv2D_weights", "op": "Const", "attr": {"value": {"tensor": {"dtype": "DT_FLOAT", "tensorShape": {"dim": [{"size": "3"}, {"size": "3"}, {"size": "256"}, {"size": "512"}]}}}, "dtype": {"type": "DT_FLOAT"}}}, {"name": "StatefulPartitionedCall/model_2/conv2d_5/Conv2D_bn_offset", "op": "Const", "attr": {"dtype": {"type": "DT_FLOAT"}, "value": {"tensor": {"dtype": "DT_FLOAT", "tensorShape": {"dim": [{"size": "128"}]}}}}}, {"name": "StatefulPartitionedCall/model_2/conv2d_6/Conv2D_weights", "op": "Const", "attr": {"value": {"tensor": {"dtype": "DT_FLOAT", "tensorShape": {"dim": [{"size": "1"}, {"size": "1"}, {"size": "128"}, {"size": "64"}]}}}, "dtype": {"type": "DT_FLOAT"}}}, {"name": "StatefulPartitionedCall/model_2/conv2d_6/Conv2D_bn_offset", "op": "Const", "attr": {"dtype": {"type": "DT_FLOAT"}, "value": {"tensor": {"dtype": "DT_FLOAT", "tensorShape": {"dim": [{"size": "64"}]}}}}}, {"name": "StatefulPartitionedCall/model_2/conv2d_7/Conv2D_weights", "op": "Const", "attr": {"value": {"tensor": {"dtype": "DT_FLOAT", "tensorShape": {"dim": [{"size": "3"}, {"size": "3"}, {"size": "64"}, {"size": "128"}]}}}, "dtype": {"type": "DT_FLOAT"}}}, {"name": "StatefulPartitionedCall/model_2/conv2d_62/Conv2D_bn_offset", "op": "Const", "attr": {"dtype": {"type": "DT_FLOAT"}, "value": {"tensor": {"dtype": "DT_FLOAT", "tensorShape": {"dim": [{"size": "512"}]}}}}}, {"name": "StatefulPartitionedCall/model_2/conv2d_7/Conv2D_bn_offset", "op": "Const", "attr": {"dtype": {"type": "DT_FLOAT"}, "value": {"tensor": {"dtype": "DT_FLOAT", "tensorShape": {"dim": [{"size": "128"}]}}}}}, {"name": "StatefulPartitionedCall/model_2/conv2d_8/Conv2D_weights", "op": "Const", "attr": {"value": {"tensor": {"dtype": "DT_FLOAT", "tensorShape": {"dim": [{"size": "1"}, {"size": "1"}, {"size": "128"}, {"size": "64"}]}}}, "dtype": {"type": "DT_FLOAT"}}}, {"name": "StatefulPartitionedCall/model_2/conv2d_8/Conv2D_bn_offset", "op": "Const", "attr": {"value": {"tensor": {"dtype": "DT_FLOAT", "tensorShape": {"dim": [{"size": "64"}]}}}, "dtype": {"type": "DT_FLOAT"}}}, {"name": "StatefulPartitionedCall/model_2/conv2d_9/Conv2D_weights", "op": "Const", "attr": {"dtype": {"type": "DT_FLOAT"}, "value": {"tensor": {"dtype": "DT_FLOAT", "tensorShape": {"dim": [{"size": "3"}, {"size": "3"}, {"size": "64"}, {"size": "128"}]}}}}}, {"name": "StatefulPartitionedCall/model_2/conv2d_9/Conv2D_bn_offset", "op": "Const", "attr": {"value": {"tensor": {"dtype": "DT_FLOAT", "tensorShape": {"dim": [{"size": "128"}]}}}, "dtype": {"type": "DT_FLOAT"}}}, {"name": "StatefulPartitionedCall/model_2/conv2d_10/Conv2D_weights", "op": "Const", "attr": {"dtype": {"type": "DT_FLOAT"}, "value": {"tensor": {"dtype": "DT_FLOAT", "tensorShape": {"dim": [{"size": "3"}, {"size": "3"}, {"size": "128"}, {"size": "256"}]}}}}}, {"name": "StatefulPartitionedCall/model_2/conv2d_63/Conv2D_weights", "op": "Const", "attr": {"value": {"tensor": {"dtype": "DT_FLOAT", "tensorShape": {"dim": [{"size": "1"}, {"size": "1"}, {"size": "512"}, {"size": "256"}]}}}, "dtype": {"type": "DT_FLOAT"}}}, {"name": "StatefulPartitionedCall/model_2/conv2d_10/Conv2D_bn_offset", "op": "Const", "attr": {"value": {"tensor": {"dtype": "DT_FLOAT", "tensorShape": {"dim": [{"size": "256"}]}}}, "dtype": {"type": "DT_FLOAT"}}}, {"name": "StatefulPartitionedCall/model_2/conv2d_11/Conv2D_weights", "op": "Const", "attr": {"value": {"tensor": {"dtype": "DT_FLOAT", "tensorShape": {"dim": [{"size": "1"}, {"size": "1"}, {"size": "256"}, {"size": "128"}]}}}, "dtype": {"type": "DT_FLOAT"}}}, {"name": "StatefulPartitionedCall/model_2/conv2d_73/Conv2D_weights", "op": "Const", "attr": {"value": {"tensor": {"dtype": "DT_FLOAT", "tensorShape": {"dim": [{"size": "1"}, {"size": "1"}, {"size": "256"}, {"size": "128"}]}}}, "dtype": {"type": "DT_FLOAT"}}}, {"name": "StatefulPartitionedCall/model_2/conv2d_11/Conv2D_bn_offset", "op": "Const", "attr": {"dtype": {"type": "DT_FLOAT"}, "value": {"tensor": {"dtype": "DT_FLOAT", "tensorShape": {"dim": [{"size": "128"}]}}}}}, {"name": "StatefulPartitionedCall/model_2/conv2d_12/Conv2D_weights", "op": "Const", "attr": {"value": {"tensor": {"dtype": "DT_FLOAT", "tensorShape": {"dim": [{"size": "3"}, {"size": "3"}, {"size": "128"}, {"size": "256"}]}}}, "dtype": {"type": "DT_FLOAT"}}}, {"name": "StatefulPartitionedCall/model_2/conv2d_63/Conv2D_bn_offset", "op": "Const", "attr": {"value": {"tensor": {"dtype": "DT_FLOAT", "tensorShape": {"dim": [{"size": "256"}]}}}, "dtype": {"type": "DT_FLOAT"}}}, {"name": "StatefulPartitionedCall/model_2/conv2d_12/Conv2D_bn_offset", "op": "Const", "attr": {"dtype": {"type": "DT_FLOAT"}, "value": {"tensor": {"dtype": "DT_FLOAT", "tensorShape": {"dim": [{"size": "256"}]}}}}}, {"name": "StatefulPartitionedCall/model_2/conv2d_13/Conv2D_weights", "op": "Const", "attr": {"dtype": {"type": "DT_FLOAT"}, "value": {"tensor": {"dtype": "DT_FLOAT", "tensorShape": {"dim": [{"size": "1"}, {"size": "1"}, {"size": "256"}, {"size": "128"}]}}}}}, {"name": "StatefulPartitionedCall/model_2/conv2d_13/Conv2D_bn_offset", "op": "Const", "attr": {"dtype": {"type": "DT_FLOAT"}, "value": {"tensor": {"dtype": "DT_FLOAT", "tensorShape": {"dim": [{"size": "128"}]}}}}}, {"name": "StatefulPartitionedCall/model_2/conv2d_14/Conv2D_weights", "op": "Const", "attr": {"dtype": {"type": "DT_FLOAT"}, "value": {"tensor": {"dtype": "DT_FLOAT", "tensorShape": {"dim": [{"size": "3"}, {"size": "3"}, {"size": "128"}, {"size": "256"}]}}}}}, {"name": "StatefulPartitionedCall/model_2/conv2d_14/Conv2D_bn_offset", "op": "Const", "attr": {"value": {"tensor": {"dtype": "DT_FLOAT", "tensorShape": {"dim": [{"size": "256"}]}}}, "dtype": {"type": "DT_FLOAT"}}}, {"name": "StatefulPartitionedCall/model_2/conv2d_15/Conv2D_weights", "op": "Const", "attr": {"dtype": {"type": "DT_FLOAT"}, "value": {"tensor": {"dtype": "DT_FLOAT", "tensorShape": {"dim": [{"size": "1"}, {"size": "1"}, {"size": "256"}, {"size": "128"}]}}}}}, {"name": "StatefulPartitionedCall/model_2/conv2d_64/Conv2D_weights", "op": "Const", "attr": {"dtype": {"type": "DT_FLOAT"}, "value": {"tensor": {"dtype": "DT_FLOAT", "tensorShape": {"dim": [{"size": "3"}, {"size": "3"}, {"size": "256"}, {"size": "512"}]}}}}}, {"name": "StatefulPartitionedCall/model_2/conv2d_15/Conv2D_bn_offset", "op": "Const", "attr": {"value": {"tensor": {"dtype": "DT_FLOAT", "tensorShape": {"dim": [{"size": "128"}]}}}, "dtype": {"type": "DT_FLOAT"}}}, {"name": "StatefulPartitionedCall/model_2/conv2d_16/Conv2D_weights", "op": "Const", "attr": {"value": {"tensor": {"dtype": "DT_FLOAT", "tensorShape": {"dim": [{"size": "3"}, {"size": "3"}, {"size": "128"}, {"size": "256"}]}}}, "dtype": {"type": "DT_FLOAT"}}}, {"name": "StatefulPartitionedCall/model_2/conv2d_16/Conv2D_bn_offset", "op": "Const", "attr": {"value": {"tensor": {"dtype": "DT_FLOAT", "tensorShape": {"dim": [{"size": "256"}]}}}, "dtype": {"type": "DT_FLOAT"}}}, {"name": "StatefulPartitionedCall/model_2/conv2d_17/Conv2D_weights", "op": "Const", "attr": {"dtype": {"type": "DT_FLOAT"}, "value": {"tensor": {"dtype": "DT_FLOAT", "tensorShape": {"dim": [{"size": "1"}, {"size": "1"}, {"size": "256"}, {"size": "128"}]}}}}}, {"name": "StatefulPartitionedCall/model_2/conv2d_64/Conv2D_bn_offset", "op": "Const", "attr": {"value": {"tensor": {"dtype": "DT_FLOAT", "tensorShape": {"dim": [{"size": "512"}]}}}, "dtype": {"type": "DT_FLOAT"}}}, {"name": "StatefulPartitionedCall/model_2/conv2d_17/Conv2D_bn_offset", "op": "Const", "attr": {"dtype": {"type": "DT_FLOAT"}, "value": {"tensor": {"dtype": "DT_FLOAT", "tensorShape": {"dim": [{"size": "128"}]}}}}}, {"name": "StatefulPartitionedCall/model_2/conv2d_18/Conv2D_weights", "op": "Const", "attr": {"value": {"tensor": {"dtype": "DT_FLOAT", "tensorShape": {"dim": [{"size": "3"}, {"size": "3"}, {"size": "128"}, {"size": "256"}]}}}, "dtype": {"type": "DT_FLOAT"}}}, {"name": "StatefulPartitionedCall/model_2/conv2d_18/Conv2D_bn_offset", "op": "Const", "attr": {"value": {"tensor": {"dtype": "DT_FLOAT", "tensorShape": {"dim": [{"size": "256"}]}}}, "dtype": {"type": "DT_FLOAT"}}}, {"name": "StatefulPartitionedCall/model_2/conv2d_19/Conv2D_weights", "op": "Const", "attr": {"dtype": {"type": "DT_FLOAT"}, "value": {"tensor": {"dtype": "DT_FLOAT", "tensorShape": {"dim": [{"size": "1"}, {"size": "1"}, {"size": "256"}, {"size": "128"}]}}}}}, {"name": "StatefulPartitionedCall/model_2/conv2d_19/Conv2D_bn_offset", "op": "Const", "attr": {"dtype": {"type": "DT_FLOAT"}, "value": {"tensor": {"dtype": "DT_FLOAT", "tensorShape": {"dim": [{"size": "128"}]}}}}}, {"name": "StatefulPartitionedCall/model_2/conv2d_20/Conv2D_weights", "op": "Const", "attr": {"dtype": {"type": "DT_FLOAT"}, "value": {"tensor": {"dtype": "DT_FLOAT", "tensorShape": {"dim": [{"size": "3"}, {"size": "3"}, {"size": "128"}, {"size": "256"}]}}}}}, {"name": "StatefulPartitionedCall/model_2/conv2d_65/Conv2D_weights", "op": "Const", "attr": {"value": {"tensor": {"dtype": "DT_FLOAT", "tensorShape": {"dim": [{"size": "1"}, {"size": "1"}, {"size": "512"}, {"size": "256"}]}}}, "dtype": {"type": "DT_FLOAT"}}}, {"name": "StatefulPartitionedCall/model_2/conv2d_20/Conv2D_bn_offset", "op": "Const", "attr": {"dtype": {"type": "DT_FLOAT"}, "value": {"tensor": {"dtype": "DT_FLOAT", "tensorShape": {"dim": [{"size": "256"}]}}}}}, {"name": "StatefulPartitionedCall/model_2/conv2d_21/Conv2D_weights", "op": "Const", "attr": {"value": {"tensor": {"dtype": "DT_FLOAT", "tensorShape": {"dim": [{"size": "1"}, {"size": "1"}, {"size": "256"}, {"size": "128"}]}}}, "dtype": {"type": "DT_FLOAT"}}}, {"name": "StatefulPartitionedCall/model_2/conv2d_73/Conv2D_bn_offset", "op": "Const", "attr": {"dtype": {"type": "DT_FLOAT"}, "value": {"tensor": {"dtype": "DT_FLOAT", "tensorShape": {"dim": [{"size": "128"}]}}}}}, {"name": "StatefulPartitionedCall/model_2/conv2d_21/Conv2D_bn_offset", "op": "Const", "attr": {"dtype": {"type": "DT_FLOAT"}, "value": {"tensor": {"dtype": "DT_FLOAT", "tensorShape": {"dim": [{"size": "128"}]}}}}}, {"name": "StatefulPartitionedCall/model_2/conv2d_22/Conv2D_weights", "op": "Const", "attr": {"dtype": {"type": "DT_FLOAT"}, "value": {"tensor": {"dtype": "DT_FLOAT", "tensorShape": {"dim": [{"size": "3"}, {"size": "3"}, {"size": "128"}, {"size": "256"}]}}}}}, {"name": "StatefulPartitionedCall/model_2/conv2d_65/Conv2D_bn_offset", "op": "Const", "attr": {"dtype": {"type": "DT_FLOAT"}, "value": {"tensor": {"dtype": "DT_FLOAT", "tensorShape": {"dim": [{"size": "256"}]}}}}}, {"name": "StatefulPartitionedCall/model_2/conv2d_22/Conv2D_bn_offset", "op": "Const", "attr": {"value": {"tensor": {"dtype": "DT_FLOAT", "tensorShape": {"dim": [{"size": "256"}]}}}, "dtype": {"type": "DT_FLOAT"}}}, {"name": "StatefulPartitionedCall/model_2/conv2d_23/Conv2D_weights", "op": "Const", "attr": {"dtype": {"type": "DT_FLOAT"}, "value": {"tensor": {"dtype": "DT_FLOAT", "tensorShape": {"dim": [{"size": "1"}, {"size": "1"}, {"size": "256"}, {"size": "128"}]}}}}}, {"name": "StatefulPartitionedCall/model_2/conv2d_23/Conv2D_bn_offset", "op": "Const", "attr": {"value": {"tensor": {"dtype": "DT_FLOAT", "tensorShape": {"dim": [{"size": "128"}]}}}, "dtype": {"type": "DT_FLOAT"}}}, {"name": "StatefulPartitionedCall/model_2/conv2d_24/Conv2D_weights", "op": "Const", "attr": {"value": {"tensor": {"dtype": "DT_FLOAT", "tensorShape": {"dim": [{"size": "3"}, {"size": "3"}, {"size": "128"}, {"size": "256"}]}}}, "dtype": {"type": "DT_FLOAT"}}}, {"name": "StatefulPartitionedCall/model_2/conv2d_24/Conv2D_bn_offset", "op": "Const", "attr": {"value": {"tensor": {"dtype": "DT_FLOAT", "tensorShape": {"dim": [{"size": "256"}]}}}, "dtype": {"type": "DT_FLOAT"}}}, {"name": "StatefulPartitionedCall/model_2/conv2d_25/Conv2D_weights", "op": "Const", "attr": {"dtype": {"type": "DT_FLOAT"}, "value": {"tensor": {"dtype": "DT_FLOAT", "tensorShape": {"dim": [{"size": "1"}, {"size": "1"}, {"size": "256"}, {"size": "128"}]}}}}}, {"name": "StatefulPartitionedCall/model_2/conv2d_66/Conv2D_weights", "op": "Const", "attr": {"value": {"tensor": {"dtype": "DT_FLOAT", "tensorShape": {"dim": [{"size": "3"}, {"size": "3"}, {"size": "256"}, {"size": "512"}]}}}, "dtype": {"type": "DT_FLOAT"}}}, {"name": "StatefulPartitionedCall/model_2/conv2d_25/Conv2D_bn_offset", "op": "Const", "attr": {"dtype": {"type": "DT_FLOAT"}, "value": {"tensor": {"dtype": "DT_FLOAT", "tensorShape": {"dim": [{"size": "128"}]}}}}}, {"name": "StatefulPartitionedCall/model_2/conv2d_26/Conv2D_weights", "op": "Const", "attr": {"dtype": {"type": "DT_FLOAT"}, "value": {"tensor": {"dtype": "DT_FLOAT", "tensorShape": {"dim": [{"size": "3"}, {"size": "3"}, {"size": "128"}, {"size": "256"}]}}}}}, {"name": "StatefulPartitionedCall/model_2/conv2d_26/Conv2D_bn_offset", "op": "Const", "attr": {"dtype": {"type": "DT_FLOAT"}, "value": {"tensor": {"dtype": "DT_FLOAT", "tensorShape": {"dim": [{"size": "256"}]}}}}}, {"name": "StatefulPartitionedCall/model_2/conv2d_27/Conv2D_weights", "op": "Const", "attr": {"value": {"tensor": {"dtype": "DT_FLOAT", "tensorShape": {"dim": [{"size": "3"}, {"size": "3"}, {"size": "256"}, {"size": "512"}]}}}, "dtype": {"type": "DT_FLOAT"}}}, {"name": "StatefulPartitionedCall/model_2/conv2d_66/Conv2D_bn_offset", "op": "Const", "attr": {"value": {"tensor": {"dtype": "DT_FLOAT", "tensorShape": {"dim": [{"size": "512"}]}}}, "dtype": {"type": "DT_FLOAT"}}}, {"name": "StatefulPartitionedCall/model_2/conv2d_27/Conv2D_bn_offset", "op": "Const", "attr": {"dtype": {"type": "DT_FLOAT"}, "value": {"tensor": {"dtype": "DT_FLOAT", "tensorShape": {"dim": [{"size": "512"}]}}}}}, {"name": "StatefulPartitionedCall/model_2/conv2d_28/Conv2D_weights", "op": "Const", "attr": {"dtype": {"type": "DT_FLOAT"}, "value": {"tensor": {"dtype": "DT_FLOAT", "tensorShape": {"dim": [{"size": "1"}, {"size": "1"}, {"size": "512"}, {"size": "256"}]}}}}}, {"name": "StatefulPartitionedCall/model_2/conv2d_28/Conv2D_bn_offset", "op": "Const", "attr": {"dtype": {"type": "DT_FLOAT"}, "value": {"tensor": {"dtype": "DT_FLOAT", "tensorShape": {"dim": [{"size": "256"}]}}}}}, {"name": "StatefulPartitionedCall/model_2/conv2d_29/Conv2D_weights", "op": "Const", "attr": {"value": {"tensor": {"dtype": "DT_FLOAT", "tensorShape": {"dim": [{"size": "3"}, {"size": "3"}, {"size": "256"}, {"size": "512"}]}}}, "dtype": {"type": "DT_FLOAT"}}}, {"name": "StatefulPartitionedCall/model_2/conv2d_29/Conv2D_bn_offset", "op": "Const", "attr": {"value": {"tensor": {"dtype": "DT_FLOAT", "tensorShape": {"dim": [{"size": "512"}]}}}, "dtype": {"type": "DT_FLOAT"}}}, {"name": "StatefulPartitionedCall/model_2/conv2d_30/Conv2D_weights", "op": "Const", "attr": {"dtype": {"type": "DT_FLOAT"}, "value": {"tensor": {"dtype": "DT_FLOAT", "tensorShape": {"dim": [{"size": "1"}, {"size": "1"}, {"size": "512"}, {"size": "256"}]}}}}}, {"name": "StatefulPartitionedCall/model_2/conv2d_30/Conv2D_bn_offset", "op": "Const", "attr": {"dtype": {"type": "DT_FLOAT"}, "value": {"tensor": {"dtype": "DT_FLOAT", "tensorShape": {"dim": [{"size": "256"}]}}}}}, {"name": "StatefulPartitionedCall/model_2/conv2d_31/Conv2D_weights", "op": "Const", "attr": {"dtype": {"type": "DT_FLOAT"}, "value": {"tensor": {"dtype": "DT_FLOAT", "tensorShape": {"dim": [{"size": "3"}, {"size": "3"}, {"size": "256"}, {"size": "512"}]}}}}}, {"name": "StatefulPartitionedCall/model_2/conv2d_31/Conv2D_bn_offset", "op": "Const", "attr": {"dtype": {"type": "DT_FLOAT"}, "value": {"tensor": {"dtype": "DT_FLOAT", "tensorShape": {"dim": [{"size": "512"}]}}}}}, {"name": "StatefulPartitionedCall/model_2/conv2d_32/Conv2D_weights", "op": "Const", "attr": {"dtype": {"type": "DT_FLOAT"}, "value": {"tensor": {"dtype": "DT_FLOAT", "tensorShape": {"dim": [{"size": "1"}, {"size": "1"}, {"size": "512"}, {"size": "256"}]}}}}}, {"name": "StatefulPartitionedCall/model_2/conv2d_32/Conv2D_bn_offset", "op": "Const", "attr": {"dtype": {"type": "DT_FLOAT"}, "value": {"tensor": {"dtype": "DT_FLOAT", "tensorShape": {"dim": [{"size": "256"}]}}}}}, {"name": "StatefulPartitionedCall/model_2/conv2d_33/Conv2D_weights", "op": "Const", "attr": {"dtype": {"type": "DT_FLOAT"}, "value": {"tensor": {"dtype": "DT_FLOAT", "tensorShape": {"dim": [{"size": "3"}, {"size": "3"}, {"size": "256"}, {"size": "512"}]}}}}}, {"name": "StatefulPartitionedCall/model_2/conv2d_68/Conv2D_weights", "op": "Const", "attr": {"value": {"tensor": {"dtype": "DT_FLOAT", "tensorShape": {"dim": [{"size": "1"}, {"size": "1"}, {"size": "256"}, {"size": "128"}]}}}, "dtype": {"type": "DT_FLOAT"}}}, {"name": "StatefulPartitionedCall/model_2/conv2d_33/Conv2D_bn_offset", "op": "Const", "attr": {"dtype": {"type": "DT_FLOAT"}, "value": {"tensor": {"dtype": "DT_FLOAT", "tensorShape": {"dim": [{"size": "512"}]}}}}}, {"name": "StatefulPartitionedCall/model_2/conv2d_34/Conv2D_weights", "op": "Const", "attr": {"dtype": {"type": "DT_FLOAT"}, "value": {"tensor": {"dtype": "DT_FLOAT", "tensorShape": {"dim": [{"size": "1"}, {"size": "1"}, {"size": "512"}, {"size": "256"}]}}}}}, {"name": "StatefulPartitionedCall/model_2/conv2d_74/Conv2D_weights", "op": "Const", "attr": {"value": {"tensor": {"dtype": "DT_FLOAT", "tensorShape": {"dim": [{"size": "3"}, {"size": "3"}, {"size": "128"}, {"size": "256"}]}}}, "dtype": {"type": "DT_FLOAT"}}}, {"name": "StatefulPartitionedCall/model_2/conv2d_34/Conv2D_bn_offset", "op": "Const", "attr": {"dtype": {"type": "DT_FLOAT"}, "value": {"tensor": {"dtype": "DT_FLOAT", "tensorShape": {"dim": [{"size": "256"}]}}}}}, {"name": "StatefulPartitionedCall/model_2/conv2d_35/Conv2D_weights", "op": "Const", "attr": {"value": {"tensor": {"dtype": "DT_FLOAT", "tensorShape": {"dim": [{"size": "3"}, {"size": "3"}, {"size": "256"}, {"size": "512"}]}}}, "dtype": {"type": "DT_FLOAT"}}}, {"name": "StatefulPartitionedCall/model_2/conv2d_68/Conv2D_bn_offset", "op": "Const", "attr": {"dtype": {"type": "DT_FLOAT"}, "value": {"tensor": {"dtype": "DT_FLOAT", "tensorShape": {"dim": [{"size": "128"}]}}}}}, {"name": "StatefulPartitionedCall/model_2/conv2d_35/Conv2D_bn_offset", "op": "Const", "attr": {"dtype": {"type": "DT_FLOAT"}, "value": {"tensor": {"dtype": "DT_FLOAT", "tensorShape": {"dim": [{"size": "512"}]}}}}}, {"name": "StatefulPartitionedCall/model_2/conv2d_36/Conv2D_weights", "op": "Const", "attr": {"value": {"tensor": {"dtype": "DT_FLOAT", "tensorShape": {"dim": [{"size": "1"}, {"size": "1"}, {"size": "512"}, {"size": "256"}]}}}, "dtype": {"type": "DT_FLOAT"}}}, {"name": "StatefulPartitionedCall/model_2/conv2d_36/Conv2D_bn_offset", "op": "Const", "attr": {"dtype": {"type": "DT_FLOAT"}, "value": {"tensor": {"dtype": "DT_FLOAT", "tensorShape": {"dim": [{"size": "256"}]}}}}}, {"name": "StatefulPartitionedCall/model_2/conv2d_37/Conv2D_weights", "op": "Const", "attr": {"dtype": {"type": "DT_FLOAT"}, "value": {"tensor": {"dtype": "DT_FLOAT", "tensorShape": {"dim": [{"size": "3"}, {"size": "3"}, {"size": "256"}, {"size": "512"}]}}}}}, {"name": "StatefulPartitionedCall/model_2/conv2d_37/Conv2D_bn_offset", "op": "Const", "attr": {"dtype": {"type": "DT_FLOAT"}, "value": {"tensor": {"dtype": "DT_FLOAT", "tensorShape": {"dim": [{"size": "512"}]}}}}}, {"name": "StatefulPartitionedCall/model_2/conv2d_38/Conv2D_weights", "op": "Const", "attr": {"value": {"tensor": {"dtype": "DT_FLOAT", "tensorShape": {"dim": [{"size": "1"}, {"size": "1"}, {"size": "512"}, {"size": "256"}]}}}, "dtype": {"type": "DT_FLOAT"}}}, {"name": "StatefulPartitionedCall/model_2/conv2d_38/Conv2D_bn_offset", "op": "Const", "attr": {"value": {"tensor": {"dtype": "DT_FLOAT", "tensorShape": {"dim": [{"size": "256"}]}}}, "dtype": {"type": "DT_FLOAT"}}}, {"name": "StatefulPartitionedCall/model_2/conv2d_39/Conv2D_weights", "op": "Const", "attr": {"dtype": {"type": "DT_FLOAT"}, "value": {"tensor": {"dtype": "DT_FLOAT", "tensorShape": {"dim": [{"size": "3"}, {"size": "3"}, {"size": "256"}, {"size": "512"}]}}}}}, {"name": "StatefulPartitionedCall/model_2/conv2d_39/Conv2D_bn_offset", "op": "Const", "attr": {"value": {"tensor": {"dtype": "DT_FLOAT", "tensorShape": {"dim": [{"size": "512"}]}}}, "dtype": {"type": "DT_FLOAT"}}}, {"name": "StatefulPartitionedCall/model_2/conv2d_40/Conv2D_weights", "op": "Const", "attr": {"dtype": {"type": "DT_FLOAT"}, "value": {"tensor": {"dtype": "DT_FLOAT", "tensorShape": {"dim": [{"size": "1"}, {"size": "1"}, {"size": "512"}, {"size": "256"}]}}}}}, {"name": "StatefulPartitionedCall/model_2/conv2d_40/Conv2D_bn_offset", "op": "Const", "attr": {"value": {"tensor": {"dtype": "DT_FLOAT", "tensorShape": {"dim": [{"size": "256"}]}}}, "dtype": {"type": "DT_FLOAT"}}}, {"name": "StatefulPartitionedCall/model_2/conv2d_41/Conv2D_weights", "op": "Const", "attr": {"value": {"tensor": {"dtype": "DT_FLOAT", "tensorShape": {"dim": [{"size": "3"}, {"size": "3"}, {"size": "256"}, {"size": "512"}]}}}, "dtype": {"type": "DT_FLOAT"}}}, {"name": "StatefulPartitionedCall/model_2/conv2d_41/Conv2D_bn_offset", "op": "Const", "attr": {"dtype": {"type": "DT_FLOAT"}, "value": {"tensor": {"dtype": "DT_FLOAT", "tensorShape": {"dim": [{"size": "512"}]}}}}}, {"name": "StatefulPartitionedCall/model_2/conv2d_42/Conv2D_weights", "op": "Const", "attr": {"value": {"tensor": {"dtype": "DT_FLOAT", "tensorShape": {"dim": [{"size": "1"}, {"size": "1"}, {"size": "512"}, {"size": "256"}]}}}, "dtype": {"type": "DT_FLOAT"}}}, {"name": "StatefulPartitionedCall/model_2/conv2d_42/Conv2D_bn_offset", "op": "Const", "attr": {"dtype": {"type": "DT_FLOAT"}, "value": {"tensor": {"dtype": "DT_FLOAT", "tensorShape": {"dim": [{"size": "256"}]}}}}}, {"name": "StatefulPartitionedCall/model_2/conv2d_43/Conv2D_weights", "op": "Const", "attr": {"dtype": {"type": "DT_FLOAT"}, "value": {"tensor": {"dtype": "DT_FLOAT", "tensorShape": {"dim": [{"size": "3"}, {"size": "3"}, {"size": "256"}, {"size": "512"}]}}}}}, {"name": "StatefulPartitionedCall/model_2/conv2d_69/Conv2D_weights", "op": "Const", "attr": {"dtype": {"type": "DT_FLOAT"}, "value": {"tensor": {"dtype": "DT_FLOAT", "tensorShape": {"dim": [{"size": "1"}, {"size": "1"}, {"size": "384"}, {"size": "128"}]}}}}}, {"name": "StatefulPartitionedCall/model_2/conv2d_43/Conv2D_bn_offset", "op": "Const", "attr": {"dtype": {"type": "DT_FLOAT"}, "value": {"tensor": {"dtype": "DT_FLOAT", "tensorShape": {"dim": [{"size": "512"}]}}}}}, {"name": "StatefulPartitionedCall/model_2/conv2d_44/Conv2D_weights", "op": "Const", "attr": {"dtype": {"type": "DT_FLOAT"}, "value": {"tensor": {"dtype": "DT_FLOAT", "tensorShape": {"dim": [{"size": "3"}, {"size": "3"}, {"size": "512"}, {"size": "1024"}]}}}}}, {"name": "StatefulPartitionedCall/model_2/conv2d_44/Conv2D_bn_offset", "op": "Const", "attr": {"dtype": {"type": "DT_FLOAT"}, "value": {"tensor": {"dtype": "DT_FLOAT", "tensorShape": {"dim": [{"size": "1024"}]}}}}}, {"name": "StatefulPartitionedCall/model_2/conv2d_45/Conv2D_weights", "op": "Const", "attr": {"value": {"tensor": {"dtype": "DT_FLOAT", "tensorShape": {"dim": [{"size": "1"}, {"size": "1"}, {"size": "1024"}, {"size": "512"}]}}}, "dtype": {"type": "DT_FLOAT"}}}, {"name": "StatefulPartitionedCall/model_2/conv2d_69/Conv2D_bn_offset", "op": "Const", "attr": {"dtype": {"type": "DT_FLOAT"}, "value": {"tensor": {"dtype": "DT_FLOAT", "tensorShape": {"dim": [{"size": "128"}]}}}}}, {"name": "StatefulPartitionedCall/model_2/conv2d_45/Conv2D_bn_offset", "op": "Const", "attr": {"dtype": {"type": "DT_FLOAT"}, "value": {"tensor": {"dtype": "DT_FLOAT", "tensorShape": {"dim": [{"size": "512"}]}}}}}, {"name": "StatefulPartitionedCall/model_2/conv2d_46/Conv2D_weights", "op": "Const", "attr": {"dtype": {"type": "DT_FLOAT"}, "value": {"tensor": {"dtype": "DT_FLOAT", "tensorShape": {"dim": [{"size": "3"}, {"size": "3"}, {"size": "512"}, {"size": "1024"}]}}}}}, {"name": "StatefulPartitionedCall/model_2/conv2d_46/Conv2D_bn_offset", "op": "Const", "attr": {"value": {"tensor": {"dtype": "DT_FLOAT", "tensorShape": {"dim": [{"size": "1024"}]}}}, "dtype": {"type": "DT_FLOAT"}}}, {"name": "StatefulPartitionedCall/model_2/conv2d_47/Conv2D_weights", "op": "Const", "attr": {"dtype": {"type": "DT_FLOAT"}, "value": {"tensor": {"dtype": "DT_FLOAT", "tensorShape": {"dim": [{"size": "1"}, {"size": "1"}, {"size": "1024"}, {"size": "512"}]}}}}}, {"name": "StatefulPartitionedCall/model_2/conv2d_47/Conv2D_bn_offset", "op": "Const", "attr": {"dtype": {"type": "DT_FLOAT"}, "value": {"tensor": {"dtype": "DT_FLOAT", "tensorShape": {"dim": [{"size": "512"}]}}}}}, {"name": "StatefulPartitionedCall/model_2/conv2d_48/Conv2D_weights", "op": "Const", "attr": {"dtype": {"type": "DT_FLOAT"}, "value": {"tensor": {"dtype": "DT_FLOAT", "tensorShape": {"dim": [{"size": "3"}, {"size": "3"}, {"size": "512"}, {"size": "1024"}]}}}}}, {"name": "StatefulPartitionedCall/model_2/conv2d_70/Conv2D_weights", "op": "Const", "attr": {"dtype": {"type": "DT_FLOAT"}, "value": {"tensor": {"dtype": "DT_FLOAT", "tensorShape": {"dim": [{"size": "3"}, {"size": "3"}, {"size": "128"}, {"size": "256"}]}}}}}, {"name": "StatefulPartitionedCall/model_2/conv2d_48/Conv2D_bn_offset", "op": "Const", "attr": {"value": {"tensor": {"dtype": "DT_FLOAT", "tensorShape": {"dim": [{"size": "1024"}]}}}, "dtype": {"type": "DT_FLOAT"}}}, {"name": "StatefulPartitionedCall/model_2/conv2d_49/Conv2D_weights", "op": "Const", "attr": {"dtype": {"type": "DT_FLOAT"}, "value": {"tensor": {"dtype": "DT_FLOAT", "tensorShape": {"dim": [{"size": "1"}, {"size": "1"}, {"size": "1024"}, {"size": "512"}]}}}}}, {"name": "StatefulPartitionedCall/model_2/conv2d_74/Conv2D_bn_offset", "op": "Const", "attr": {"value": {"tensor": {"dtype": "DT_FLOAT", "tensorShape": {"dim": [{"size": "256"}]}}}, "dtype": {"type": "DT_FLOAT"}}}, {"name": "StatefulPartitionedCall/model_2/conv2d_49/Conv2D_bn_offset", "op": "Const", "attr": {"dtype": {"type": "DT_FLOAT"}, "value": {"tensor": {"dtype": "DT_FLOAT", "tensorShape": {"dim": [{"size": "512"}]}}}}}, {"name": "StatefulPartitionedCall/model_2/conv2d_50/Conv2D_weights", "op": "Const", "attr": {"value": {"tensor": {"dtype": "DT_FLOAT", "tensorShape": {"dim": [{"size": "3"}, {"size": "3"}, {"size": "512"}, {"size": "1024"}]}}}, "dtype": {"type": "DT_FLOAT"}}}, {"name": "StatefulPartitionedCall/model_2/conv2d_70/Conv2D_bn_offset", "op": "Const", "attr": {"value": {"tensor": {"dtype": "DT_FLOAT", "tensorShape": {"dim": [{"size": "256"}]}}}, "dtype": {"type": "DT_FLOAT"}}}, {"name": "StatefulPartitionedCall/model_2/conv2d_50/Conv2D_bn_offset", "op": "Const", "attr": {"value": {"tensor": {"dtype": "DT_FLOAT", "tensorShape": {"dim": [{"size": "1024"}]}}}, "dtype": {"type": "DT_FLOAT"}}}, {"name": "StatefulPartitionedCall/model_2/conv2d_51/Conv2D_weights", "op": "Const", "attr": {"dtype": {"type": "DT_FLOAT"}, "value": {"tensor": {"dtype": "DT_FLOAT", "tensorShape": {"dim": [{"size": "1"}, {"size": "1"}, {"size": "1024"}, {"size": "512"}]}}}}}, {"name": "StatefulPartitionedCall/model_2/conv2d_51/Conv2D_bn_offset", "op": "Const", "attr": {"value": {"tensor": {"dtype": "DT_FLOAT", "tensorShape": {"dim": [{"size": "512"}]}}}, "dtype": {"type": "DT_FLOAT"}}}, {"name": "StatefulPartitionedCall/model_2/conv2d_52/Conv2D_weights", "op": "Const", "attr": {"value": {"tensor": {"dtype": "DT_FLOAT", "tensorShape": {"dim": [{"size": "3"}, {"size": "3"}, {"size": "512"}, {"size": "1024"}]}}}, "dtype": {"type": "DT_FLOAT"}}}, {"name": "StatefulPartitionedCall/model_2/conv2d_52/Conv2D_bn_offset", "op": "Const", "attr": {"dtype": {"type": "DT_FLOAT"}, "value": {"tensor": {"dtype": "DT_FLOAT", "tensorShape": {"dim": [{"size": "1024"}]}}}}}, {"name": "StatefulPartitionedCall/model_2/conv2d_53/Conv2D_weights", "op": "Const", "attr": {"value": {"tensor": {"dtype": "DT_FLOAT", "tensorShape": {"dim": [{"size": "1"}, {"size": "1"}, {"size": "1024"}, {"size": "512"}]}}}, "dtype": {"type": "DT_FLOAT"}}}, {"name": "StatefulPartitionedCall/model_2/conv2d_71/Conv2D_weights", "op": "Const", "attr": {"value": {"tensor": {"dtype": "DT_FLOAT", "tensorShape": {"dim": [{"size": "1"}, {"size": "1"}, {"size": "256"}, {"size": "128"}]}}}, "dtype": {"type": "DT_FLOAT"}}}, {"name": "StatefulPartitionedCall/model_2/conv2d_53/Conv2D_bn_offset", "op": "Const", "attr": {"dtype": {"type": "DT_FLOAT"}, "value": {"tensor": {"dtype": "DT_FLOAT", "tensorShape": {"dim": [{"size": "512"}]}}}}}, {"name": "StatefulPartitionedCall/model_2/conv2d_54/Conv2D_weights", "op": "Const", "attr": {"dtype": {"type": "DT_FLOAT"}, "value": {"tensor": {"dtype": "DT_FLOAT", "tensorShape": {"dim": [{"size": "3"}, {"size": "3"}, {"size": "512"}, {"size": "1024"}]}}}}}, {"name": "StatefulPartitionedCall/model_2/conv2d_54/Conv2D_bn_offset", "op": "Const", "attr": {"dtype": {"type": "DT_FLOAT"}, "value": {"tensor": {"dtype": "DT_FLOAT", "tensorShape": {"dim": [{"size": "1024"}]}}}}}, {"name": "StatefulPartitionedCall/model_2/conv2d_55/Conv2D_weights", "op": "Const", "attr": {"dtype": {"type": "DT_FLOAT"}, "value": {"tensor": {"dtype": "DT_FLOAT", "tensorShape": {"dim": [{"size": "1"}, {"size": "1"}, {"size": "1024"}, {"size": "512"}]}}}}}, {"name": "StatefulPartitionedCall/model_2/conv2d_71/Conv2D_bn_offset", "op": "Const", "attr": {"dtype": {"type": "DT_FLOAT"}, "value": {"tensor": {"dtype": "DT_FLOAT", "tensorShape": {"dim": [{"size": "128"}]}}}}}, {"name": "StatefulPartitionedCall/model_2/conv2d_55/Conv2D_bn_offset", "op": "Const", "attr": {"dtype": {"type": "DT_FLOAT"}, "value": {"tensor": {"dtype": "DT_FLOAT", "tensorShape": {"dim": [{"size": "512"}]}}}}}, {"name": "StatefulPartitionedCall/model_2/conv2d_56/Conv2D_weights", "op": "Const", "attr": {"dtype": {"type": "DT_FLOAT"}, "value": {"tensor": {"dtype": "DT_FLOAT", "tensorShape": {"dim": [{"size": "3"}, {"size": "3"}, {"size": "512"}, {"size": "1024"}]}}}}}, {"name": "StatefulPartitionedCall/model_2/conv2d_56/Conv2D_bn_offset", "op": "Const", "attr": {"value": {"tensor": {"dtype": "DT_FLOAT", "tensorShape": {"dim": [{"size": "1024"}]}}}, "dtype": {"type": "DT_FLOAT"}}}, {"name": "StatefulPartitionedCall/model_2/conv2d_57/Conv2D_weights", "op": "Const", "attr": {"value": {"tensor": {"dtype": "DT_FLOAT", "tensorShape": {"dim": [{"size": "1"}, {"size": "1"}, {"size": "1024"}, {"size": "512"}]}}}, "dtype": {"type": "DT_FLOAT"}}}, {"name": "StatefulPartitionedCall/model_2/conv2d_57/Conv2D_bn_offset", "op": "Const", "attr": {"dtype": {"type": "DT_FLOAT"}, "value": {"tensor": {"dtype": "DT_FLOAT", "tensorShape": {"dim": [{"size": "512"}]}}}}}, {"name": "StatefulPartitionedCall/model_2/conv2d_58/Conv2D_weights", "op": "Const", "attr": {"value": {"tensor": {"dtype": "DT_FLOAT", "tensorShape": {"dim": [{"size": "3"}, {"size": "3"}, {"size": "512"}, {"size": "1024"}]}}}, "dtype": {"type": "DT_FLOAT"}}}, {"name": "StatefulPartitionedCall/model_2/conv2d_72/Conv2D_weights", "op": "Const", "attr": {"value": {"tensor": {"dtype": "DT_FLOAT", "tensorShape": {"dim": [{"size": "3"}, {"size": "3"}, {"size": "128"}, {"size": "256"}]}}}, "dtype": {"type": "DT_FLOAT"}}}, {"name": "StatefulPartitionedCall/model_2/conv2d_58/Conv2D_bn_offset", "op": "Const", "attr": {"dtype": {"type": "DT_FLOAT"}, "value": {"tensor": {"dtype": "DT_FLOAT", "tensorShape": {"dim": [{"size": "1024"}]}}}}}, {"name": "StatefulPartitionedCall/model_2/conv2d_60/Conv2D_weights", "op": "Const", "attr": {"value": {"tensor": {"dtype": "DT_FLOAT", "tensorShape": {"dim": [{"size": "1"}, {"size": "1"}, {"size": "512"}, {"size": "256"}]}}}, "dtype": {"type": "DT_FLOAT"}}}, {"name": "StatefulPartitionedCall/model_2/conv2d_72/Conv2D_bn_offset", "op": "Const", "attr": {"dtype": {"type": "DT_FLOAT"}, "value": {"tensor": {"dtype": "DT_FLOAT", "tensorShape": {"dim": [{"size": "256"}]}}}}}, {"name": "StatefulPartitionedCall/model_2/conv2d_60/Conv2D_bn_offset", "op": "Const", "attr": {"value": {"tensor": {"dtype": "DT_FLOAT", "tensorShape": {"dim": [{"size": "256"}]}}}, "dtype": {"type": "DT_FLOAT"}}}, {"name": "StatefulPartitionedCall/model_2/conv2d_61/Conv2D_weights", "op": "Const", "attr": {"value": {"tensor": {"dtype": "DT_FLOAT", "tensorShape": {"dim": [{"size": "1"}, {"size": "1"}, {"size": "768"}, {"size": "256"}]}}}, "dtype": {"type": "DT_FLOAT"}}}, {"name": "Func/StatefulPartitionedCall/input/_366", "op": "Const", "input": ["^input_1"], "attr": {"value": {"tensor": {"dtype": "DT_FLOAT", "tensorShape": {"dim": [{"size": "1"}, {"size": "1"}, {"size": "1024"}, {"size": "18"}]}}}, "dtype": {"type": "DT_FLOAT"}}}, {"name": "Func/StatefulPartitionedCall/input/_367", "op": "Const", "input": ["^input_1"], "attr": {"value": {"tensor": {"dtype": "DT_FLOAT", "tensorShape": {"dim": [{"size": "18"}]}}}, "dtype": {"type": "DT_FLOAT"}}}, {"name": "Func/StatefulPartitionedCall/input/_364", "op": "Const", "input": ["^input_1"], "attr": {"dtype": {"type": "DT_FLOAT"}, "value": {"tensor": {"dtype": "DT_FLOAT", "tensorShape": {"dim": [{"size": "1"}, {"size": "1"}, {"size": "512"}, {"size": "18"}]}}}}}, {"name": "Func/StatefulPartitionedCall/input/_365", "op": "Const", "input": ["^input_1"], "attr": {"dtype": {"type": "DT_FLOAT"}, "value": {"tensor": {"dtype": "DT_FLOAT", "tensorShape": {"dim": [{"size": "18"}]}}}}}, {"name": "StatefulPartitionedCall/model_2/up_sampling2d_1/Const", "op": "Const", "input": ["^input_1"], "attr": {"dtype": {"type": "DT_INT32"}, "value": {"tensor": {"dtype": "DT_INT32", "tensorShape": {"dim": [{"size": "2"}]}}}}}, {"name": "StatefulPartitionedCall/model_2/up_sampling2d_1/strided_slice/stack_1", "op": "Const", "input": ["^input_1"], "attr": {"dtype": {"type": "DT_INT32"}, "value": {"tensor": {"dtype": "DT_INT32", "tensorShape": {"dim": [{"size": "1"}]}}}}}, {"name": "StatefulPartitionedCall/model_2/up_sampling2d_1/strided_slice/stack", "op": "Const", "input": ["^input_1"], "attr": {"value": {"tensor": {"dtype": "DT_INT32", "tensorShape": {"dim": [{"size": "1"}]}}}, "dtype": {"type": "DT_INT32"}}}, {"name": "StatefulPartitionedCall/model_2/zero_padding2d_5/Pad/paddings", "op": "Const", "input": ["^input_1"], "attr": {"value": {"tensor": {"dtype": "DT_INT32", "tensorShape": {"dim": [{"size": "4"}, {"size": "2"}]}}}, "dtype": {"type": "DT_INT32"}}}, {"name": "StatefulPartitionedCall/model_2/concatenate_1/concat/axis", "op": "Const", "input": ["^input_1"], "attr": {"value": {"tensor": {"dtype": "DT_INT32", "tensorShape": {}}}, "dtype": {"type": "DT_INT32"}}}, {"name": "Func/StatefulPartitionedCall/input/_362", "op": "Const", "input": ["^input_1"], "attr": {"value": {"tensor": {"dtype": "DT_FLOAT", "tensorShape": {"dim": [{"size": "1"}, {"size": "1"}, {"size": "256"}, {"size": "18"}]}}}, "dtype": {"type": "DT_FLOAT"}}}, {"name": "Func/StatefulPartitionedCall/input/_363", "op": "Const", "input": ["^input_1"], "attr": {"dtype": {"type": "DT_FLOAT"}, "value": {"tensor": {"dtype": "DT_FLOAT", "tensorShape": {"dim": [{"size": "18"}]}}}}}, {"name": "StatefulPartitionedCall/model_2/batch_normalization_1/FusedBatchNormV3", "op": "_FusedConv2D", "input": ["input_1", "StatefulPartitionedCall/model_2/conv2d_1/Conv2D_weights", "StatefulPartitionedCall/model_2/conv2d_1/Conv2D_bn_offset"], "device": "/device:CPU:0", "attr": {"epsilon": {"f": 0.0}, "explicit_paddings": {"list": {}}, "num_args": {"i": "1"}, "use_cudnn_on_gpu": {"b": true}, "data_format": {"s": "TkhXQw=="}, "padding": {"s": "U0FNRQ=="}, "dilations": {"list": {"i": ["1", "1", "1", "1"]}}, "T": {"type": "DT_FLOAT"}, "strides": {"list": {"i": ["1", "1", "1", "1"]}}, "fused_ops": {"list": {"s": ["Qmlhc0FkZA=="]}}}}, {"name": "StatefulPartitionedCall/model_2/leaky_re_lu_1/LeakyRelu", "op": "LeakyRelu", "input": ["StatefulPartitionedCall/model_2/batch_normalization_1/FusedBatchNormV3"], "attr": {"alpha": {"f": 0.1}, "T": {"type": "DT_FLOAT"}}}, {"name": "StatefulPartitionedCall/model_2/zero_padding2d_1/Pad", "op": "Pad", "input": ["StatefulPartitionedCall/model_2/leaky_re_lu_1/LeakyRelu", "StatefulPartitionedCall/model_2/zero_padding2d_5/Pad/paddings"], "attr": {"T": {"type": "DT_FLOAT"}, "Tpaddings": {"type": "DT_INT32"}}}, {"name": "StatefulPartitionedCall/model_2/batch_normalization_2/FusedBatchNormV3", "op": "_FusedConv2D", "input": ["StatefulPartitionedCall/model_2/zero_padding2d_1/Pad", "StatefulPartitionedCall/model_2/conv2d_2/Conv2D_weights", "StatefulPartitionedCall/model_2/conv2d_2/Conv2D_bn_offset"], "device": "/device:CPU:0", "attr": {"T": {"type": "DT_FLOAT"}, "fused_ops": {"list": {"s": ["Qmlhc0FkZA=="]}}, "epsilon": {"f": 0.0}, "num_args": {"i": "1"}, "strides": {"list": {"i": ["1", "2", "2", "1"]}}, "explicit_paddings": {"list": {}}, "data_format": {"s": "TkhXQw=="}, "use_cudnn_on_gpu": {"b": true}, "padding": {"s": "VkFMSUQ="}, "dilations": {"list": {"i": ["1", "1", "1", "1"]}}}}, {"name": "StatefulPartitionedCall/model_2/leaky_re_lu_2/LeakyRelu", "op": "LeakyRelu", "input": ["StatefulPartitionedCall/model_2/batch_normalization_2/FusedBatchNormV3"], "attr": {"T": {"type": "DT_FLOAT"}, "alpha": {"f": 0.1}}}, {"name": "StatefulPartitionedCall/model_2/batch_normalization_3/FusedBatchNormV3", "op": "_FusedConv2D", "input": ["StatefulPartitionedCall/model_2/leaky_re_lu_2/LeakyRelu", "StatefulPartitionedCall/model_2/conv2d_3/Conv2D_weights", "StatefulPartitionedCall/model_2/conv2d_3/Conv2D_bn_offset"], "device": "/device:CPU:0", "attr": {"padding": {"s": "U0FNRQ=="}, "num_args": {"i": "1"}, "dilations": {"list": {"i": ["1", "1", "1", "1"]}}, "fused_ops": {"list": {"s": ["Qmlhc0FkZA=="]}}, "epsilon": {"f": 0.0}, "T": {"type": "DT_FLOAT"}, "strides": {"list": {"i": ["1", "1", "1", "1"]}}, "explicit_paddings": {"list": {}}, "use_cudnn_on_gpu": {"b": true}, "data_format": {"s": "TkhXQw=="}}}, {"name": "StatefulPartitionedCall/model_2/leaky_re_lu_3/LeakyRelu", "op": "LeakyRelu", "input": ["StatefulPartitionedCall/model_2/batch_normalization_3/FusedBatchNormV3"], "attr": {"T": {"type": "DT_FLOAT"}, "alpha": {"f": 0.1}}}, {"name": "StatefulPartitionedCall/model_2/batch_normalization_4/FusedBatchNormV3", "op": "_FusedConv2D", "input": ["StatefulPartitionedCall/model_2/leaky_re_lu_3/LeakyRelu", "StatefulPartitionedCall/model_2/conv2d_4/Conv2D_weights", "StatefulPartitionedCall/model_2/conv2d_4/Conv2D_bn_offset"], "device": "/device:CPU:0", "attr": {"T": {"type": "DT_FLOAT"}, "fused_ops": {"list": {"s": ["Qmlhc0FkZA=="]}}, "num_args": {"i": "1"}, "strides": {"list": {"i": ["1", "1", "1", "1"]}}, "padding": {"s": "U0FNRQ=="}, "data_format": {"s": "TkhXQw=="}, "epsilon": {"f": 0.0}, "dilations": {"list": {"i": ["1", "1", "1", "1"]}}, "explicit_paddings": {"list": {}}, "use_cudnn_on_gpu": {"b": true}}}, {"name": "StatefulPartitionedCall/model_2/leaky_re_lu_4/LeakyRelu", "op": "LeakyRelu", "input": ["StatefulPartitionedCall/model_2/batch_normalization_4/FusedBatchNormV3"], "attr": {"alpha": {"f": 0.1}, "T": {"type": "DT_FLOAT"}}}, {"name": "StatefulPartitionedCall/model_2/add_1/add", "op": "AddV2", "input": ["StatefulPartitionedCall/model_2/leaky_re_lu_2/LeakyRelu", "StatefulPartitionedCall/model_2/leaky_re_lu_4/LeakyRelu"], "attr": {"T": {"type": "DT_FLOAT"}}}, {"name": "StatefulPartitionedCall/model_2/zero_padding2d_2/Pad", "op": "Pad", "input": ["StatefulPartitionedCall/model_2/add_1/add", "StatefulPartitionedCall/model_2/zero_padding2d_5/Pad/paddings"], "attr": {"Tpaddings": {"type": "DT_INT32"}, "T": {"type": "DT_FLOAT"}}}, {"name": "StatefulPartitionedCall/model_2/batch_normalization_5/FusedBatchNormV3", "op": "_FusedConv2D", "input": ["StatefulPartitionedCall/model_2/zero_padding2d_2/Pad", "StatefulPartitionedCall/model_2/conv2d_5/Conv2D_weights", "StatefulPartitionedCall/model_2/conv2d_5/Conv2D_bn_offset"], "device": "/device:CPU:0", "attr": {"fused_ops": {"list": {"s": ["Qmlhc0FkZA=="]}}, "padding": {"s": "VkFMSUQ="}, "data_format": {"s": "TkhXQw=="}, "epsilon": {"f": 0.0}, "T": {"type": "DT_FLOAT"}, "num_args": {"i": "1"}, "dilations": {"list": {"i": ["1", "1", "1", "1"]}}, "explicit_paddings": {"list": {}}, "strides": {"list": {"i": ["1", "2", "2", "1"]}}, "use_cudnn_on_gpu": {"b": true}}}, {"name": "StatefulPartitionedCall/model_2/leaky_re_lu_5/LeakyRelu", "op": "LeakyRelu", "input": ["StatefulPartitionedCall/model_2/batch_normalization_5/FusedBatchNormV3"], "attr": {"alpha": {"f": 0.1}, "T": {"type": "DT_FLOAT"}}}, {"name": "StatefulPartitionedCall/model_2/batch_normalization_6/FusedBatchNormV3", "op": "_FusedConv2D", "input": ["StatefulPartitionedCall/model_2/leaky_re_lu_5/LeakyRelu", "StatefulPartitionedCall/model_2/conv2d_6/Conv2D_weights", "StatefulPartitionedCall/model_2/conv2d_6/Conv2D_bn_offset"], "device": "/device:CPU:0", "attr": {"epsilon": {"f": 0.0}, "padding": {"s": "U0FNRQ=="}, "explicit_paddings": {"list": {}}, "T": {"type": "DT_FLOAT"}, "data_format": {"s": "TkhXQw=="}, "dilations": {"list": {"i": ["1", "1", "1", "1"]}}, "num_args": {"i": "1"}, "strides": {"list": {"i": ["1", "1", "1", "1"]}}, "fused_ops": {"list": {"s": ["Qmlhc0FkZA=="]}}, "use_cudnn_on_gpu": {"b": true}}}, {"name": "StatefulPartitionedCall/model_2/leaky_re_lu_6/LeakyRelu", "op": "LeakyRelu", "input": ["StatefulPartitionedCall/model_2/batch_normalization_6/FusedBatchNormV3"], "attr": {"alpha": {"f": 0.1}, "T": {"type": "DT_FLOAT"}}}, {"name": "StatefulPartitionedCall/model_2/batch_normalization_7/FusedBatchNormV3", "op": "_FusedConv2D", "input": ["StatefulPartitionedCall/model_2/leaky_re_lu_6/LeakyRelu", "StatefulPartitionedCall/model_2/conv2d_7/Conv2D_weights", "StatefulPartitionedCall/model_2/conv2d_7/Conv2D_bn_offset"], "device": "/device:CPU:0", "attr": {"fused_ops": {"list": {"s": ["Qmlhc0FkZA=="]}}, "data_format": {"s": "TkhXQw=="}, "dilations": {"list": {"i": ["1", "1", "1", "1"]}}, "strides": {"list": {"i": ["1", "1", "1", "1"]}}, "num_args": {"i": "1"}, "use_cudnn_on_gpu": {"b": true}, "padding": {"s": "U0FNRQ=="}, "explicit_paddings": {"list": {}}, "epsilon": {"f": 0.0}, "T": {"type": "DT_FLOAT"}}}, {"name": "StatefulPartitionedCall/model_2/leaky_re_lu_7/LeakyRelu", "op": "LeakyRelu", "input": ["StatefulPartitionedCall/model_2/batch_normalization_7/FusedBatchNormV3"], "attr": {"T": {"type": "DT_FLOAT"}, "alpha": {"f": 0.1}}}, {"name": "StatefulPartitionedCall/model_2/add_2/add", "op": "AddV2", "input": ["StatefulPartitionedCall/model_2/leaky_re_lu_5/LeakyRelu", "StatefulPartitionedCall/model_2/leaky_re_lu_7/LeakyRelu"], "attr": {"T": {"type": "DT_FLOAT"}}}, {"name": "StatefulPartitionedCall/model_2/batch_normalization_8/FusedBatchNormV3", "op": "_FusedConv2D", "input": ["StatefulPartitionedCall/model_2/add_2/add", "StatefulPartitionedCall/model_2/conv2d_8/Conv2D_weights", "StatefulPartitionedCall/model_2/conv2d_8/Conv2D_bn_offset"], "device": "/device:CPU:0", "attr": {"dilations": {"list": {"i": ["1", "1", "1", "1"]}}, "use_cudnn_on_gpu": {"b": true}, "num_args": {"i": "1"}, "epsilon": {"f": 0.0}, "padding": {"s": "U0FNRQ=="}, "fused_ops": {"list": {"s": ["Qmlhc0FkZA=="]}}, "T": {"type": "DT_FLOAT"}, "data_format": {"s": "TkhXQw=="}, "explicit_paddings": {"list": {}}, "strides": {"list": {"i": ["1", "1", "1", "1"]}}}}, {"name": "StatefulPartitionedCall/model_2/leaky_re_lu_8/LeakyRelu", "op": "LeakyRelu", "input": ["StatefulPartitionedCall/model_2/batch_normalization_8/FusedBatchNormV3"], "attr": {"T": {"type": "DT_FLOAT"}, "alpha": {"f": 0.1}}}, {"name": "StatefulPartitionedCall/model_2/batch_normalization_9/FusedBatchNormV3", "op": "_FusedConv2D", "input": ["StatefulPartitionedCall/model_2/leaky_re_lu_8/LeakyRelu", "StatefulPartitionedCall/model_2/conv2d_9/Conv2D_weights", "StatefulPartitionedCall/model_2/conv2d_9/Conv2D_bn_offset"], "device": "/device:CPU:0", "attr": {"use_cudnn_on_gpu": {"b": true}, "fused_ops": {"list": {"s": ["Qmlhc0FkZA=="]}}, "num_args": {"i": "1"}, "padding": {"s": "U0FNRQ=="}, "explicit_paddings": {"list": {}}, "dilations": {"list": {"i": ["1", "1", "1", "1"]}}, "data_format": {"s": "TkhXQw=="}, "T": {"type": "DT_FLOAT"}, "epsilon": {"f": 0.0}, "strides": {"list": {"i": ["1", "1", "1", "1"]}}}}, {"name": "StatefulPartitionedCall/model_2/leaky_re_lu_9/LeakyRelu", "op": "LeakyRelu", "input": ["StatefulPartitionedCall/model_2/batch_normalization_9/FusedBatchNormV3"], "attr": {"alpha": {"f": 0.1}, "T": {"type": "DT_FLOAT"}}}, {"name": "StatefulPartitionedCall/model_2/add_3/add", "op": "AddV2", "input": ["StatefulPartitionedCall/model_2/add_2/add", "StatefulPartitionedCall/model_2/leaky_re_lu_9/LeakyRelu"], "attr": {"T": {"type": "DT_FLOAT"}}}, {"name": "StatefulPartitionedCall/model_2/zero_padding2d_3/Pad", "op": "Pad", "input": ["StatefulPartitionedCall/model_2/add_3/add", "StatefulPartitionedCall/model_2/zero_padding2d_5/Pad/paddings"], "attr": {"Tpaddings": {"type": "DT_INT32"}, "T": {"type": "DT_FLOAT"}}}, {"name": "StatefulPartitionedCall/model_2/batch_normalization_10/FusedBatchNormV3", "op": "_FusedConv2D", "input": ["StatefulPartitionedCall/model_2/zero_padding2d_3/Pad", "StatefulPartitionedCall/model_2/conv2d_10/Conv2D_weights", "StatefulPartitionedCall/model_2/conv2d_10/Conv2D_bn_offset"], "device": "/device:CPU:0", "attr": {"T": {"type": "DT_FLOAT"}, "use_cudnn_on_gpu": {"b": true}, "num_args": {"i": "1"}, "epsilon": {"f": 0.0}, "dilations": {"list": {"i": ["1", "1", "1", "1"]}}, "padding": {"s": "VkFMSUQ="}, "fused_ops": {"list": {"s": ["Qmlhc0FkZA=="]}}, "data_format": {"s": "TkhXQw=="}, "strides": {"list": {"i": ["1", "2", "2", "1"]}}, "explicit_paddings": {"list": {}}}}, {"name": "StatefulPartitionedCall/model_2/leaky_re_lu_10/LeakyRelu", "op": "LeakyRelu", "input": ["StatefulPartitionedCall/model_2/batch_normalization_10/FusedBatchNormV3"], "attr": {"alpha": {"f": 0.1}, "T": {"type": "DT_FLOAT"}}}, {"name": "StatefulPartitionedCall/model_2/batch_normalization_11/FusedBatchNormV3", "op": "_FusedConv2D", "input": ["StatefulPartitionedCall/model_2/leaky_re_lu_10/LeakyRelu", "StatefulPartitionedCall/model_2/conv2d_11/Conv2D_weights", "StatefulPartitionedCall/model_2/conv2d_11/Conv2D_bn_offset"], "device": "/device:CPU:0", "attr": {"data_format": {"s": "TkhXQw=="}, "strides": {"list": {"i": ["1", "1", "1", "1"]}}, "padding": {"s": "U0FNRQ=="}, "num_args": {"i": "1"}, "use_cudnn_on_gpu": {"b": true}, "epsilon": {"f": 0.0}, "fused_ops": {"list": {"s": ["Qmlhc0FkZA=="]}}, "explicit_paddings": {"list": {}}, "dilations": {"list": {"i": ["1", "1", "1", "1"]}}, "T": {"type": "DT_FLOAT"}}}, {"name": "StatefulPartitionedCall/model_2/leaky_re_lu_11/LeakyRelu", "op": "LeakyRelu", "input": ["StatefulPartitionedCall/model_2/batch_normalization_11/FusedBatchNormV3"], "attr": {"T": {"type": "DT_FLOAT"}, "alpha": {"f": 0.1}}}, {"name": "StatefulPartitionedCall/model_2/batch_normalization_12/FusedBatchNormV3", "op": "_FusedConv2D", "input": ["StatefulPartitionedCall/model_2/leaky_re_lu_11/LeakyRelu", "StatefulPartitionedCall/model_2/conv2d_12/Conv2D_weights", "StatefulPartitionedCall/model_2/conv2d_12/Conv2D_bn_offset"], "device": "/device:CPU:0", "attr": {"padding": {"s": "U0FNRQ=="}, "T": {"type": "DT_FLOAT"}, "num_args": {"i": "1"}, "fused_ops": {"list": {"s": ["Qmlhc0FkZA=="]}}, "epsilon": {"f": 0.0}, "use_cudnn_on_gpu": {"b": true}, "data_format": {"s": "TkhXQw=="}, "dilations": {"list": {"i": ["1", "1", "1", "1"]}}, "explicit_paddings": {"list": {}}, "strides": {"list": {"i": ["1", "1", "1", "1"]}}}}, {"name": "StatefulPartitionedCall/model_2/leaky_re_lu_12/LeakyRelu", "op": "LeakyRelu", "input": ["StatefulPartitionedCall/model_2/batch_normalization_12/FusedBatchNormV3"], "attr": {"T": {"type": "DT_FLOAT"}, "alpha": {"f": 0.1}}}, {"name": "StatefulPartitionedCall/model_2/add_4/add", "op": "AddV2", "input": ["StatefulPartitionedCall/model_2/leaky_re_lu_10/LeakyRelu", "StatefulPartitionedCall/model_2/leaky_re_lu_12/LeakyRelu"], "attr": {"T": {"type": "DT_FLOAT"}}}, {"name": "StatefulPartitionedCall/model_2/batch_normalization_13/FusedBatchNormV3", "op": "_FusedConv2D", "input": ["StatefulPartitionedCall/model_2/add_4/add", "StatefulPartitionedCall/model_2/conv2d_13/Conv2D_weights", "StatefulPartitionedCall/model_2/conv2d_13/Conv2D_bn_offset"], "device": "/device:CPU:0", "attr": {"T": {"type": "DT_FLOAT"}, "use_cudnn_on_gpu": {"b": true}, "fused_ops": {"list": {"s": ["Qmlhc0FkZA=="]}}, "data_format": {"s": "TkhXQw=="}, "padding": {"s": "U0FNRQ=="}, "num_args": {"i": "1"}, "epsilon": {"f": 0.0}, "explicit_paddings": {"list": {}}, "dilations": {"list": {"i": ["1", "1", "1", "1"]}}, "strides": {"list": {"i": ["1", "1", "1", "1"]}}}}, {"name": "StatefulPartitionedCall/model_2/leaky_re_lu_13/LeakyRelu", "op": "LeakyRelu", "input": ["StatefulPartitionedCall/model_2/batch_normalization_13/FusedBatchNormV3"], "attr": {"alpha": {"f": 0.1}, "T": {"type": "DT_FLOAT"}}}, {"name": "StatefulPartitionedCall/model_2/batch_normalization_14/FusedBatchNormV3", "op": "_FusedConv2D", "input": ["StatefulPartitionedCall/model_2/leaky_re_lu_13/LeakyRelu", "StatefulPartitionedCall/model_2/conv2d_14/Conv2D_weights", "StatefulPartitionedCall/model_2/conv2d_14/Conv2D_bn_offset"], "device": "/device:CPU:0", "attr": {"epsilon": {"f": 0.0}, "explicit_paddings": {"list": {}}, "padding": {"s": "U0FNRQ=="}, "fused_ops": {"list": {"s": ["Qmlhc0FkZA=="]}}, "T": {"type": "DT_FLOAT"}, "num_args": {"i": "1"}, "strides": {"list": {"i": ["1", "1", "1", "1"]}}, "use_cudnn_on_gpu": {"b": true}, "data_format": {"s": "TkhXQw=="}, "dilations": {"list": {"i": ["1", "1", "1", "1"]}}}}, {"name": "StatefulPartitionedCall/model_2/leaky_re_lu_14/LeakyRelu", "op": "LeakyRelu", "input": ["StatefulPartitionedCall/model_2/batch_normalization_14/FusedBatchNormV3"], "attr": {"alpha": {"f": 0.1}, "T": {"type": "DT_FLOAT"}}}, {"name": "StatefulPartitionedCall/model_2/add_5/add", "op": "AddV2", "input": ["StatefulPartitionedCall/model_2/add_4/add", "StatefulPartitionedCall/model_2/leaky_re_lu_14/LeakyRelu"], "attr": {"T": {"type": "DT_FLOAT"}}}, {"name": "StatefulPartitionedCall/model_2/batch_normalization_15/FusedBatchNormV3", "op": "_FusedConv2D", "input": ["StatefulPartitionedCall/model_2/add_5/add", "StatefulPartitionedCall/model_2/conv2d_15/Conv2D_weights", "StatefulPartitionedCall/model_2/conv2d_15/Conv2D_bn_offset"], "device": "/device:CPU:0", "attr": {"explicit_paddings": {"list": {}}, "strides": {"list": {"i": ["1", "1", "1", "1"]}}, "dilations": {"list": {"i": ["1", "1", "1", "1"]}}, "padding": {"s": "U0FNRQ=="}, "epsilon": {"f": 0.0}, "num_args": {"i": "1"}, "fused_ops": {"list": {"s": ["Qmlhc0FkZA=="]}}, "use_cudnn_on_gpu": {"b": true}, "T": {"type": "DT_FLOAT"}, "data_format": {"s": "TkhXQw=="}}}, {"name": "StatefulPartitionedCall/model_2/leaky_re_lu_15/LeakyRelu", "op": "LeakyRelu", "input": ["StatefulPartitionedCall/model_2/batch_normalization_15/FusedBatchNormV3"], "attr": {"alpha": {"f": 0.1}, "T": {"type": "DT_FLOAT"}}}, {"name": "StatefulPartitionedCall/model_2/batch_normalization_16/FusedBatchNormV3", "op": "_FusedConv2D", "input": ["StatefulPartitionedCall/model_2/leaky_re_lu_15/LeakyRelu", "StatefulPartitionedCall/model_2/conv2d_16/Conv2D_weights", "StatefulPartitionedCall/model_2/conv2d_16/Conv2D_bn_offset"], "device": "/device:CPU:0", "attr": {"epsilon": {"f": 0.0}, "data_format": {"s": "TkhXQw=="}, "explicit_paddings": {"list": {}}, "fused_ops": {"list": {"s": ["Qmlhc0FkZA=="]}}, "num_args": {"i": "1"}, "strides": {"list": {"i": ["1", "1", "1", "1"]}}, "padding": {"s": "U0FNRQ=="}, "T": {"type": "DT_FLOAT"}, "use_cudnn_on_gpu": {"b": true}, "dilations": {"list": {"i": ["1", "1", "1", "1"]}}}}, {"name": "StatefulPartitionedCall/model_2/leaky_re_lu_16/LeakyRelu", "op": "LeakyRelu", "input": ["StatefulPartitionedCall/model_2/batch_normalization_16/FusedBatchNormV3"], "attr": {"T": {"type": "DT_FLOAT"}, "alpha": {"f": 0.1}}}, {"name": "StatefulPartitionedCall/model_2/add_6/add", "op": "AddV2", "input": ["StatefulPartitionedCall/model_2/add_5/add", "StatefulPartitionedCall/model_2/leaky_re_lu_16/LeakyRelu"], "attr": {"T": {"type": "DT_FLOAT"}}}, {"name": "StatefulPartitionedCall/model_2/batch_normalization_17/FusedBatchNormV3", "op": "_FusedConv2D", "input": ["StatefulPartitionedCall/model_2/add_6/add", "StatefulPartitionedCall/model_2/conv2d_17/Conv2D_weights", "StatefulPartitionedCall/model_2/conv2d_17/Conv2D_bn_offset"], "device": "/device:CPU:0", "attr": {"strides": {"list": {"i": ["1", "1", "1", "1"]}}, "num_args": {"i": "1"}, "explicit_paddings": {"list": {}}, "data_format": {"s": "TkhXQw=="}, "use_cudnn_on_gpu": {"b": true}, "T": {"type": "DT_FLOAT"}, "padding": {"s": "U0FNRQ=="}, "dilations": {"list": {"i": ["1", "1", "1", "1"]}}, "fused_ops": {"list": {"s": ["Qmlhc0FkZA=="]}}, "epsilon": {"f": 0.0}}}, {"name": "StatefulPartitionedCall/model_2/leaky_re_lu_17/LeakyRelu", "op": "LeakyRelu", "input": ["StatefulPartitionedCall/model_2/batch_normalization_17/FusedBatchNormV3"], "attr": {"T": {"type": "DT_FLOAT"}, "alpha": {"f": 0.1}}}, {"name": "StatefulPartitionedCall/model_2/batch_normalization_18/FusedBatchNormV3", "op": "_FusedConv2D", "input": ["StatefulPartitionedCall/model_2/leaky_re_lu_17/LeakyRelu", "StatefulPartitionedCall/model_2/conv2d_18/Conv2D_weights", "StatefulPartitionedCall/model_2/conv2d_18/Conv2D_bn_offset"], "device": "/device:CPU:0", "attr": {"T": {"type": "DT_FLOAT"}, "strides": {"list": {"i": ["1", "1", "1", "1"]}}, "fused_ops": {"list": {"s": ["Qmlhc0FkZA=="]}}, "explicit_paddings": {"list": {}}, "padding": {"s": "U0FNRQ=="}, "data_format": {"s": "TkhXQw=="}, "dilations": {"list": {"i": ["1", "1", "1", "1"]}}, "use_cudnn_on_gpu": {"b": true}, "num_args": {"i": "1"}, "epsilon": {"f": 0.0}}}, {"name": "StatefulPartitionedCall/model_2/leaky_re_lu_18/LeakyRelu", "op": "LeakyRelu", "input": ["StatefulPartitionedCall/model_2/batch_normalization_18/FusedBatchNormV3"], "attr": {"alpha": {"f": 0.1}, "T": {"type": "DT_FLOAT"}}}, {"name": "StatefulPartitionedCall/model_2/add_7/add", "op": "AddV2", "input": ["StatefulPartitionedCall/model_2/add_6/add", "StatefulPartitionedCall/model_2/leaky_re_lu_18/LeakyRelu"], "attr": {"T": {"type": "DT_FLOAT"}}}, {"name": "StatefulPartitionedCall/model_2/batch_normalization_19/FusedBatchNormV3", "op": "_FusedConv2D", "input": ["StatefulPartitionedCall/model_2/add_7/add", "StatefulPartitionedCall/model_2/conv2d_19/Conv2D_weights", "StatefulPartitionedCall/model_2/conv2d_19/Conv2D_bn_offset"], "device": "/device:CPU:0", "attr": {"use_cudnn_on_gpu": {"b": true}, "explicit_paddings": {"list": {}}, "dilations": {"list": {"i": ["1", "1", "1", "1"]}}, "T": {"type": "DT_FLOAT"}, "padding": {"s": "U0FNRQ=="}, "epsilon": {"f": 0.0}, "data_format": {"s": "TkhXQw=="}, "fused_ops": {"list": {"s": ["Qmlhc0FkZA=="]}}, "num_args": {"i": "1"}, "strides": {"list": {"i": ["1", "1", "1", "1"]}}}}, {"name": "StatefulPartitionedCall/model_2/leaky_re_lu_19/LeakyRelu", "op": "LeakyRelu", "input": ["StatefulPartitionedCall/model_2/batch_normalization_19/FusedBatchNormV3"], "attr": {"alpha": {"f": 0.1}, "T": {"type": "DT_FLOAT"}}}, {"name": "StatefulPartitionedCall/model_2/batch_normalization_20/FusedBatchNormV3", "op": "_FusedConv2D", "input": ["StatefulPartitionedCall/model_2/leaky_re_lu_19/LeakyRelu", "StatefulPartitionedCall/model_2/conv2d_20/Conv2D_weights", "StatefulPartitionedCall/model_2/conv2d_20/Conv2D_bn_offset"], "device": "/device:CPU:0", "attr": {"fused_ops": {"list": {"s": ["Qmlhc0FkZA=="]}}, "explicit_paddings": {"list": {}}, "data_format": {"s": "TkhXQw=="}, "T": {"type": "DT_FLOAT"}, "num_args": {"i": "1"}, "padding": {"s": "U0FNRQ=="}, "epsilon": {"f": 0.0}, "use_cudnn_on_gpu": {"b": true}, "dilations": {"list": {"i": ["1", "1", "1", "1"]}}, "strides": {"list": {"i": ["1", "1", "1", "1"]}}}}, {"name": "StatefulPartitionedCall/model_2/leaky_re_lu_20/LeakyRelu", "op": "LeakyRelu", "input": ["StatefulPartitionedCall/model_2/batch_normalization_20/FusedBatchNormV3"], "attr": {"T": {"type": "DT_FLOAT"}, "alpha": {"f": 0.1}}}, {"name": "StatefulPartitionedCall/model_2/add_8/add", "op": "AddV2", "input": ["StatefulPartitionedCall/model_2/add_7/add", "StatefulPartitionedCall/model_2/leaky_re_lu_20/LeakyRelu"], "attr": {"T": {"type": "DT_FLOAT"}}}, {"name": "StatefulPartitionedCall/model_2/batch_normalization_21/FusedBatchNormV3", "op": "_FusedConv2D", "input": ["StatefulPartitionedCall/model_2/add_8/add", "StatefulPartitionedCall/model_2/conv2d_21/Conv2D_weights", "StatefulPartitionedCall/model_2/conv2d_21/Conv2D_bn_offset"], "device": "/device:CPU:0", "attr": {"padding": {"s": "U0FNRQ=="}, "use_cudnn_on_gpu": {"b": true}, "explicit_paddings": {"list": {}}, "epsilon": {"f": 0.0}, "T": {"type": "DT_FLOAT"}, "dilations": {"list": {"i": ["1", "1", "1", "1"]}}, "data_format": {"s": "TkhXQw=="}, "fused_ops": {"list": {"s": ["Qmlhc0FkZA=="]}}, "strides": {"list": {"i": ["1", "1", "1", "1"]}}, "num_args": {"i": "1"}}}, {"name": "StatefulPartitionedCall/model_2/leaky_re_lu_21/LeakyRelu", "op": "LeakyRelu", "input": ["StatefulPartitionedCall/model_2/batch_normalization_21/FusedBatchNormV3"], "attr": {"alpha": {"f": 0.1}, "T": {"type": "DT_FLOAT"}}}, {"name": "StatefulPartitionedCall/model_2/batch_normalization_22/FusedBatchNormV3", "op": "_FusedConv2D", "input": ["StatefulPartitionedCall/model_2/leaky_re_lu_21/LeakyRelu", "StatefulPartitionedCall/model_2/conv2d_22/Conv2D_weights", "StatefulPartitionedCall/model_2/conv2d_22/Conv2D_bn_offset"], "device": "/device:CPU:0", "attr": {"data_format": {"s": "TkhXQw=="}, "explicit_paddings": {"list": {}}, "num_args": {"i": "1"}, "use_cudnn_on_gpu": {"b": true}, "strides": {"list": {"i": ["1", "1", "1", "1"]}}, "dilations": {"list": {"i": ["1", "1", "1", "1"]}}, "T": {"type": "DT_FLOAT"}, "epsilon": {"f": 0.0}, "padding": {"s": "U0FNRQ=="}, "fused_ops": {"list": {"s": ["Qmlhc0FkZA=="]}}}}, {"name": "StatefulPartitionedCall/model_2/leaky_re_lu_22/LeakyRelu", "op": "LeakyRelu", "input": ["StatefulPartitionedCall/model_2/batch_normalization_22/FusedBatchNormV3"], "attr": {"alpha": {"f": 0.1}, "T": {"type": "DT_FLOAT"}}}, {"name": "StatefulPartitionedCall/model_2/add_9/add", "op": "AddV2", "input": ["StatefulPartitionedCall/model_2/add_8/add", "StatefulPartitionedCall/model_2/leaky_re_lu_22/LeakyRelu"], "attr": {"T": {"type": "DT_FLOAT"}}}, {"name": "StatefulPartitionedCall/model_2/batch_normalization_23/FusedBatchNormV3", "op": "_FusedConv2D", "input": ["StatefulPartitionedCall/model_2/add_9/add", "StatefulPartitionedCall/model_2/conv2d_23/Conv2D_weights", "StatefulPartitionedCall/model_2/conv2d_23/Conv2D_bn_offset"], "device": "/device:CPU:0", "attr": {"dilations": {"list": {"i": ["1", "1", "1", "1"]}}, "strides": {"list": {"i": ["1", "1", "1", "1"]}}, "use_cudnn_on_gpu": {"b": true}, "T": {"type": "DT_FLOAT"}, "fused_ops": {"list": {"s": ["Qmlhc0FkZA=="]}}, "num_args": {"i": "1"}, "padding": {"s": "U0FNRQ=="}, "explicit_paddings": {"list": {}}, "epsilon": {"f": 0.0}, "data_format": {"s": "TkhXQw=="}}}, {"name": "StatefulPartitionedCall/model_2/leaky_re_lu_23/LeakyRelu", "op": "LeakyRelu", "input": ["StatefulPartitionedCall/model_2/batch_normalization_23/FusedBatchNormV3"], "attr": {"T": {"type": "DT_FLOAT"}, "alpha": {"f": 0.1}}}, {"name": "StatefulPartitionedCall/model_2/batch_normalization_24/FusedBatchNormV3", "op": "_FusedConv2D", "input": ["StatefulPartitionedCall/model_2/leaky_re_lu_23/LeakyRelu", "StatefulPartitionedCall/model_2/conv2d_24/Conv2D_weights", "StatefulPartitionedCall/model_2/conv2d_24/Conv2D_bn_offset"], "device": "/device:CPU:0", "attr": {"fused_ops": {"list": {"s": ["Qmlhc0FkZA=="]}}, "epsilon": {"f": 0.0}, "padding": {"s": "U0FNRQ=="}, "T": {"type": "DT_FLOAT"}, "use_cudnn_on_gpu": {"b": true}, "explicit_paddings": {"list": {}}, "dilations": {"list": {"i": ["1", "1", "1", "1"]}}, "data_format": {"s": "TkhXQw=="}, "strides": {"list": {"i": ["1", "1", "1", "1"]}}, "num_args": {"i": "1"}}}, {"name": "StatefulPartitionedCall/model_2/leaky_re_lu_24/LeakyRelu", "op": "LeakyRelu", "input": ["StatefulPartitionedCall/model_2/batch_normalization_24/FusedBatchNormV3"], "attr": {"alpha": {"f": 0.1}, "T": {"type": "DT_FLOAT"}}}, {"name": "StatefulPartitionedCall/model_2/add_10/add", "op": "AddV2", "input": ["StatefulPartitionedCall/model_2/add_9/add", "StatefulPartitionedCall/model_2/leaky_re_lu_24/LeakyRelu"], "attr": {"T": {"type": "DT_FLOAT"}}}, {"name": "StatefulPartitionedCall/model_2/batch_normalization_25/FusedBatchNormV3", "op": "_FusedConv2D", "input": ["StatefulPartitionedCall/model_2/add_10/add", "StatefulPartitionedCall/model_2/conv2d_25/Conv2D_weights", "StatefulPartitionedCall/model_2/conv2d_25/Conv2D_bn_offset"], "device": "/device:CPU:0", "attr": {"use_cudnn_on_gpu": {"b": true}, "fused_ops": {"list": {"s": ["Qmlhc0FkZA=="]}}, "num_args": {"i": "1"}, "epsilon": {"f": 0.0}, "dilations": {"list": {"i": ["1", "1", "1", "1"]}}, "explicit_paddings": {"list": {}}, "padding": {"s": "U0FNRQ=="}, "T": {"type": "DT_FLOAT"}, "strides": {"list": {"i": ["1", "1", "1", "1"]}}, "data_format": {"s": "TkhXQw=="}}}, {"name": "StatefulPartitionedCall/model_2/leaky_re_lu_25/LeakyRelu", "op": "LeakyRelu", "input": ["StatefulPartitionedCall/model_2/batch_normalization_25/FusedBatchNormV3"], "attr": {"T": {"type": "DT_FLOAT"}, "alpha": {"f": 0.1}}}, {"name": "StatefulPartitionedCall/model_2/batch_normalization_26/FusedBatchNormV3", "op": "_FusedConv2D", "input": ["StatefulPartitionedCall/model_2/leaky_re_lu_25/LeakyRelu", "StatefulPartitionedCall/model_2/conv2d_26/Conv2D_weights", "StatefulPartitionedCall/model_2/conv2d_26/Conv2D_bn_offset"], "device": "/device:CPU:0", "attr": {"explicit_paddings": {"list": {}}, "num_args": {"i": "1"}, "data_format": {"s": "TkhXQw=="}, "use_cudnn_on_gpu": {"b": true}, "T": {"type": "DT_FLOAT"}, "epsilon": {"f": 0.0}, "strides": {"list": {"i": ["1", "1", "1", "1"]}}, "dilations": {"list": {"i": ["1", "1", "1", "1"]}}, "padding": {"s": "U0FNRQ=="}, "fused_ops": {"list": {"s": ["Qmlhc0FkZA=="]}}}}, {"name": "StatefulPartitionedCall/model_2/leaky_re_lu_26/LeakyRelu", "op": "LeakyRelu", "input": ["StatefulPartitionedCall/model_2/batch_normalization_26/FusedBatchNormV3"], "attr": {"T": {"type": "DT_FLOAT"}, "alpha": {"f": 0.1}}}, {"name": "StatefulPartitionedCall/model_2/add_11/add", "op": "AddV2", "input": ["StatefulPartitionedCall/model_2/add_10/add", "StatefulPartitionedCall/model_2/leaky_re_lu_26/LeakyRelu"], "attr": {"T": {"type": "DT_FLOAT"}}}, {"name": "StatefulPartitionedCall/model_2/zero_padding2d_4/Pad", "op": "Pad", "input": ["StatefulPartitionedCall/model_2/add_11/add", "StatefulPartitionedCall/model_2/zero_padding2d_5/Pad/paddings"], "attr": {"T": {"type": "DT_FLOAT"}, "Tpaddings": {"type": "DT_INT32"}}}, {"name": "StatefulPartitionedCall/model_2/batch_normalization_27/FusedBatchNormV3", "op": "_FusedConv2D", "input": ["StatefulPartitionedCall/model_2/zero_padding2d_4/Pad", "StatefulPartitionedCall/model_2/conv2d_27/Conv2D_weights", "StatefulPartitionedCall/model_2/conv2d_27/Conv2D_bn_offset"], "device": "/device:CPU:0", "attr": {"padding": {"s": "VkFMSUQ="}, "data_format": {"s": "TkhXQw=="}, "explicit_paddings": {"list": {}}, "dilations": {"list": {"i": ["1", "1", "1", "1"]}}, "num_args": {"i": "1"}, "strides": {"list": {"i": ["1", "2", "2", "1"]}}, "T": {"type": "DT_FLOAT"}, "use_cudnn_on_gpu": {"b": true}, "epsilon": {"f": 0.0}, "fused_ops": {"list": {"s": ["Qmlhc0FkZA=="]}}}}, {"name": "StatefulPartitionedCall/model_2/leaky_re_lu_27/LeakyRelu", "op": "LeakyRelu", "input": ["StatefulPartitionedCall/model_2/batch_normalization_27/FusedBatchNormV3"], "attr": {"T": {"type": "DT_FLOAT"}, "alpha": {"f": 0.1}}}, {"name": "StatefulPartitionedCall/model_2/batch_normalization_28/FusedBatchNormV3", "op": "_FusedConv2D", "input": ["StatefulPartitionedCall/model_2/leaky_re_lu_27/LeakyRelu", "StatefulPartitionedCall/model_2/conv2d_28/Conv2D_weights", "StatefulPartitionedCall/model_2/conv2d_28/Conv2D_bn_offset"], "device": "/device:CPU:0", "attr": {"use_cudnn_on_gpu": {"b": true}, "fused_ops": {"list": {"s": ["Qmlhc0FkZA=="]}}, "num_args": {"i": "1"}, "data_format": {"s": "TkhXQw=="}, "strides": {"list": {"i": ["1", "1", "1", "1"]}}, "padding": {"s": "U0FNRQ=="}, "T": {"type": "DT_FLOAT"}, "dilations": {"list": {"i": ["1", "1", "1", "1"]}}, "explicit_paddings": {"list": {}}, "epsilon": {"f": 0.0}}}, {"name": "StatefulPartitionedCall/model_2/leaky_re_lu_28/LeakyRelu", "op": "LeakyRelu", "input": ["StatefulPartitionedCall/model_2/batch_normalization_28/FusedBatchNormV3"], "attr": {"alpha": {"f": 0.1}, "T": {"type": "DT_FLOAT"}}}, {"name": "StatefulPartitionedCall/model_2/batch_normalization_29/FusedBatchNormV3", "op": "_FusedConv2D", "input": ["StatefulPartitionedCall/model_2/leaky_re_lu_28/LeakyRelu", "StatefulPartitionedCall/model_2/conv2d_29/Conv2D_weights", "StatefulPartitionedCall/model_2/conv2d_29/Conv2D_bn_offset"], "device": "/device:CPU:0", "attr": {"explicit_paddings": {"list": {}}, "fused_ops": {"list": {"s": ["Qmlhc0FkZA=="]}}, "strides": {"list": {"i": ["1", "1", "1", "1"]}}, "padding": {"s": "U0FNRQ=="}, "data_format": {"s": "TkhXQw=="}, "T": {"type": "DT_FLOAT"}, "num_args": {"i": "1"}, "epsilon": {"f": 0.0}, "dilations": {"list": {"i": ["1", "1", "1", "1"]}}, "use_cudnn_on_gpu": {"b": true}}}, {"name": "StatefulPartitionedCall/model_2/leaky_re_lu_29/LeakyRelu", "op": "LeakyRelu", "input": ["StatefulPartitionedCall/model_2/batch_normalization_29/FusedBatchNormV3"], "attr": {"T": {"type": "DT_FLOAT"}, "alpha": {"f": 0.1}}}, {"name": "StatefulPartitionedCall/model_2/add_12/add", "op": "AddV2", "input": ["StatefulPartitionedCall/model_2/leaky_re_lu_27/LeakyRelu", "StatefulPartitionedCall/model_2/leaky_re_lu_29/LeakyRelu"], "attr": {"T": {"type": "DT_FLOAT"}}}, {"name": "StatefulPartitionedCall/model_2/batch_normalization_30/FusedBatchNormV3", "op": "_FusedConv2D", "input": ["StatefulPartitionedCall/model_2/add_12/add", "StatefulPartitionedCall/model_2/conv2d_30/Conv2D_weights", "StatefulPartitionedCall/model_2/conv2d_30/Conv2D_bn_offset"], "device": "/device:CPU:0", "attr": {"padding": {"s": "U0FNRQ=="}, "fused_ops": {"list": {"s": ["Qmlhc0FkZA=="]}}, "data_format": {"s": "TkhXQw=="}, "num_args": {"i": "1"}, "dilations": {"list": {"i": ["1", "1", "1", "1"]}}, "T": {"type": "DT_FLOAT"}, "use_cudnn_on_gpu": {"b": true}, "epsilon": {"f": 0.0}, "strides": {"list": {"i": ["1", "1", "1", "1"]}}, "explicit_paddings": {"list": {}}}}, {"name": "StatefulPartitionedCall/model_2/leaky_re_lu_30/LeakyRelu", "op": "LeakyRelu", "input": ["StatefulPartitionedCall/model_2/batch_normalization_30/FusedBatchNormV3"], "attr": {"T": {"type": "DT_FLOAT"}, "alpha": {"f": 0.1}}}, {"name": "StatefulPartitionedCall/model_2/batch_normalization_31/FusedBatchNormV3", "op": "_FusedConv2D", "input": ["StatefulPartitionedCall/model_2/leaky_re_lu_30/LeakyRelu", "StatefulPartitionedCall/model_2/conv2d_31/Conv2D_weights", "StatefulPartitionedCall/model_2/conv2d_31/Conv2D_bn_offset"], "device": "/device:CPU:0", "attr": {"use_cudnn_on_gpu": {"b": true}, "strides": {"list": {"i": ["1", "1", "1", "1"]}}, "explicit_paddings": {"list": {}}, "T": {"type": "DT_FLOAT"}, "fused_ops": {"list": {"s": ["Qmlhc0FkZA=="]}}, "num_args": {"i": "1"}, "epsilon": {"f": 0.0}, "dilations": {"list": {"i": ["1", "1", "1", "1"]}}, "data_format": {"s": "TkhXQw=="}, "padding": {"s": "U0FNRQ=="}}}, {"name": "StatefulPartitionedCall/model_2/leaky_re_lu_31/LeakyRelu", "op": "LeakyRelu", "input": ["StatefulPartitionedCall/model_2/batch_normalization_31/FusedBatchNormV3"], "attr": {"T": {"type": "DT_FLOAT"}, "alpha": {"f": 0.1}}}, {"name": "StatefulPartitionedCall/model_2/add_13/add", "op": "AddV2", "input": ["StatefulPartitionedCall/model_2/add_12/add", "StatefulPartitionedCall/model_2/leaky_re_lu_31/LeakyRelu"], "attr": {"T": {"type": "DT_FLOAT"}}}, {"name": "StatefulPartitionedCall/model_2/batch_normalization_32/FusedBatchNormV3", "op": "_FusedConv2D", "input": ["StatefulPartitionedCall/model_2/add_13/add", "StatefulPartitionedCall/model_2/conv2d_32/Conv2D_weights", "StatefulPartitionedCall/model_2/conv2d_32/Conv2D_bn_offset"], "device": "/device:CPU:0", "attr": {"use_cudnn_on_gpu": {"b": true}, "explicit_paddings": {"list": {}}, "padding": {"s": "U0FNRQ=="}, "num_args": {"i": "1"}, "data_format": {"s": "TkhXQw=="}, "epsilon": {"f": 0.0}, "fused_ops": {"list": {"s": ["Qmlhc0FkZA=="]}}, "dilations": {"list": {"i": ["1", "1", "1", "1"]}}, "strides": {"list": {"i": ["1", "1", "1", "1"]}}, "T": {"type": "DT_FLOAT"}}}, {"name": "StatefulPartitionedCall/model_2/leaky_re_lu_32/LeakyRelu", "op": "LeakyRelu", "input": ["StatefulPartitionedCall/model_2/batch_normalization_32/FusedBatchNormV3"], "attr": {"alpha": {"f": 0.1}, "T": {"type": "DT_FLOAT"}}}, {"name": "StatefulPartitionedCall/model_2/batch_normalization_33/FusedBatchNormV3", "op": "_FusedConv2D", "input": ["StatefulPartitionedCall/model_2/leaky_re_lu_32/LeakyRelu", "StatefulPartitionedCall/model_2/conv2d_33/Conv2D_weights", "StatefulPartitionedCall/model_2/conv2d_33/Conv2D_bn_offset"], "device": "/device:CPU:0", "attr": {"fused_ops": {"list": {"s": ["Qmlhc0FkZA=="]}}, "padding": {"s": "U0FNRQ=="}, "epsilon": {"f": 0.0}, "data_format": {"s": "TkhXQw=="}, "explicit_paddings": {"list": {}}, "use_cudnn_on_gpu": {"b": true}, "dilations": {"list": {"i": ["1", "1", "1", "1"]}}, "strides": {"list": {"i": ["1", "1", "1", "1"]}}, "num_args": {"i": "1"}, "T": {"type": "DT_FLOAT"}}}, {"name": "StatefulPartitionedCall/model_2/leaky_re_lu_33/LeakyRelu", "op": "LeakyRelu", "input": ["StatefulPartitionedCall/model_2/batch_normalization_33/FusedBatchNormV3"], "attr": {"T": {"type": "DT_FLOAT"}, "alpha": {"f": 0.1}}}, {"name": "StatefulPartitionedCall/model_2/add_14/add", "op": "AddV2", "input": ["StatefulPartitionedCall/model_2/add_13/add", "StatefulPartitionedCall/model_2/leaky_re_lu_33/LeakyRelu"], "attr": {"T": {"type": "DT_FLOAT"}}}, {"name": "StatefulPartitionedCall/model_2/batch_normalization_34/FusedBatchNormV3", "op": "_FusedConv2D", "input": ["StatefulPartitionedCall/model_2/add_14/add", "StatefulPartitionedCall/model_2/conv2d_34/Conv2D_weights", "StatefulPartitionedCall/model_2/conv2d_34/Conv2D_bn_offset"], "device": "/device:CPU:0", "attr": {"explicit_paddings": {"list": {}}, "epsilon": {"f": 0.0}, "num_args": {"i": "1"}, "use_cudnn_on_gpu": {"b": true}, "padding": {"s": "U0FNRQ=="}, "data_format": {"s": "TkhXQw=="}, "fused_ops": {"list": {"s": ["Qmlhc0FkZA=="]}}, "strides": {"list": {"i": ["1", "1", "1", "1"]}}, "dilations": {"list": {"i": ["1", "1", "1", "1"]}}, "T": {"type": "DT_FLOAT"}}}, {"name": "StatefulPartitionedCall/model_2/leaky_re_lu_34/LeakyRelu", "op": "LeakyRelu", "input": ["StatefulPartitionedCall/model_2/batch_normalization_34/FusedBatchNormV3"], "attr": {"alpha": {"f": 0.1}, "T": {"type": "DT_FLOAT"}}}, {"name": "StatefulPartitionedCall/model_2/batch_normalization_35/FusedBatchNormV3", "op": "_FusedConv2D", "input": ["StatefulPartitionedCall/model_2/leaky_re_lu_34/LeakyRelu", "StatefulPartitionedCall/model_2/conv2d_35/Conv2D_weights", "StatefulPartitionedCall/model_2/conv2d_35/Conv2D_bn_offset"], "device": "/device:CPU:0", "attr": {"fused_ops": {"list": {"s": ["Qmlhc0FkZA=="]}}, "explicit_paddings": {"list": {}}, "use_cudnn_on_gpu": {"b": true}, "padding": {"s": "U0FNRQ=="}, "T": {"type": "DT_FLOAT"}, "epsilon": {"f": 0.0}, "dilations": {"list": {"i": ["1", "1", "1", "1"]}}, "strides": {"list": {"i": ["1", "1", "1", "1"]}}, "num_args": {"i": "1"}, "data_format": {"s": "TkhXQw=="}}}, {"name": "StatefulPartitionedCall/model_2/leaky_re_lu_35/LeakyRelu", "op": "LeakyRelu", "input": ["StatefulPartitionedCall/model_2/batch_normalization_35/FusedBatchNormV3"], "attr": {"alpha": {"f": 0.1}, "T": {"type": "DT_FLOAT"}}}, {"name": "StatefulPartitionedCall/model_2/add_15/add", "op": "AddV2", "input": ["StatefulPartitionedCall/model_2/add_14/add", "StatefulPartitionedCall/model_2/leaky_re_lu_35/LeakyRelu"], "attr": {"T": {"type": "DT_FLOAT"}}}, {"name": "StatefulPartitionedCall/model_2/batch_normalization_36/FusedBatchNormV3", "op": "_FusedConv2D", "input": ["StatefulPartitionedCall/model_2/add_15/add", "StatefulPartitionedCall/model_2/conv2d_36/Conv2D_weights", "StatefulPartitionedCall/model_2/conv2d_36/Conv2D_bn_offset"], "device": "/device:CPU:0", "attr": {"dilations": {"list": {"i": ["1", "1", "1", "1"]}}, "data_format": {"s": "TkhXQw=="}, "padding": {"s": "U0FNRQ=="}, "T": {"type": "DT_FLOAT"}, "strides": {"list": {"i": ["1", "1", "1", "1"]}}, "use_cudnn_on_gpu": {"b": true}, "epsilon": {"f": 0.0}, "explicit_paddings": {"list": {}}, "num_args": {"i": "1"}, "fused_ops": {"list": {"s": ["Qmlhc0FkZA=="]}}}}, {"name": "StatefulPartitionedCall/model_2/leaky_re_lu_36/LeakyRelu", "op": "LeakyRelu", "input": ["StatefulPartitionedCall/model_2/batch_normalization_36/FusedBatchNormV3"], "attr": {"alpha": {"f": 0.1}, "T": {"type": "DT_FLOAT"}}}, {"name": "StatefulPartitionedCall/model_2/batch_normalization_37/FusedBatchNormV3", "op": "_FusedConv2D", "input": ["StatefulPartitionedCall/model_2/leaky_re_lu_36/LeakyRelu", "StatefulPartitionedCall/model_2/conv2d_37/Conv2D_weights", "StatefulPartitionedCall/model_2/conv2d_37/Conv2D_bn_offset"], "device": "/device:CPU:0", "attr": {"strides": {"list": {"i": ["1", "1", "1", "1"]}}, "dilations": {"list": {"i": ["1", "1", "1", "1"]}}, "T": {"type": "DT_FLOAT"}, "fused_ops": {"list": {"s": ["Qmlhc0FkZA=="]}}, "padding": {"s": "U0FNRQ=="}, "data_format": {"s": "TkhXQw=="}, "num_args": {"i": "1"}, "epsilon": {"f": 0.0}, "explicit_paddings": {"list": {}}, "use_cudnn_on_gpu": {"b": true}}}, {"name": "StatefulPartitionedCall/model_2/leaky_re_lu_37/LeakyRelu", "op": "LeakyRelu", "input": ["StatefulPartitionedCall/model_2/batch_normalization_37/FusedBatchNormV3"], "attr": {"alpha": {"f": 0.1}, "T": {"type": "DT_FLOAT"}}}, {"name": "StatefulPartitionedCall/model_2/add_16/add", "op": "AddV2", "input": ["StatefulPartitionedCall/model_2/add_15/add", "StatefulPartitionedCall/model_2/leaky_re_lu_37/LeakyRelu"], "attr": {"T": {"type": "DT_FLOAT"}}}, {"name": "StatefulPartitionedCall/model_2/batch_normalization_38/FusedBatchNormV3", "op": "_FusedConv2D", "input": ["StatefulPartitionedCall/model_2/add_16/add", "StatefulPartitionedCall/model_2/conv2d_38/Conv2D_weights", "StatefulPartitionedCall/model_2/conv2d_38/Conv2D_bn_offset"], "device": "/device:CPU:0", "attr": {"num_args": {"i": "1"}, "fused_ops": {"list": {"s": ["Qmlhc0FkZA=="]}}, "padding": {"s": "U0FNRQ=="}, "data_format": {"s": "TkhXQw=="}, "epsilon": {"f": 0.0}, "dilations": {"list": {"i": ["1", "1", "1", "1"]}}, "strides": {"list": {"i": ["1", "1", "1", "1"]}}, "explicit_paddings": {"list": {}}, "use_cudnn_on_gpu": {"b": true}, "T": {"type": "DT_FLOAT"}}}, {"name": "StatefulPartitionedCall/model_2/leaky_re_lu_38/LeakyRelu", "op": "LeakyRelu", "input": ["StatefulPartitionedCall/model_2/batch_normalization_38/FusedBatchNormV3"], "attr": {"alpha": {"f": 0.1}, "T": {"type": "DT_FLOAT"}}}, {"name": "StatefulPartitionedCall/model_2/batch_normalization_39/FusedBatchNormV3", "op": "_FusedConv2D", "input": ["StatefulPartitionedCall/model_2/leaky_re_lu_38/LeakyRelu", "StatefulPartitionedCall/model_2/conv2d_39/Conv2D_weights", "StatefulPartitionedCall/model_2/conv2d_39/Conv2D_bn_offset"], "device": "/device:CPU:0", "attr": {"use_cudnn_on_gpu": {"b": true}, "dilations": {"list": {"i": ["1", "1", "1", "1"]}}, "T": {"type": "DT_FLOAT"}, "strides": {"list": {"i": ["1", "1", "1", "1"]}}, "fused_ops": {"list": {"s": ["Qmlhc0FkZA=="]}}, "epsilon": {"f": 0.0}, "data_format": {"s": "TkhXQw=="}, "num_args": {"i": "1"}, "padding": {"s": "U0FNRQ=="}, "explicit_paddings": {"list": {}}}}, {"name": "StatefulPartitionedCall/model_2/leaky_re_lu_39/LeakyRelu", "op": "LeakyRelu", "input": ["StatefulPartitionedCall/model_2/batch_normalization_39/FusedBatchNormV3"], "attr": {"alpha": {"f": 0.1}, "T": {"type": "DT_FLOAT"}}}, {"name": "StatefulPartitionedCall/model_2/add_17/add", "op": "AddV2", "input": ["StatefulPartitionedCall/model_2/add_16/add", "StatefulPartitionedCall/model_2/leaky_re_lu_39/LeakyRelu"], "attr": {"T": {"type": "DT_FLOAT"}}}, {"name": "StatefulPartitionedCall/model_2/batch_normalization_40/FusedBatchNormV3", "op": "_FusedConv2D", "input": ["StatefulPartitionedCall/model_2/add_17/add", "StatefulPartitionedCall/model_2/conv2d_40/Conv2D_weights", "StatefulPartitionedCall/model_2/conv2d_40/Conv2D_bn_offset"], "device": "/device:CPU:0", "attr": {"padding": {"s": "U0FNRQ=="}, "use_cudnn_on_gpu": {"b": true}, "num_args": {"i": "1"}, "strides": {"list": {"i": ["1", "1", "1", "1"]}}, "fused_ops": {"list": {"s": ["Qmlhc0FkZA=="]}}, "dilations": {"list": {"i": ["1", "1", "1", "1"]}}, "explicit_paddings": {"list": {}}, "epsilon": {"f": 0.0}, "T": {"type": "DT_FLOAT"}, "data_format": {"s": "TkhXQw=="}}}, {"name": "StatefulPartitionedCall/model_2/leaky_re_lu_40/LeakyRelu", "op": "LeakyRelu", "input": ["StatefulPartitionedCall/model_2/batch_normalization_40/FusedBatchNormV3"], "attr": {"alpha": {"f": 0.1}, "T": {"type": "DT_FLOAT"}}}, {"name": "StatefulPartitionedCall/model_2/batch_normalization_41/FusedBatchNormV3", "op": "_FusedConv2D", "input": ["StatefulPartitionedCall/model_2/leaky_re_lu_40/LeakyRelu", "StatefulPartitionedCall/model_2/conv2d_41/Conv2D_weights", "StatefulPartitionedCall/model_2/conv2d_41/Conv2D_bn_offset"], "device": "/device:CPU:0", "attr": {"dilations": {"list": {"i": ["1", "1", "1", "1"]}}, "num_args": {"i": "1"}, "explicit_paddings": {"list": {}}, "data_format": {"s": "TkhXQw=="}, "strides": {"list": {"i": ["1", "1", "1", "1"]}}, "T": {"type": "DT_FLOAT"}, "use_cudnn_on_gpu": {"b": true}, "epsilon": {"f": 0.0}, "fused_ops": {"list": {"s": ["Qmlhc0FkZA=="]}}, "padding": {"s": "U0FNRQ=="}}}, {"name": "StatefulPartitionedCall/model_2/leaky_re_lu_41/LeakyRelu", "op": "LeakyRelu", "input": ["StatefulPartitionedCall/model_2/batch_normalization_41/FusedBatchNormV3"], "attr": {"T": {"type": "DT_FLOAT"}, "alpha": {"f": 0.1}}}, {"name": "StatefulPartitionedCall/model_2/add_18/add", "op": "AddV2", "input": ["StatefulPartitionedCall/model_2/add_17/add", "StatefulPartitionedCall/model_2/leaky_re_lu_41/LeakyRelu"], "attr": {"T": {"type": "DT_FLOAT"}}}, {"name": "StatefulPartitionedCall/model_2/batch_normalization_42/FusedBatchNormV3", "op": "_FusedConv2D", "input": ["StatefulPartitionedCall/model_2/add_18/add", "StatefulPartitionedCall/model_2/conv2d_42/Conv2D_weights", "StatefulPartitionedCall/model_2/conv2d_42/Conv2D_bn_offset"], "device": "/device:CPU:0", "attr": {"epsilon": {"f": 0.0}, "T": {"type": "DT_FLOAT"}, "strides": {"list": {"i": ["1", "1", "1", "1"]}}, "num_args": {"i": "1"}, "dilations": {"list": {"i": ["1", "1", "1", "1"]}}, "explicit_paddings": {"list": {}}, "padding": {"s": "U0FNRQ=="}, "use_cudnn_on_gpu": {"b": true}, "fused_ops": {"list": {"s": ["Qmlhc0FkZA=="]}}, "data_format": {"s": "TkhXQw=="}}}, {"name": "StatefulPartitionedCall/model_2/leaky_re_lu_42/LeakyRelu", "op": "LeakyRelu", "input": ["StatefulPartitionedCall/model_2/batch_normalization_42/FusedBatchNormV3"], "attr": {"alpha": {"f": 0.1}, "T": {"type": "DT_FLOAT"}}}, {"name": "StatefulPartitionedCall/model_2/batch_normalization_43/FusedBatchNormV3", "op": "_FusedConv2D", "input": ["StatefulPartitionedCall/model_2/leaky_re_lu_42/LeakyRelu", "StatefulPartitionedCall/model_2/conv2d_43/Conv2D_weights", "StatefulPartitionedCall/model_2/conv2d_43/Conv2D_bn_offset"], "device": "/device:CPU:0", "attr": {"fused_ops": {"list": {"s": ["Qmlhc0FkZA=="]}}, "strides": {"list": {"i": ["1", "1", "1", "1"]}}, "data_format": {"s": "TkhXQw=="}, "epsilon": {"f": 0.0}, "dilations": {"list": {"i": ["1", "1", "1", "1"]}}, "T": {"type": "DT_FLOAT"}, "use_cudnn_on_gpu": {"b": true}, "padding": {"s": "U0FNRQ=="}, "num_args": {"i": "1"}, "explicit_paddings": {"list": {}}}}, {"name": "StatefulPartitionedCall/model_2/leaky_re_lu_43/LeakyRelu", "op": "LeakyRelu", "input": ["StatefulPartitionedCall/model_2/batch_normalization_43/FusedBatchNormV3"], "attr": {"alpha": {"f": 0.1}, "T": {"type": "DT_FLOAT"}}}, {"name": "StatefulPartitionedCall/model_2/add_19/add", "op": "AddV2", "input": ["StatefulPartitionedCall/model_2/add_18/add", "StatefulPartitionedCall/model_2/leaky_re_lu_43/LeakyRelu"], "attr": {"T": {"type": "DT_FLOAT"}}}, {"name": "StatefulPartitionedCall/model_2/zero_padding2d_5/Pad", "op": "Pad", "input": ["StatefulPartitionedCall/model_2/add_19/add", "StatefulPartitionedCall/model_2/zero_padding2d_5/Pad/paddings"], "attr": {"T": {"type": "DT_FLOAT"}, "Tpaddings": {"type": "DT_INT32"}}}, {"name": "StatefulPartitionedCall/model_2/batch_normalization_44/FusedBatchNormV3", "op": "_FusedConv2D", "input": ["StatefulPartitionedCall/model_2/zero_padding2d_5/Pad", "StatefulPartitionedCall/model_2/conv2d_44/Conv2D_weights", "StatefulPartitionedCall/model_2/conv2d_44/Conv2D_bn_offset"], "device": "/device:CPU:0", "attr": {"padding": {"s": "VkFMSUQ="}, "num_args": {"i": "1"}, "explicit_paddings": {"list": {}}, "fused_ops": {"list": {"s": ["Qmlhc0FkZA=="]}}, "dilations": {"list": {"i": ["1", "1", "1", "1"]}}, "data_format": {"s": "TkhXQw=="}, "T": {"type": "DT_FLOAT"}, "epsilon": {"f": 0.0}, "use_cudnn_on_gpu": {"b": true}, "strides": {"list": {"i": ["1", "2", "2", "1"]}}}}, {"name": "StatefulPartitionedCall/model_2/leaky_re_lu_44/LeakyRelu", "op": "LeakyRelu", "input": ["StatefulPartitionedCall/model_2/batch_normalization_44/FusedBatchNormV3"], "attr": {"T": {"type": "DT_FLOAT"}, "alpha": {"f": 0.1}}}, {"name": "StatefulPartitionedCall/model_2/batch_normalization_45/FusedBatchNormV3", "op": "_FusedConv2D", "input": ["StatefulPartitionedCall/model_2/leaky_re_lu_44/LeakyRelu", "StatefulPartitionedCall/model_2/conv2d_45/Conv2D_weights", "StatefulPartitionedCall/model_2/conv2d_45/Conv2D_bn_offset"], "device": "/device:CPU:0", "attr": {"fused_ops": {"list": {"s": ["Qmlhc0FkZA=="]}}, "dilations": {"list": {"i": ["1", "1", "1", "1"]}}, "num_args": {"i": "1"}, "data_format": {"s": "TkhXQw=="}, "explicit_paddings": {"list": {}}, "padding": {"s": "U0FNRQ=="}, "epsilon": {"f": 0.0}, "use_cudnn_on_gpu": {"b": true}, "strides": {"list": {"i": ["1", "1", "1", "1"]}}, "T": {"type": "DT_FLOAT"}}}, {"name": "StatefulPartitionedCall/model_2/leaky_re_lu_45/LeakyRelu", "op": "LeakyRelu", "input": ["StatefulPartitionedCall/model_2/batch_normalization_45/FusedBatchNormV3"], "attr": {"alpha": {"f": 0.1}, "T": {"type": "DT_FLOAT"}}}, {"name": "StatefulPartitionedCall/model_2/batch_normalization_46/FusedBatchNormV3", "op": "_FusedConv2D", "input": ["StatefulPartitionedCall/model_2/leaky_re_lu_45/LeakyRelu", "StatefulPartitionedCall/model_2/conv2d_46/Conv2D_weights", "StatefulPartitionedCall/model_2/conv2d_46/Conv2D_bn_offset"], "device": "/device:CPU:0", "attr": {"num_args": {"i": "1"}, "epsilon": {"f": 0.0}, "T": {"type": "DT_FLOAT"}, "data_format": {"s": "TkhXQw=="}, "dilations": {"list": {"i": ["1", "1", "1", "1"]}}, "use_cudnn_on_gpu": {"b": true}, "strides": {"list": {"i": ["1", "1", "1", "1"]}}, "fused_ops": {"list": {"s": ["Qmlhc0FkZA=="]}}, "padding": {"s": "U0FNRQ=="}, "explicit_paddings": {"list": {}}}}, {"name": "StatefulPartitionedCall/model_2/leaky_re_lu_46/LeakyRelu", "op": "LeakyRelu", "input": ["StatefulPartitionedCall/model_2/batch_normalization_46/FusedBatchNormV3"], "attr": {"alpha": {"f": 0.1}, "T": {"type": "DT_FLOAT"}}}, {"name": "StatefulPartitionedCall/model_2/add_20/add", "op": "AddV2", "input": ["StatefulPartitionedCall/model_2/leaky_re_lu_44/LeakyRelu", "StatefulPartitionedCall/model_2/leaky_re_lu_46/LeakyRelu"], "attr": {"T": {"type": "DT_FLOAT"}}}, {"name": "StatefulPartitionedCall/model_2/batch_normalization_47/FusedBatchNormV3", "op": "_FusedConv2D", "input": ["StatefulPartitionedCall/model_2/add_20/add", "StatefulPartitionedCall/model_2/conv2d_47/Conv2D_weights", "StatefulPartitionedCall/model_2/conv2d_47/Conv2D_bn_offset"], "device": "/device:CPU:0", "attr": {"epsilon": {"f": 0.0}, "use_cudnn_on_gpu": {"b": true}, "num_args": {"i": "1"}, "data_format": {"s": "TkhXQw=="}, "T": {"type": "DT_FLOAT"}, "fused_ops": {"list": {"s": ["Qmlhc0FkZA=="]}}, "padding": {"s": "U0FNRQ=="}, "dilations": {"list": {"i": ["1", "1", "1", "1"]}}, "explicit_paddings": {"list": {}}, "strides": {"list": {"i": ["1", "1", "1", "1"]}}}}, {"name": "StatefulPartitionedCall/model_2/leaky_re_lu_47/LeakyRelu", "op": "LeakyRelu", "input": ["StatefulPartitionedCall/model_2/batch_normalization_47/FusedBatchNormV3"], "attr": {"alpha": {"f": 0.1}, "T": {"type": "DT_FLOAT"}}}, {"name": "StatefulPartitionedCall/model_2/batch_normalization_48/FusedBatchNormV3", "op": "_FusedConv2D", "input": ["StatefulPartitionedCall/model_2/leaky_re_lu_47/LeakyRelu", "StatefulPartitionedCall/model_2/conv2d_48/Conv2D_weights", "StatefulPartitionedCall/model_2/conv2d_48/Conv2D_bn_offset"], "device": "/device:CPU:0", "attr": {"explicit_paddings": {"list": {}}, "T": {"type": "DT_FLOAT"}, "use_cudnn_on_gpu": {"b": true}, "num_args": {"i": "1"}, "padding": {"s": "U0FNRQ=="}, "strides": {"list": {"i": ["1", "1", "1", "1"]}}, "fused_ops": {"list": {"s": ["Qmlhc0FkZA=="]}}, "data_format": {"s": "TkhXQw=="}, "dilations": {"list": {"i": ["1", "1", "1", "1"]}}, "epsilon": {"f": 0.0}}}, {"name": "StatefulPartitionedCall/model_2/leaky_re_lu_48/LeakyRelu", "op": "LeakyRelu", "input": ["StatefulPartitionedCall/model_2/batch_normalization_48/FusedBatchNormV3"], "attr": {"alpha": {"f": 0.1}, "T": {"type": "DT_FLOAT"}}}, {"name": "StatefulPartitionedCall/model_2/add_21/add", "op": "AddV2", "input": ["StatefulPartitionedCall/model_2/add_20/add", "StatefulPartitionedCall/model_2/leaky_re_lu_48/LeakyRelu"], "attr": {"T": {"type": "DT_FLOAT"}}}, {"name": "StatefulPartitionedCall/model_2/batch_normalization_49/FusedBatchNormV3", "op": "_FusedConv2D", "input": ["StatefulPartitionedCall/model_2/add_21/add", "StatefulPartitionedCall/model_2/conv2d_49/Conv2D_weights", "StatefulPartitionedCall/model_2/conv2d_49/Conv2D_bn_offset"], "device": "/device:CPU:0", "attr": {"num_args": {"i": "1"}, "dilations": {"list": {"i": ["1", "1", "1", "1"]}}, "epsilon": {"f": 0.0}, "explicit_paddings": {"list": {}}, "padding": {"s": "U0FNRQ=="}, "use_cudnn_on_gpu": {"b": true}, "T": {"type": "DT_FLOAT"}, "fused_ops": {"list": {"s": ["Qmlhc0FkZA=="]}}, "data_format": {"s": "TkhXQw=="}, "strides": {"list": {"i": ["1", "1", "1", "1"]}}}}, {"name": "StatefulPartitionedCall/model_2/leaky_re_lu_49/LeakyRelu", "op": "LeakyRelu", "input": ["StatefulPartitionedCall/model_2/batch_normalization_49/FusedBatchNormV3"], "attr": {"alpha": {"f": 0.1}, "T": {"type": "DT_FLOAT"}}}, {"name": "StatefulPartitionedCall/model_2/batch_normalization_50/FusedBatchNormV3", "op": "_FusedConv2D", "input": ["StatefulPartitionedCall/model_2/leaky_re_lu_49/LeakyRelu", "StatefulPartitionedCall/model_2/conv2d_50/Conv2D_weights", "StatefulPartitionedCall/model_2/conv2d_50/Conv2D_bn_offset"], "device": "/device:CPU:0", "attr": {"num_args": {"i": "1"}, "T": {"type": "DT_FLOAT"}, "padding": {"s": "U0FNRQ=="}, "explicit_paddings": {"list": {}}, "fused_ops": {"list": {"s": ["Qmlhc0FkZA=="]}}, "epsilon": {"f": 0.0}, "dilations": {"list": {"i": ["1", "1", "1", "1"]}}, "data_format": {"s": "TkhXQw=="}, "use_cudnn_on_gpu": {"b": true}, "strides": {"list": {"i": ["1", "1", "1", "1"]}}}}, {"name": "StatefulPartitionedCall/model_2/leaky_re_lu_50/LeakyRelu", "op": "LeakyRelu", "input": ["StatefulPartitionedCall/model_2/batch_normalization_50/FusedBatchNormV3"], "attr": {"alpha": {"f": 0.1}, "T": {"type": "DT_FLOAT"}}}, {"name": "StatefulPartitionedCall/model_2/add_22/add", "op": "AddV2", "input": ["StatefulPartitionedCall/model_2/add_21/add", "StatefulPartitionedCall/model_2/leaky_re_lu_50/LeakyRelu"], "attr": {"T": {"type": "DT_FLOAT"}}}, {"name": "StatefulPartitionedCall/model_2/batch_normalization_51/FusedBatchNormV3", "op": "_FusedConv2D", "input": ["StatefulPartitionedCall/model_2/add_22/add", "StatefulPartitionedCall/model_2/conv2d_51/Conv2D_weights", "StatefulPartitionedCall/model_2/conv2d_51/Conv2D_bn_offset"], "device": "/device:CPU:0", "attr": {"epsilon": {"f": 0.0}, "padding": {"s": "U0FNRQ=="}, "use_cudnn_on_gpu": {"b": true}, "num_args": {"i": "1"}, "strides": {"list": {"i": ["1", "1", "1", "1"]}}, "data_format": {"s": "TkhXQw=="}, "fused_ops": {"list": {"s": ["Qmlhc0FkZA=="]}}, "explicit_paddings": {"list": {}}, "T": {"type": "DT_FLOAT"}, "dilations": {"list": {"i": ["1", "1", "1", "1"]}}}}, {"name": "StatefulPartitionedCall/model_2/leaky_re_lu_51/LeakyRelu", "op": "LeakyRelu", "input": ["StatefulPartitionedCall/model_2/batch_normalization_51/FusedBatchNormV3"], "attr": {"T": {"type": "DT_FLOAT"}, "alpha": {"f": 0.1}}}, {"name": "StatefulPartitionedCall/model_2/batch_normalization_52/FusedBatchNormV3", "op": "_FusedConv2D", "input": ["StatefulPartitionedCall/model_2/leaky_re_lu_51/LeakyRelu", "StatefulPartitionedCall/model_2/conv2d_52/Conv2D_weights", "StatefulPartitionedCall/model_2/conv2d_52/Conv2D_bn_offset"], "device": "/device:CPU:0", "attr": {"explicit_paddings": {"list": {}}, "num_args": {"i": "1"}, "strides": {"list": {"i": ["1", "1", "1", "1"]}}, "dilations": {"list": {"i": ["1", "1", "1", "1"]}}, "use_cudnn_on_gpu": {"b": true}, "padding": {"s": "U0FNRQ=="}, "fused_ops": {"list": {"s": ["Qmlhc0FkZA=="]}}, "T": {"type": "DT_FLOAT"}, "epsilon": {"f": 0.0}, "data_format": {"s": "TkhXQw=="}}}, {"name": "StatefulPartitionedCall/model_2/leaky_re_lu_52/LeakyRelu", "op": "LeakyRelu", "input": ["StatefulPartitionedCall/model_2/batch_normalization_52/FusedBatchNormV3"], "attr": {"alpha": {"f": 0.1}, "T": {"type": "DT_FLOAT"}}}, {"name": "StatefulPartitionedCall/model_2/add_23/add", "op": "AddV2", "input": ["StatefulPartitionedCall/model_2/add_22/add", "StatefulPartitionedCall/model_2/leaky_re_lu_52/LeakyRelu"], "attr": {"T": {"type": "DT_FLOAT"}}}, {"name": "StatefulPartitionedCall/model_2/batch_normalization_53/FusedBatchNormV3", "op": "_FusedConv2D", "input": ["StatefulPartitionedCall/model_2/add_23/add", "StatefulPartitionedCall/model_2/conv2d_53/Conv2D_weights", "StatefulPartitionedCall/model_2/conv2d_53/Conv2D_bn_offset"], "device": "/device:CPU:0", "attr": {"epsilon": {"f": 0.0}, "use_cudnn_on_gpu": {"b": true}, "dilations": {"list": {"i": ["1", "1", "1", "1"]}}, "fused_ops": {"list": {"s": ["Qmlhc0FkZA=="]}}, "explicit_paddings": {"list": {}}, "data_format": {"s": "TkhXQw=="}, "strides": {"list": {"i": ["1", "1", "1", "1"]}}, "padding": {"s": "U0FNRQ=="}, "num_args": {"i": "1"}, "T": {"type": "DT_FLOAT"}}}, {"name": "StatefulPartitionedCall/model_2/leaky_re_lu_53/LeakyRelu", "op": "LeakyRelu", "input": ["StatefulPartitionedCall/model_2/batch_normalization_53/FusedBatchNormV3"], "attr": {"alpha": {"f": 0.1}, "T": {"type": "DT_FLOAT"}}}, {"name": "StatefulPartitionedCall/model_2/batch_normalization_54/FusedBatchNormV3", "op": "_FusedConv2D", "input": ["StatefulPartitionedCall/model_2/leaky_re_lu_53/LeakyRelu", "StatefulPartitionedCall/model_2/conv2d_54/Conv2D_weights", "StatefulPartitionedCall/model_2/conv2d_54/Conv2D_bn_offset"], "device": "/device:CPU:0", "attr": {"use_cudnn_on_gpu": {"b": true}, "T": {"type": "DT_FLOAT"}, "num_args": {"i": "1"}, "explicit_paddings": {"list": {}}, "data_format": {"s": "TkhXQw=="}, "padding": {"s": "U0FNRQ=="}, "fused_ops": {"list": {"s": ["Qmlhc0FkZA=="]}}, "strides": {"list": {"i": ["1", "1", "1", "1"]}}, "epsilon": {"f": 0.0}, "dilations": {"list": {"i": ["1", "1", "1", "1"]}}}}, {"name": "StatefulPartitionedCall/model_2/leaky_re_lu_54/LeakyRelu", "op": "LeakyRelu", "input": ["StatefulPartitionedCall/model_2/batch_normalization_54/FusedBatchNormV3"], "attr": {"alpha": {"f": 0.1}, "T": {"type": "DT_FLOAT"}}}, {"name": "StatefulPartitionedCall/model_2/batch_normalization_55/FusedBatchNormV3", "op": "_FusedConv2D", "input": ["StatefulPartitionedCall/model_2/leaky_re_lu_54/LeakyRelu", "StatefulPartitionedCall/model_2/conv2d_55/Conv2D_weights", "StatefulPartitionedCall/model_2/conv2d_55/Conv2D_bn_offset"], "device": "/device:CPU:0", "attr": {"explicit_paddings": {"list": {}}, "padding": {"s": "U0FNRQ=="}, "strides": {"list": {"i": ["1", "1", "1", "1"]}}, "data_format": {"s": "TkhXQw=="}, "epsilon": {"f": 0.0}, "dilations": {"list": {"i": ["1", "1", "1", "1"]}}, "fused_ops": {"list": {"s": ["Qmlhc0FkZA=="]}}, "num_args": {"i": "1"}, "T": {"type": "DT_FLOAT"}, "use_cudnn_on_gpu": {"b": true}}}, {"name": "StatefulPartitionedCall/model_2/leaky_re_lu_55/LeakyRelu", "op": "LeakyRelu", "input": ["StatefulPartitionedCall/model_2/batch_normalization_55/FusedBatchNormV3"], "attr": {"T": {"type": "DT_FLOAT"}, "alpha": {"f": 0.1}}}, {"name": "StatefulPartitionedCall/model_2/batch_normalization_56/FusedBatchNormV3", "op": "_FusedConv2D", "input": ["StatefulPartitionedCall/model_2/leaky_re_lu_55/LeakyRelu", "StatefulPartitionedCall/model_2/conv2d_56/Conv2D_weights", "StatefulPartitionedCall/model_2/conv2d_56/Conv2D_bn_offset"], "device": "/device:CPU:0", "attr": {"T": {"type": "DT_FLOAT"}, "explicit_paddings": {"list": {}}, "epsilon": {"f": 0.0}, "padding": {"s": "U0FNRQ=="}, "strides": {"list": {"i": ["1", "1", "1", "1"]}}, "use_cudnn_on_gpu": {"b": true}, "dilations": {"list": {"i": ["1", "1", "1", "1"]}}, "num_args": {"i": "1"}, "data_format": {"s": "TkhXQw=="}, "fused_ops": {"list": {"s": ["Qmlhc0FkZA=="]}}}}, {"name": "StatefulPartitionedCall/model_2/leaky_re_lu_56/LeakyRelu", "op": "LeakyRelu", "input": ["StatefulPartitionedCall/model_2/batch_normalization_56/FusedBatchNormV3"], "attr": {"alpha": {"f": 0.1}, "T": {"type": "DT_FLOAT"}}}, {"name": "StatefulPartitionedCall/model_2/batch_normalization_57/FusedBatchNormV3", "op": "_FusedConv2D", "input": ["StatefulPartitionedCall/model_2/leaky_re_lu_56/LeakyRelu", "StatefulPartitionedCall/model_2/conv2d_57/Conv2D_weights", "StatefulPartitionedCall/model_2/conv2d_57/Conv2D_bn_offset"], "device": "/device:CPU:0", "attr": {"strides": {"list": {"i": ["1", "1", "1", "1"]}}, "T": {"type": "DT_FLOAT"}, "use_cudnn_on_gpu": {"b": true}, "data_format": {"s": "TkhXQw=="}, "padding": {"s": "U0FNRQ=="}, "fused_ops": {"list": {"s": ["Qmlhc0FkZA=="]}}, "num_args": {"i": "1"}, "dilations": {"list": {"i": ["1", "1", "1", "1"]}}, "epsilon": {"f": 0.0}, "explicit_paddings": {"list": {}}}}, {"name": "StatefulPartitionedCall/model_2/leaky_re_lu_57/LeakyRelu", "op": "LeakyRelu", "input": ["StatefulPartitionedCall/model_2/batch_normalization_57/FusedBatchNormV3"], "attr": {"T": {"type": "DT_FLOAT"}, "alpha": {"f": 0.1}}}, {"name": "StatefulPartitionedCall/model_2/batch_normalization_58/FusedBatchNormV3", "op": "_FusedConv2D", "input": ["StatefulPartitionedCall/model_2/leaky_re_lu_57/LeakyRelu", "StatefulPartitionedCall/model_2/conv2d_58/Conv2D_weights", "StatefulPartitionedCall/model_2/conv2d_58/Conv2D_bn_offset"], "device": "/device:CPU:0", "attr": {"strides": {"list": {"i": ["1", "1", "1", "1"]}}, "epsilon": {"f": 0.0}, "explicit_paddings": {"list": {}}, "dilations": {"list": {"i": ["1", "1", "1", "1"]}}, "T": {"type": "DT_FLOAT"}, "padding": {"s": "U0FNRQ=="}, "fused_ops": {"list": {"s": ["Qmlhc0FkZA=="]}}, "use_cudnn_on_gpu": {"b": true}, "data_format": {"s": "TkhXQw=="}, "num_args": {"i": "1"}}}, {"name": "StatefulPartitionedCall/model_2/batch_normalization_59/FusedBatchNormV3", "op": "_FusedConv2D", "input": ["StatefulPartitionedCall/model_2/leaky_re_lu_57/LeakyRelu", "StatefulPartitionedCall/model_2/conv2d_60/Conv2D_weights", "StatefulPartitionedCall/model_2/conv2d_60/Conv2D_bn_offset"], "device": "/device:CPU:0", "attr": {"strides": {"list": {"i": ["1", "1", "1", "1"]}}, "num_args": {"i": "1"}, "data_format": {"s": "TkhXQw=="}, "epsilon": {"f": 0.0}, "use_cudnn_on_gpu": {"b": true}, "explicit_paddings": {"list": {}}, "T": {"type": "DT_FLOAT"}, "padding": {"s": "U0FNRQ=="}, "fused_ops": {"list": {"s": ["Qmlhc0FkZA=="]}}, "dilations": {"list": {"i": ["1", "1", "1", "1"]}}}}, {"name": "StatefulPartitionedCall/model_2/leaky_re_lu_58/LeakyRelu", "op": "LeakyRelu", "input": ["StatefulPartitionedCall/model_2/batch_normalization_58/FusedBatchNormV3"], "attr": {"alpha": {"f": 0.1}, "T": {"type": "DT_FLOAT"}}}, {"name": "StatefulPartitionedCall/model_2/leaky_re_lu_59/LeakyRelu", "op": "LeakyRelu", "input": ["StatefulPartitionedCall/model_2/batch_normalization_59/FusedBatchNormV3"], "attr": {"alpha": {"f": 0.1}, "T": {"type": "DT_FLOAT"}}}, {"name": "StatefulPartitionedCall/model_2/conv2d_59/BiasAdd", "op": "_FusedConv2D", "input": ["StatefulPartitionedCall/model_2/leaky_re_lu_58/LeakyRelu", "Func/StatefulPartitionedCall/input/_366", "Func/StatefulPartitionedCall/input/_367"], "device": "/device:CPU:0", "attr": {"padding": {"s": "U0FNRQ=="}, "use_cudnn_on_gpu": {"b": true}, "data_format": {"s": "TkhXQw=="}, "epsilon": {"f": 0.0}, "T": {"type": "DT_FLOAT"}, "strides": {"list": {"i": ["1", "1", "1", "1"]}}, "fused_ops": {"list": {"s": ["Qmlhc0FkZA=="]}}, "num_args": {"i": "1"}, "dilations": {"list": {"i": ["1", "1", "1", "1"]}}, "explicit_paddings": {"list": {}}}}, {"name": "StatefulPartitionedCall/model_2/up_sampling2d_1/Shape", "op": "Shape", "input": ["StatefulPartitionedCall/model_2/leaky_re_lu_59/LeakyRelu"], "attr": {"T": {"type": "DT_FLOAT"}, "out_type": {"type": "DT_INT32"}}}, {"name": "Identity", "op": "Identity", "input": ["StatefulPartitionedCall/model_2/conv2d_59/BiasAdd"], "attr": {"T": {"type": "DT_FLOAT"}}}, {"name": "StatefulPartitionedCall/model_2/up_sampling2d_1/strided_slice", "op": "StridedSlice", "input": ["StatefulPartitionedCall/model_2/up_sampling2d_1/Shape", "StatefulPartitionedCall/model_2/up_sampling2d_1/strided_slice/stack", "StatefulPartitionedCall/model_2/up_sampling2d_1/strided_slice/stack_1", "StatefulPartitionedCall/model_2/up_sampling2d_1/strided_slice/stack"], "attr": {"ellipsis_mask": {"i": "0"}, "end_mask": {"i": "0"}, "T": {"type": "DT_INT32"}, "new_axis_mask": {"i": "0"}, "begin_mask": {"i": "0"}, "shrink_axis_mask": {"i": "0"}, "Index": {"type": "DT_INT32"}}}, {"name": "StatefulPartitionedCall/model_2/up_sampling2d_1/mul", "op": "Mul", "input": ["StatefulPartitionedCall/model_2/up_sampling2d_1/Const", "StatefulPartitionedCall/model_2/up_sampling2d_1/strided_slice"], "attr": {"T": {"type": "DT_INT32"}}}, {"name": "StatefulPartitionedCall/model_2/up_sampling2d_1/resize/ResizeNearestNeighbor", "op": "ResizeNearestNeighbor", "input": ["StatefulPartitionedCall/model_2/leaky_re_lu_59/LeakyRelu", "StatefulPartitionedCall/model_2/up_sampling2d_1/mul"], "attr": {"T": {"type": "DT_FLOAT"}, "half_pixel_centers": {"b": true}, "align_corners": {"b": false}}}, {"name": "StatefulPartitionedCall/model_2/concatenate_1/concat", "op": "ConcatV2", "input": ["StatefulPartitionedCall/model_2/up_sampling2d_1/resize/ResizeNearestNeighbor", "StatefulPartitionedCall/model_2/add_19/add", "StatefulPartitionedCall/model_2/concatenate_1/concat/axis"], "attr": {"Tidx": {"type": "DT_INT32"}, "N": {"i": "2"}, "T": {"type": "DT_FLOAT"}}}, {"name": "StatefulPartitionedCall/model_2/batch_normalization_60/FusedBatchNormV3", "op": "_FusedConv2D", "input": ["StatefulPartitionedCall/model_2/concatenate_1/concat", "StatefulPartitionedCall/model_2/conv2d_61/Conv2D_weights", "StatefulPartitionedCall/model_2/conv2d_61/Conv2D_bn_offset"], "device": "/device:CPU:0", "attr": {"num_args": {"i": "1"}, "T": {"type": "DT_FLOAT"}, "explicit_paddings": {"list": {}}, "epsilon": {"f": 0.0}, "data_format": {"s": "TkhXQw=="}, "padding": {"s": "U0FNRQ=="}, "use_cudnn_on_gpu": {"b": true}, "dilations": {"list": {"i": ["1", "1", "1", "1"]}}, "strides": {"list": {"i": ["1", "1", "1", "1"]}}, "fused_ops": {"list": {"s": ["Qmlhc0FkZA=="]}}}}, {"name": "StatefulPartitionedCall/model_2/leaky_re_lu_60/LeakyRelu", "op": "LeakyRelu", "input": ["StatefulPartitionedCall/model_2/batch_normalization_60/FusedBatchNormV3"], "attr": {"alpha": {"f": 0.1}, "T": {"type": "DT_FLOAT"}}}, {"name": "StatefulPartitionedCall/model_2/batch_normalization_61/FusedBatchNormV3", "op": "_FusedConv2D", "input": ["StatefulPartitionedCall/model_2/leaky_re_lu_60/LeakyRelu", "StatefulPartitionedCall/model_2/conv2d_62/Conv2D_weights", "StatefulPartitionedCall/model_2/conv2d_62/Conv2D_bn_offset"], "device": "/device:CPU:0", "attr": {"explicit_paddings": {"list": {}}, "data_format": {"s": "TkhXQw=="}, "num_args": {"i": "1"}, "T": {"type": "DT_FLOAT"}, "epsilon": {"f": 0.0}, "dilations": {"list": {"i": ["1", "1", "1", "1"]}}, "use_cudnn_on_gpu": {"b": true}, "strides": {"list": {"i": ["1", "1", "1", "1"]}}, "fused_ops": {"list": {"s": ["Qmlhc0FkZA=="]}}, "padding": {"s": "U0FNRQ=="}}}, {"name": "StatefulPartitionedCall/model_2/leaky_re_lu_61/LeakyRelu", "op": "LeakyRelu", "input": ["StatefulPartitionedCall/model_2/batch_normalization_61/FusedBatchNormV3"], "attr": {"T": {"type": "DT_FLOAT"}, "alpha": {"f": 0.1}}}, {"name": "StatefulPartitionedCall/model_2/batch_normalization_62/FusedBatchNormV3", "op": "_FusedConv2D", "input": ["StatefulPartitionedCall/model_2/leaky_re_lu_61/LeakyRelu", "StatefulPartitionedCall/model_2/conv2d_63/Conv2D_weights", "StatefulPartitionedCall/model_2/conv2d_63/Conv2D_bn_offset"], "device": "/device:CPU:0", "attr": {"use_cudnn_on_gpu": {"b": true}, "dilations": {"list": {"i": ["1", "1", "1", "1"]}}, "explicit_paddings": {"list": {}}, "strides": {"list": {"i": ["1", "1", "1", "1"]}}, "data_format": {"s": "TkhXQw=="}, "padding": {"s": "U0FNRQ=="}, "epsilon": {"f": 0.0}, "num_args": {"i": "1"}, "fused_ops": {"list": {"s": ["Qmlhc0FkZA=="]}}, "T": {"type": "DT_FLOAT"}}}, {"name": "StatefulPartitionedCall/model_2/leaky_re_lu_62/LeakyRelu", "op": "LeakyRelu", "input": ["StatefulPartitionedCall/model_2/batch_normalization_62/FusedBatchNormV3"], "attr": {"alpha": {"f": 0.1}, "T": {"type": "DT_FLOAT"}}}, {"name": "StatefulPartitionedCall/model_2/batch_normalization_63/FusedBatchNormV3", "op": "_FusedConv2D", "input": ["StatefulPartitionedCall/model_2/leaky_re_lu_62/LeakyRelu", "StatefulPartitionedCall/model_2/conv2d_64/Conv2D_weights", "StatefulPartitionedCall/model_2/conv2d_64/Conv2D_bn_offset"], "device": "/device:CPU:0", "attr": {"explicit_paddings": {"list": {}}, "num_args": {"i": "1"}, "data_format": {"s": "TkhXQw=="}, "epsilon": {"f": 0.0}, "use_cudnn_on_gpu": {"b": true}, "T": {"type": "DT_FLOAT"}, "dilations": {"list": {"i": ["1", "1", "1", "1"]}}, "padding": {"s": "U0FNRQ=="}, "strides": {"list": {"i": ["1", "1", "1", "1"]}}, "fused_ops": {"list": {"s": ["Qmlhc0FkZA=="]}}}}, {"name": "StatefulPartitionedCall/model_2/leaky_re_lu_63/LeakyRelu", "op": "LeakyRelu", "input": ["StatefulPartitionedCall/model_2/batch_normalization_63/FusedBatchNormV3"], "attr": {"T": {"type": "DT_FLOAT"}, "alpha": {"f": 0.1}}}, {"name": "StatefulPartitionedCall/model_2/batch_normalization_64/FusedBatchNormV3", "op": "_FusedConv2D", "input": ["StatefulPartitionedCall/model_2/leaky_re_lu_63/LeakyRelu", "StatefulPartitionedCall/model_2/conv2d_65/Conv2D_weights", "StatefulPartitionedCall/model_2/conv2d_65/Conv2D_bn_offset"], "device": "/device:CPU:0", "attr": {"use_cudnn_on_gpu": {"b": true}, "num_args": {"i": "1"}, "epsilon": {"f": 0.0}, "dilations": {"list": {"i": ["1", "1", "1", "1"]}}, "fused_ops": {"list": {"s": ["Qmlhc0FkZA=="]}}, "T": {"type": "DT_FLOAT"}, "padding": {"s": "U0FNRQ=="}, "explicit_paddings": {"list": {}}, "strides": {"list": {"i": ["1", "1", "1", "1"]}}, "data_format": {"s": "TkhXQw=="}}}, {"name": "StatefulPartitionedCall/model_2/leaky_re_lu_64/LeakyRelu", "op": "LeakyRelu", "input": ["StatefulPartitionedCall/model_2/batch_normalization_64/FusedBatchNormV3"], "attr": {"alpha": {"f": 0.1}, "T": {"type": "DT_FLOAT"}}}, {"name": "StatefulPartitionedCall/model_2/batch_normalization_65/FusedBatchNormV3", "op": "_FusedConv2D", "input": ["StatefulPartitionedCall/model_2/leaky_re_lu_64/LeakyRelu", "StatefulPartitionedCall/model_2/conv2d_66/Conv2D_weights", "StatefulPartitionedCall/model_2/conv2d_66/Conv2D_bn_offset"], "device": "/device:CPU:0", "attr": {"epsilon": {"f": 0.0}, "num_args": {"i": "1"}, "use_cudnn_on_gpu": {"b": true}, "data_format": {"s": "TkhXQw=="}, "T": {"type": "DT_FLOAT"}, "strides": {"list": {"i": ["1", "1", "1", "1"]}}, "explicit_paddings": {"list": {}}, "dilations": {"list": {"i": ["1", "1", "1", "1"]}}, "fused_ops": {"list": {"s": ["Qmlhc0FkZA=="]}}, "padding": {"s": "U0FNRQ=="}}}, {"name": "StatefulPartitionedCall/model_2/batch_normalization_66/FusedBatchNormV3", "op": "_FusedConv2D", "input": ["StatefulPartitionedCall/model_2/leaky_re_lu_64/LeakyRelu", "StatefulPartitionedCall/model_2/conv2d_68/Conv2D_weights", "StatefulPartitionedCall/model_2/conv2d_68/Conv2D_bn_offset"], "device": "/device:CPU:0", "attr": {"explicit_paddings": {"list": {}}, "fused_ops": {"list": {"s": ["Qmlhc0FkZA=="]}}, "epsilon": {"f": 0.0}, "data_format": {"s": "TkhXQw=="}, "padding": {"s": "U0FNRQ=="}, "T": {"type": "DT_FLOAT"}, "num_args": {"i": "1"}, "use_cudnn_on_gpu": {"b": true}, "dilations": {"list": {"i": ["1", "1", "1", "1"]}}, "strides": {"list": {"i": ["1", "1", "1", "1"]}}}}, {"name": "StatefulPartitionedCall/model_2/leaky_re_lu_65/LeakyRelu", "op": "LeakyRelu", "input": ["StatefulPartitionedCall/model_2/batch_normalization_65/FusedBatchNormV3"], "attr": {"T": {"type": "DT_FLOAT"}, "alpha": {"f": 0.1}}}, {"name": "StatefulPartitionedCall/model_2/leaky_re_lu_66/LeakyRelu", "op": "LeakyRelu", "input": ["StatefulPartitionedCall/model_2/batch_normalization_66/FusedBatchNormV3"], "attr": {"alpha": {"f": 0.1}, "T": {"type": "DT_FLOAT"}}}, {"name": "StatefulPartitionedCall/model_2/conv2d_67/BiasAdd", "op": "_FusedConv2D", "input": ["StatefulPartitionedCall/model_2/leaky_re_lu_65/LeakyRelu", "Func/StatefulPartitionedCall/input/_364", "Func/StatefulPartitionedCall/input/_365"], "device": "/device:CPU:0", "attr": {"dilations": {"list": {"i": ["1", "1", "1", "1"]}}, "use_cudnn_on_gpu": {"b": true}, "fused_ops": {"list": {"s": ["Qmlhc0FkZA=="]}}, "strides": {"list": {"i": ["1", "1", "1", "1"]}}, "explicit_paddings": {"list": {}}, "epsilon": {"f": 0.0}, "num_args": {"i": "1"}, "data_format": {"s": "TkhXQw=="}, "padding": {"s": "U0FNRQ=="}, "T": {"type": "DT_FLOAT"}}}, {"name": "StatefulPartitionedCall/model_2/up_sampling2d_2/Shape", "op": "Shape", "input": ["StatefulPartitionedCall/model_2/leaky_re_lu_66/LeakyRelu"], "attr": {"out_type": {"type": "DT_INT32"}, "T": {"type": "DT_FLOAT"}}}, {"name": "Identity_1", "op": "Identity", "input": ["StatefulPartitionedCall/model_2/conv2d_67/BiasAdd"], "attr": {"T": {"type": "DT_FLOAT"}}}, {"name": "StatefulPartitionedCall/model_2/up_sampling2d_2/strided_slice", "op": "StridedSlice", "input": ["StatefulPartitionedCall/model_2/up_sampling2d_2/Shape", "StatefulPartitionedCall/model_2/up_sampling2d_1/strided_slice/stack", "StatefulPartitionedCall/model_2/up_sampling2d_1/strided_slice/stack_1", "StatefulPartitionedCall/model_2/up_sampling2d_1/strided_slice/stack"], "attr": {"ellipsis_mask": {"i": "0"}, "Index": {"type": "DT_INT32"}, "T": {"type": "DT_INT32"}, "begin_mask": {"i": "0"}, "new_axis_mask": {"i": "0"}, "end_mask": {"i": "0"}, "shrink_axis_mask": {"i": "0"}}}, {"name": "StatefulPartitionedCall/model_2/up_sampling2d_2/mul", "op": "Mul", "input": ["StatefulPartitionedCall/model_2/up_sampling2d_1/Const", "StatefulPartitionedCall/model_2/up_sampling2d_2/strided_slice"], "attr": {"T": {"type": "DT_INT32"}}}, {"name": "StatefulPartitionedCall/model_2/up_sampling2d_2/resize/ResizeNearestNeighbor", "op": "ResizeNearestNeighbor", "input": ["StatefulPartitionedCall/model_2/leaky_re_lu_66/LeakyRelu", "StatefulPartitionedCall/model_2/up_sampling2d_2/mul"], "attr": {"half_pixel_centers": {"b": true}, "align_corners": {"b": false}, "T": {"type": "DT_FLOAT"}}}, {"name": "StatefulPartitionedCall/model_2/concatenate_2/concat", "op": "ConcatV2", "input": ["StatefulPartitionedCall/model_2/up_sampling2d_2/resize/ResizeNearestNeighbor", "StatefulPartitionedCall/model_2/add_11/add", "StatefulPartitionedCall/model_2/concatenate_1/concat/axis"], "attr": {"T": {"type": "DT_FLOAT"}, "N": {"i": "2"}, "Tidx": {"type": "DT_INT32"}}}, {"name": "StatefulPartitionedCall/model_2/batch_normalization_67/FusedBatchNormV3", "op": "_FusedConv2D", "input": ["StatefulPartitionedCall/model_2/concatenate_2/concat", "StatefulPartitionedCall/model_2/conv2d_69/Conv2D_weights", "StatefulPartitionedCall/model_2/conv2d_69/Conv2D_bn_offset"], "device": "/device:CPU:0", "attr": {"fused_ops": {"list": {"s": ["Qmlhc0FkZA=="]}}, "num_args": {"i": "1"}, "strides": {"list": {"i": ["1", "1", "1", "1"]}}, "dilations": {"list": {"i": ["1", "1", "1", "1"]}}, "epsilon": {"f": 0.0}, "explicit_paddings": {"list": {}}, "padding": {"s": "U0FNRQ=="}, "use_cudnn_on_gpu": {"b": true}, "T": {"type": "DT_FLOAT"}, "data_format": {"s": "TkhXQw=="}}}, {"name": "StatefulPartitionedCall/model_2/leaky_re_lu_67/LeakyRelu", "op": "LeakyRelu", "input": ["StatefulPartitionedCall/model_2/batch_normalization_67/FusedBatchNormV3"], "attr": {"alpha": {"f": 0.1}, "T": {"type": "DT_FLOAT"}}}, {"name": "StatefulPartitionedCall/model_2/batch_normalization_68/FusedBatchNormV3", "op": "_FusedConv2D", "input": ["StatefulPartitionedCall/model_2/leaky_re_lu_67/LeakyRelu", "StatefulPartitionedCall/model_2/conv2d_70/Conv2D_weights", "StatefulPartitionedCall/model_2/conv2d_70/Conv2D_bn_offset"], "device": "/device:CPU:0", "attr": {"num_args": {"i": "1"}, "strides": {"list": {"i": ["1", "1", "1", "1"]}}, "explicit_paddings": {"list": {}}, "padding": {"s": "U0FNRQ=="}, "data_format": {"s": "TkhXQw=="}, "use_cudnn_on_gpu": {"b": true}, "epsilon": {"f": 0.0}, "dilations": {"list": {"i": ["1", "1", "1", "1"]}}, "fused_ops": {"list": {"s": ["Qmlhc0FkZA=="]}}, "T": {"type": "DT_FLOAT"}}}, {"name": "StatefulPartitionedCall/model_2/leaky_re_lu_68/LeakyRelu", "op": "LeakyRelu", "input": ["StatefulPartitionedCall/model_2/batch_normalization_68/FusedBatchNormV3"], "attr": {"T": {"type": "DT_FLOAT"}, "alpha": {"f": 0.1}}}, {"name": "StatefulPartitionedCall/model_2/batch_normalization_69/FusedBatchNormV3", "op": "_FusedConv2D", "input": ["StatefulPartitionedCall/model_2/leaky_re_lu_68/LeakyRelu", "StatefulPartitionedCall/model_2/conv2d_71/Conv2D_weights", "StatefulPartitionedCall/model_2/conv2d_71/Conv2D_bn_offset"], "device": "/device:CPU:0", "attr": {"explicit_paddings": {"list": {}}, "epsilon": {"f": 0.0}, "padding": {"s": "U0FNRQ=="}, "dilations": {"list": {"i": ["1", "1", "1", "1"]}}, "use_cudnn_on_gpu": {"b": true}, "data_format": {"s": "TkhXQw=="}, "num_args": {"i": "1"}, "T": {"type": "DT_FLOAT"}, "fused_ops": {"list": {"s": ["Qmlhc0FkZA=="]}}, "strides": {"list": {"i": ["1", "1", "1", "1"]}}}}, {"name": "StatefulPartitionedCall/model_2/leaky_re_lu_69/LeakyRelu", "op": "LeakyRelu", "input": ["StatefulPartitionedCall/model_2/batch_normalization_69/FusedBatchNormV3"], "attr": {"alpha": {"f": 0.1}, "T": {"type": "DT_FLOAT"}}}, {"name": "StatefulPartitionedCall/model_2/batch_normalization_70/FusedBatchNormV3", "op": "_FusedConv2D", "input": ["StatefulPartitionedCall/model_2/leaky_re_lu_69/LeakyRelu", "StatefulPartitionedCall/model_2/conv2d_72/Conv2D_weights", "StatefulPartitionedCall/model_2/conv2d_72/Conv2D_bn_offset"], "device": "/device:CPU:0", "attr": {"use_cudnn_on_gpu": {"b": true}, "dilations": {"list": {"i": ["1", "1", "1", "1"]}}, "data_format": {"s": "TkhXQw=="}, "explicit_paddings": {"list": {}}, "fused_ops": {"list": {"s": ["Qmlhc0FkZA=="]}}, "epsilon": {"f": 0.0}, "padding": {"s": "U0FNRQ=="}, "num_args": {"i": "1"}, "T": {"type": "DT_FLOAT"}, "strides": {"list": {"i": ["1", "1", "1", "1"]}}}}, {"name": "StatefulPartitionedCall/model_2/leaky_re_lu_70/LeakyRelu", "op": "LeakyRelu", "input": ["StatefulPartitionedCall/model_2/batch_normalization_70/FusedBatchNormV3"], "attr": {"alpha": {"f": 0.1}, "T": {"type": "DT_FLOAT"}}}, {"name": "StatefulPartitionedCall/model_2/batch_normalization_71/FusedBatchNormV3", "op": "_FusedConv2D", "input": ["StatefulPartitionedCall/model_2/leaky_re_lu_70/LeakyRelu", "StatefulPartitionedCall/model_2/conv2d_73/Conv2D_weights", "StatefulPartitionedCall/model_2/conv2d_73/Conv2D_bn_offset"], "device": "/device:CPU:0", "attr": {"use_cudnn_on_gpu": {"b": true}, "T": {"type": "DT_FLOAT"}, "strides": {"list": {"i": ["1", "1", "1", "1"]}}, "fused_ops": {"list": {"s": ["Qmlhc0FkZA=="]}}, "explicit_paddings": {"list": {}}, "data_format": {"s": "TkhXQw=="}, "dilations": {"list": {"i": ["1", "1", "1", "1"]}}, "padding": {"s": "U0FNRQ=="}, "epsilon": {"f": 0.0}, "num_args": {"i": "1"}}}, {"name": "StatefulPartitionedCall/model_2/leaky_re_lu_71/LeakyRelu", "op": "LeakyRelu", "input": ["StatefulPartitionedCall/model_2/batch_normalization_71/FusedBatchNormV3"], "attr": {"alpha": {"f": 0.1}, "T": {"type": "DT_FLOAT"}}}, {"name": "StatefulPartitionedCall/model_2/batch_normalization_72/FusedBatchNormV3", "op": "_FusedConv2D", "input": ["StatefulPartitionedCall/model_2/leaky_re_lu_71/LeakyRelu", "StatefulPartitionedCall/model_2/conv2d_74/Conv2D_weights", "StatefulPartitionedCall/model_2/conv2d_74/Conv2D_bn_offset"], "device": "/device:CPU:0", "attr": {"explicit_paddings": {"list": {}}, "num_args": {"i": "1"}, "use_cudnn_on_gpu": {"b": true}, "strides": {"list": {"i": ["1", "1", "1", "1"]}}, "data_format": {"s": "TkhXQw=="}, "T": {"type": "DT_FLOAT"}, "padding": {"s": "U0FNRQ=="}, "fused_ops": {"list": {"s": ["Qmlhc0FkZA=="]}}, "dilations": {"list": {"i": ["1", "1", "1", "1"]}}, "epsilon": {"f": 0.0}}}, {"name": "StatefulPartitionedCall/model_2/leaky_re_lu_72/LeakyRelu", "op": "LeakyRelu", "input": ["StatefulPartitionedCall/model_2/batch_normalization_72/FusedBatchNormV3"], "attr": {"T": {"type": "DT_FLOAT"}, "alpha": {"f": 0.1}}}, {"name": "StatefulPartitionedCall/model_2/conv2d_75/BiasAdd", "op": "_FusedConv2D", "input": ["StatefulPartitionedCall/model_2/leaky_re_lu_72/LeakyRelu", "Func/StatefulPartitionedCall/input/_362", "Func/StatefulPartitionedCall/input/_363"], "device": "/device:CPU:0", "attr": {"epsilon": {"f": 0.0}, "fused_ops": {"list": {"s": ["Qmlhc0FkZA=="]}}, "num_args": {"i": "1"}, "dilations": {"list": {"i": ["1", "1", "1", "1"]}}, "T": {"type": "DT_FLOAT"}, "data_format": {"s": "TkhXQw=="}, "padding": {"s": "U0FNRQ=="}, "use_cudnn_on_gpu": {"b": true}, "strides": {"list": {"i": ["1", "1", "1", "1"]}}, "explicit_paddings": {"list": {}}}}, {"name": "Identity_2", "op": "Identity", "input": ["StatefulPartitionedCall/model_2/conv2d_75/BiasAdd"], "attr": {"T": {"type": "DT_FLOAT"}}}], "library": {}, "versions": {"producer": 175}}, "weightsManifest": [{"paths": ["group1-shard1of15.bin", "group1-shard2of15.bin", "group1-shard3of15.bin", "group1-shard4of15.bin", "group1-shard5of15.bin", "group1-shard6of15.bin", "group1-shard7of15.bin", "group1-shard8of15.bin", "group1-shard9of15.bin", "group1-shard10of15.bin", "group1-shard11of15.bin", "group1-shard12of15.bin", "group1-shard13of15.bin", "group1-shard14of15.bin", "group1-shard15of15.bin"], "weights": [{"name": "StatefulPartitionedCall/model_2/conv2d_1/Conv2D_weights", "shape": [3, 3, 3, 32], "dtype": "float32", "quantization": {"dtype": "uint8", "min": -25.45464677997664, "scale": 0.21571734559302236, "original_dtype": "float32"}}, {"name": "StatefulPartitionedCall/model_2/conv2d_1/Conv2D_bn_offset", "shape": [32], "dtype": "float32", "quantization": {"dtype": "uint8", "min": -10.594213081808652, "scale": 0.06088628207936007, "original_dtype": "float32"}}, {"name": "StatefulPartitionedCall/model_2/conv2d_2/Conv2D_weights", "shape": [3, 3, 32, 64], "dtype": "float32", "quantization": {"dtype": "uint8", "min": -0.841540407666973, "scale": 0.006574534434898227, "original_dtype": "float32"}}, {"name": "StatefulPartitionedCall/model_2/conv2d_61/Conv2D_bn_offset", "shape": [256], "dtype": "float32", "quantization": {"dtype": "uint8", "min": -0.7735254399916704, "scale": 0.006906477142782772, "original_dtype": "float32"}}, {"name": "StatefulPartitionedCall/model_2/conv2d_2/Conv2D_bn_offset", "shape": [64], "dtype": "float32", "quantization": {"dtype": "uint8", "min": -4.020186929141774, "scale": 0.05583592957141353, "original_dtype": "float32"}}, {"name": "StatefulPartitionedCall/model_2/conv2d_3/Conv2D_weights", "shape": [1, 1, 64, 32], "dtype": "float32", "quantization": {"dtype": "uint8", "min": -1.8531783234839347, "scale": 0.015315523334577972, "original_dtype": "float32"}}, {"name": "StatefulPartitionedCall/model_2/conv2d_3/Conv2D_bn_offset", "shape": [32], "dtype": "float32", "quantization": {"dtype": "uint8", "min": -2.4347761415967755, "scale": 0.022969586241479014, "original_dtype": "float32"}}, {"name": "StatefulPartitionedCall/model_2/conv2d_4/Conv2D_weights", "shape": [3, 3, 32, 64], "dtype": "float32", "quantization": {"dtype": "uint8", "min": -1.2453671343186323, "scale": 0.009434599502413881, "original_dtype": "float32"}}, {"name": "StatefulPartitionedCall/model_2/conv2d_4/Conv2D_bn_offset", "shape": [64], "dtype": "float32", "quantization": {"dtype": "uint8", "min": -2.215879103716682, "scale": 0.02215879103716682, "original_dtype": "float32"}}, {"name": "StatefulPartitionedCall/model_2/conv2d_5/Conv2D_weights", "shape": [3, 3, 64, 128], "dtype": "float32", "quantization": {"dtype": "uint8", "min": -0.44630331350307834, "scale": 0.0029953242516985125, "original_dtype": "float32"}}, {"name": "StatefulPartitionedCall/model_2/conv2d_62/Conv2D_weights", "shape": [3, 3, 256, 512], "dtype": "float32", "quantization": {"dtype": "uint8", "min": -0.17737852901804682, "scale": 0.0012947337884528965, "original_dtype": "float32"}}, {"name": "StatefulPartitionedCall/model_2/conv2d_5/Conv2D_bn_offset", "shape": [128], "dtype": "float32", "quantization": {"dtype": "uint8", "min": -2.8813441472895005, "scale": 0.024626873053756413, "original_dtype": "float32"}}, {"name": "StatefulPartitionedCall/model_2/conv2d_6/Conv2D_weights", "shape": [1, 1, 128, 64], "dtype": "float32", "quantization": {"dtype": "uint8", "min": -0.45084396004676824, "scale": 0.0039203822612762455, "original_dtype": "float32"}}, {"name": "StatefulPartitionedCall/model_2/conv2d_6/Conv2D_bn_offset", "shape": [64], "dtype": "float32", "quantization": {"dtype": "uint8", "min": -3.6790365406111176, "scale": 0.024204187767178406, "original_dtype": "float32"}}, {"name": "StatefulPartitionedCall/model_2/conv2d_7/Conv2D_weights", "shape": [3, 3, 64, 128], "dtype": "float32", "quantization": {"dtype": "uint8", "min": -0.4203548840447968, "scale": 0.003928550318175671, "original_dtype": "float32"}}, {"name": "StatefulPartitionedCall/model_2/conv2d_62/Conv2D_bn_offset", "shape": [512], "dtype": "float32", "quantization": {"dtype": "uint8", "min": -1.3647636712766162, "scale": 0.008529772945478851, "original_dtype": "float32"}}, {"name": "StatefulPartitionedCall/model_2/conv2d_7/Conv2D_bn_offset", "shape": [128], "dtype": "float32", "quantization": {"dtype": "uint8", "min": -4.385179775836421, "scale": 0.07432508094638002, "original_dtype": "float32"}}, {"name": "StatefulPartitionedCall/model_2/conv2d_8/Conv2D_weights", "shape": [1, 1, 128, 64], "dtype": "float32", "quantization": {"dtype": "uint8", "min": -0.8589924258344314, "scale": 0.006362906858032825, "original_dtype": "float32"}}, {"name": "StatefulPartitionedCall/model_2/conv2d_8/Conv2D_bn_offset", "shape": [64], "dtype": "float32", "quantization": {"dtype": "uint8", "min": -4.221609583087996, "scale": 0.03037129196466184, "original_dtype": "float32"}}, {"name": "StatefulPartitionedCall/model_2/conv2d_9/Conv2D_weights", "shape": [3, 3, 64, 128], "dtype": "float32", "quantization": {"dtype": "uint8", "min": -0.6796281134381014, "scale": 0.006014408083523021, "original_dtype": "float32"}}, {"name": "StatefulPartitionedCall/model_2/conv2d_9/Conv2D_bn_offset", "shape": [128], "dtype": "float32", "quantization": {"dtype": "uint8", "min": -1.8669845543655694, "scale": 0.018669845543655694, "original_dtype": "float32"}}, {"name": "StatefulPartitionedCall/model_2/conv2d_10/Conv2D_weights", "shape": [3, 3, 128, 256], "dtype": "float32", "quantization": {"dtype": "uint8", "min": -0.2550577335497912, "scale": 0.002179980628630694, "original_dtype": "float32"}}, {"name": "StatefulPartitionedCall/model_2/conv2d_63/Conv2D_weights", "shape": [1, 1, 512, 256], "dtype": "float32", "quantization": {"dtype": "uint8", "min": -0.4034025470415751, "scale": 0.0027820865313212075, "original_dtype": "float32"}}, {"name": "StatefulPartitionedCall/model_2/conv2d_10/Conv2D_bn_offset", "shape": [256], "dtype": "float32", "quantization": {"dtype": "uint8", "min": -2.351439447963939, "scale": 0.02424164379344267, "original_dtype": "float32"}}, {"name": "StatefulPartitionedCall/model_2/conv2d_11/Conv2D_weights", "shape": [1, 1, 256, 128], "dtype": "float32", "quantization": {"dtype": "uint8", "min": -0.8314933582848193, "scale": 0.006547191797518262, "original_dtype": "float32"}}, {"name": "StatefulPartitionedCall/model_2/conv2d_73/Conv2D_weights", "shape": [1, 1, 256, 128], "dtype": "float32", "quantization": {"dtype": "uint8", "min": -0.419922234731562, "scale": 0.0037830831957798377, "original_dtype": "float32"}}, {"name": "StatefulPartitionedCall/model_2/conv2d_11/Conv2D_bn_offset", "shape": [128], "dtype": "float32", "quantization": {"dtype": "uint8", "min": -2.899298903521369, "scale": 0.019723121792662376, "original_dtype": "float32"}}, {"name": "StatefulPartitionedCall/model_2/conv2d_12/Conv2D_weights", "shape": [3, 3, 128, 256], "dtype": "float32", "quantization": {"dtype": "uint8", "min": -0.27314043009982386, "scale": 0.0022206539032506006, "original_dtype": "float32"}}, {"name": "StatefulPartitionedCall/model_2/conv2d_63/Conv2D_bn_offset", "shape": [256], "dtype": "float32", "quantization": {"dtype": "uint8", "min": -0.840898798493778, "scale": 0.006093469554302739, "original_dtype": "float32"}}, {"name": "StatefulPartitionedCall/model_2/conv2d_12/Conv2D_bn_offset", "shape": [256], "dtype": "float32", "quantization": {"dtype": "uint8", "min": -1.4719233597026153, "scale": 0.012580541535919788, "original_dtype": "float32"}}, {"name": "StatefulPartitionedCall/model_2/conv2d_13/Conv2D_weights", "shape": [1, 1, 256, 128], "dtype": "float32", "quantization": {"dtype": "uint8", "min": -0.7246693739704057, "scale": 0.0057060580627591, "original_dtype": "float32"}}, {"name": "StatefulPartitionedCall/model_2/conv2d_13/Conv2D_bn_offset", "shape": [128], "dtype": "float32", "quantization": {"dtype": "uint8", "min": -4.24725425009634, "scale": 0.03397803400077072, "original_dtype": "float32"}}, {"name": "StatefulPartitionedCall/model_2/conv2d_14/Conv2D_weights", "shape": [3, 3, 128, 256], "dtype": "float32", "quantization": {"dtype": "uint8", "min": -0.25452447054432886, "scale": 0.00221325626560286, "original_dtype": "float32"}}, {"name": "StatefulPartitionedCall/model_2/conv2d_14/Conv2D_bn_offset", "shape": [256], "dtype": "float32", "quantization": {"dtype": "uint8", "min": -1.1359022498130797, "scale": 0.0074241977111966, "original_dtype": "float32"}}, {"name": "StatefulPartitionedCall/model_2/conv2d_15/Conv2D_weights", "shape": [1, 1, 256, 128], "dtype": "float32", "quantization": {"dtype": "uint8", "min": -0.978908365614274, "scale": 0.006659240582410027, "original_dtype": "float32"}}, {"name": "StatefulPartitionedCall/model_2/conv2d_64/Conv2D_weights", "shape": [3, 3, 256, 512], "dtype": "float32", "quantization": {"dtype": "uint8", "min": -0.2704534712959738, "scale": 0.002504198808296054, "original_dtype": "float32"}}, {"name": "StatefulPartitionedCall/model_2/conv2d_15/Conv2D_bn_offset", "shape": [128], "dtype": "float32", "quantization": {"dtype": "uint8", "min": -2.935606762942146, "scale": 0.025090656093522613, "original_dtype": "float32"}}, {"name": "StatefulPartitionedCall/model_2/conv2d_16/Conv2D_weights", "shape": [3, 3, 128, 256], "dtype": "float32", "quantization": {"dtype": "uint8", "min": -0.47341177416782754, "scale": 0.004552036290075265, "original_dtype": "float32"}}, {"name": "StatefulPartitionedCall/model_2/conv2d_16/Conv2D_bn_offset", "shape": [256], "dtype": "float32", "quantization": {"dtype": "uint8", "min": -1.946152109258315, "scale": 0.010576913637273451, "original_dtype": "float32"}}, {"name": "StatefulPartitionedCall/model_2/conv2d_17/Conv2D_weights", "shape": [1, 1, 256, 128], "dtype": "float32", "quantization": {"dtype": "uint8", "min": -0.5812587962431066, "scale": 0.00454108434564927, "original_dtype": "float32"}}, {"name": "StatefulPartitionedCall/model_2/conv2d_64/Conv2D_bn_offset", "shape": [512], "dtype": "float32", "quantization": {"dtype": "uint8", "min": -2.875033904991898, "scale": 0.017638244815901215, "original_dtype": "float32"}}, {"name": "StatefulPartitionedCall/model_2/conv2d_17/Conv2D_bn_offset", "shape": [128], "dtype": "float32", "quantization": {"dtype": "uint8", "min": -2.7696422726500267, "scale": 0.0223358247794357, "original_dtype": "float32"}}, {"name": "StatefulPartitionedCall/model_2/conv2d_18/Conv2D_weights", "shape": [3, 3, 128, 256], "dtype": "float32", "quantization": {"dtype": "uint8", "min": -0.44026684644175507, "scale": 0.003466668082218544, "original_dtype": "float32"}}, {"name": "StatefulPartitionedCall/model_2/conv2d_18/Conv2D_bn_offset", "shape": [256], "dtype": "float32", "quantization": {"dtype": "uint8", "min": -1.5646852128645954, "scale": 0.008741258172427907, "original_dtype": "float32"}}, {"name": "StatefulPartitionedCall/model_2/conv2d_19/Conv2D_weights", "shape": [1, 1, 256, 128], "dtype": "float32", "quantization": {"dtype": "uint8", "min": -0.8592937620247111, "scale": 0.005271740871317246, "original_dtype": "float32"}}, {"name": "StatefulPartitionedCall/model_2/conv2d_19/Conv2D_bn_offset", "shape": [128], "dtype": "float32", "quantization": {"dtype": "uint8", "min": -2.769608710793888, "scale": 0.028850090737436333, "original_dtype": "float32"}}, {"name": "StatefulPartitionedCall/model_2/conv2d_20/Conv2D_weights", "shape": [3, 3, 128, 256], "dtype": "float32", "quantization": {"dtype": "uint8", "min": -0.4315074293052449, "scale": 0.0038874543180652693, "original_dtype": "float32"}}, {"name": "StatefulPartitionedCall/model_2/conv2d_65/Conv2D_weights", "shape": [1, 1, 512, 256], "dtype": "float32", "quantization": {"dtype": "uint8", "min": -0.4734266502015731, "scale": 0.003669974032570334, "original_dtype": "float32"}}, {"name": "StatefulPartitionedCall/model_2/conv2d_20/Conv2D_bn_offset", "shape": [256], "dtype": "float32", "quantization": {"dtype": "uint8", "min": -2.402846467261221, "scale": 0.012580347996132047, "original_dtype": "float32"}}, {"name": "StatefulPartitionedCall/model_2/conv2d_21/Conv2D_weights", "shape": [1, 1, 256, 128], "dtype": "float32", "quantization": {"dtype": "uint8", "min": -0.5095357857498468, "scale": 0.004549426658480775, "original_dtype": "float32"}}, {"name": "StatefulPartitionedCall/model_2/conv2d_73/Conv2D_bn_offset", "shape": [128], "dtype": "float32", "quantization": {"dtype": "uint8", "min": -3.3651870886484785, "scale": 0.01979521816852046, "original_dtype": "float32"}}, {"name": "StatefulPartitionedCall/model_2/conv2d_21/Conv2D_bn_offset", "shape": [128], "dtype": "float32", "quantization": {"dtype": "uint8", "min": -2.2932380049836403, "scale": 0.01614956341537775, "original_dtype": "float32"}}, {"name": "StatefulPartitionedCall/model_2/conv2d_22/Conv2D_weights", "shape": [3, 3, 128, 256], "dtype": "float32", "quantization": {"dtype": "uint8", "min": -0.4622342521069097, "scale": 0.004444560116412593, "original_dtype": "float32"}}, {"name": "StatefulPartitionedCall/model_2/conv2d_65/Conv2D_bn_offset", "shape": [256], "dtype": "float32", "quantization": {"dtype": "uint8", "min": -2.791860367270077, "scale": 0.01912233128267176, "original_dtype": "float32"}}, {"name": "StatefulPartitionedCall/model_2/conv2d_22/Conv2D_bn_offset", "shape": [256], "dtype": "float32", "quantization": {"dtype": "uint8", "min": -2.6761260056028178, "scale": 0.014084873713699042, "original_dtype": "float32"}}, {"name": "StatefulPartitionedCall/model_2/conv2d_23/Conv2D_weights", "shape": [1, 1, 256, 128], "dtype": "float32", "quantization": {"dtype": "uint8", "min": -0.32573774456977844, "scale": 0.0028325021266937256, "original_dtype": "float32"}}, {"name": "StatefulPartitionedCall/model_2/conv2d_23/Conv2D_bn_offset", "shape": [128], "dtype": "float32", "quantization": {"dtype": "uint8", "min": -2.3125279866012876, "scale": 0.01738742847068637, "original_dtype": "float32"}}, {"name": "StatefulPartitionedCall/model_2/conv2d_24/Conv2D_weights", "shape": [3, 3, 128, 256], "dtype": "float32", "quantization": {"dtype": "uint8", "min": -0.588179380753461, "scale": 0.005941205866196576, "original_dtype": "float32"}}, {"name": "StatefulPartitionedCall/model_2/conv2d_24/Conv2D_bn_offset", "shape": [256], "dtype": "float32", "quantization": {"dtype": "uint8", "min": -2.061762750148773, "scale": 0.009634405374526978, "original_dtype": "float32"}}, {"name": "StatefulPartitionedCall/model_2/conv2d_25/Conv2D_weights", "shape": [1, 1, 256, 128], "dtype": "float32", "quantization": {"dtype": "uint8", "min": -0.42091723937614295, "scale": 0.003141173428180171, "original_dtype": "float32"}}, {"name": "StatefulPartitionedCall/model_2/conv2d_66/Conv2D_weights", "shape": [3, 3, 256, 512], "dtype": "float32", "quantization": {"dtype": "uint8", "min": -0.31006335429116794, "scale": 0.002263236162709255, "original_dtype": "float32"}}, {"name": "StatefulPartitionedCall/model_2/conv2d_25/Conv2D_bn_offset", "shape": [128], "dtype": "float32", "quantization": {"dtype": "uint8", "min": -3.48596838315328, "scale": 0.022203620274861655, "original_dtype": "float32"}}, {"name": "StatefulPartitionedCall/model_2/conv2d_26/Conv2D_weights", "shape": [3, 3, 128, 256], "dtype": "float32", "quantization": {"dtype": "uint8", "min": -0.8977839378749622, "scale": 0.007069164865157183, "original_dtype": "float32"}}, {"name": "StatefulPartitionedCall/model_2/conv2d_26/Conv2D_bn_offset", "shape": [256], "dtype": "float32", "quantization": {"dtype": "uint8", "min": -2.2833093019092785, "scale": 0.011709278471329633, "original_dtype": "float32"}}, {"name": "StatefulPartitionedCall/model_2/conv2d_27/Conv2D_weights", "shape": [3, 3, 256, 512], "dtype": "float32", "quantization": {"dtype": "uint8", "min": -0.08588213219362147, "scale": 0.0008674962847840552, "original_dtype": "float32"}}, {"name": "StatefulPartitionedCall/model_2/conv2d_66/Conv2D_bn_offset", "shape": [512], "dtype": "float32", "quantization": {"dtype": "uint8", "min": -1.2091229148939544, "scale": 0.014745401401145785, "original_dtype": "float32"}}, {"name": "StatefulPartitionedCall/model_2/conv2d_27/Conv2D_bn_offset", "shape": [512], "dtype": "float32", "quantization": {"dtype": "uint8", "min": -4.6609059876086665, "scale": 0.028420158461028456, "original_dtype": "float32"}}, {"name": "StatefulPartitionedCall/model_2/conv2d_28/Conv2D_weights", "shape": [1, 1, 512, 256], "dtype": "float32", "quantization": {"dtype": "uint8", "min": -0.6771627701965033, "scale": 0.007441349123038498, "original_dtype": "float32"}}, {"name": "StatefulPartitionedCall/model_2/conv2d_28/Conv2D_bn_offset", "shape": [256], "dtype": "float32", "quantization": {"dtype": "uint8", "min": -1.59592661857605, "scale": 0.01564633939780441, "original_dtype": "float32"}}, {"name": "StatefulPartitionedCall/model_2/conv2d_29/Conv2D_weights", "shape": [3, 3, 256, 512], "dtype": "float32", "quantization": {"dtype": "uint8", "min": -0.14164898299119053, "scale": 0.0010046027162495781, "original_dtype": "float32"}}, {"name": "StatefulPartitionedCall/model_2/conv2d_29/Conv2D_bn_offset", "shape": [512], "dtype": "float32", "quantization": {"dtype": "uint8", "min": -1.7233163805568918, "scale": 0.017584861026090734, "original_dtype": "float32"}}, {"name": "StatefulPartitionedCall/model_2/conv2d_30/Conv2D_weights", "shape": [1, 1, 512, 256], "dtype": "float32", "quantization": {"dtype": "uint8", "min": -0.45675016384498746, "scale": 0.0055030140222287645, "original_dtype": "float32"}}, {"name": "StatefulPartitionedCall/model_2/conv2d_30/Conv2D_bn_offset", "shape": [256], "dtype": "float32", "quantization": {"dtype": "uint8", "min": -2.2799649350783406, "scale": 0.01317898806403665, "original_dtype": "float32"}}, {"name": "StatefulPartitionedCall/model_2/conv2d_31/Conv2D_weights", "shape": [3, 3, 256, 512], "dtype": "float32", "quantization": {"dtype": "uint8", "min": -0.1971730122379228, "scale": 0.0015773840979033825, "original_dtype": "float32"}}, {"name": "StatefulPartitionedCall/model_2/conv2d_31/Conv2D_bn_offset", "shape": [512], "dtype": "float32", "quantization": {"dtype": "uint8", "min": -2.0368596133063823, "scale": 0.012810437819536995, "original_dtype": "float32"}}, {"name": "StatefulPartitionedCall/model_2/conv2d_32/Conv2D_weights", "shape": [1, 1, 512, 256], "dtype": "float32", "quantization": {"dtype": "uint8", "min": -0.7618346663082347, "scale": 0.0055205410602045995, "original_dtype": "float32"}}, {"name": "StatefulPartitionedCall/model_2/conv2d_32/Conv2D_bn_offset", "shape": [256], "dtype": "float32", "quantization": {"dtype": "uint8", "min": -1.923801878386853, "scale": 0.012998661340451708, "original_dtype": "float32"}}, {"name": "StatefulPartitionedCall/model_2/conv2d_33/Conv2D_weights", "shape": [3, 3, 256, 512], "dtype": "float32", "quantization": {"dtype": "uint8", "min": -0.45059605170698724, "scale": 0.003492992648891374, "original_dtype": "float32"}}, {"name": "StatefulPartitionedCall/model_2/conv2d_68/Conv2D_weights", "shape": [1, 1, 256, 128], "dtype": "float32", "quantization": {"dtype": "uint8", "min": -0.5871656572117525, "scale": 0.0043493752386055745, "original_dtype": "float32"}}, {"name": "StatefulPartitionedCall/model_2/conv2d_33/Conv2D_bn_offset", "shape": [512], "dtype": "float32", "quantization": {"dtype": "uint8", "min": -1.588735580444336, "scale": 0.00613805465400219, "original_dtype": "float32"}}, {"name": "StatefulPartitionedCall/model_2/conv2d_34/Conv2D_weights", "shape": [1, 1, 512, 256], "dtype": "float32", "quantization": {"dtype": "uint8", "min": -0.5196267576778636, "scale": 0.004330222980648863, "original_dtype": "float32"}}, {"name": "StatefulPartitionedCall/model_2/conv2d_74/Conv2D_weights", "shape": [3, 3, 128, 256], "dtype": "float32", "quantization": {"dtype": "uint8", "min": -0.36521402059816843, "scale": 0.0029217121647853476, "original_dtype": "float32"}}, {"name": "StatefulPartitionedCall/model_2/conv2d_34/Conv2D_bn_offset", "shape": [256], "dtype": "float32", "quantization": {"dtype": "uint8", "min": -2.476124617866441, "scale": 0.01244283727571076, "original_dtype": "float32"}}, {"name": "StatefulPartitionedCall/model_2/conv2d_35/Conv2D_weights", "shape": [3, 3, 256, 512], "dtype": "float32", "quantization": {"dtype": "uint8", "min": -0.32124907526315427, "scale": 0.004172065912508497, "original_dtype": "float32"}}, {"name": "StatefulPartitionedCall/model_2/conv2d_68/Conv2D_bn_offset", "shape": [128], "dtype": "float32", "quantization": {"dtype": "uint8", "min": -1.3905892568476061, "scale": 0.011036422673393699, "original_dtype": "float32"}}, {"name": "StatefulPartitionedCall/model_2/conv2d_35/Conv2D_bn_offset", "shape": [512], "dtype": "float32", "quantization": {"dtype": "uint8", "min": -1.59881187396891, "scale": 0.009032835446152033, "original_dtype": "float32"}}, {"name": "StatefulPartitionedCall/model_2/conv2d_36/Conv2D_weights", "shape": [1, 1, 512, 256], "dtype": "float32", "quantization": {"dtype": "uint8", "min": -0.46753205505071904, "scale": 0.003740256440405752, "original_dtype": "float32"}}, {"name": "StatefulPartitionedCall/model_2/conv2d_36/Conv2D_bn_offset", "shape": [256], "dtype": "float32", "quantization": {"dtype": "uint8", "min": -1.7405813147039975, "scale": 0.009357964057548374, "original_dtype": "float32"}}, {"name": "StatefulPartitionedCall/model_2/conv2d_37/Conv2D_weights", "shape": [3, 3, 256, 512], "dtype": "float32", "quantization": {"dtype": "uint8", "min": -0.3604059097813625, "scale": 0.0035683753443699257, "original_dtype": "float32"}}, {"name": "StatefulPartitionedCall/model_2/conv2d_37/Conv2D_bn_offset", "shape": [512], "dtype": "float32", "quantization": {"dtype": "uint8", "min": -2.0795412063598633, "scale": 0.007775422258704316, "original_dtype": "float32"}}, {"name": "StatefulPartitionedCall/model_2/conv2d_38/Conv2D_weights", "shape": [1, 1, 512, 256], "dtype": "float32", "quantization": {"dtype": "uint8", "min": -0.2795037706693013, "scale": 0.002636828025182088, "original_dtype": "float32"}}, {"name": "StatefulPartitionedCall/model_2/conv2d_38/Conv2D_bn_offset", "shape": [256], "dtype": "float32", "quantization": {"dtype": "uint8", "min": -1.8597705609658186, "scale": 0.008856050290313422, "original_dtype": "float32"}}, {"name": "StatefulPartitionedCall/model_2/conv2d_39/Conv2D_weights", "shape": [3, 3, 256, 512], "dtype": "float32", "quantization": {"dtype": "uint8", "min": -0.7872757215125887, "scale": 0.006671828148411769, "original_dtype": "float32"}}, {"name": "StatefulPartitionedCall/model_2/conv2d_39/Conv2D_bn_offset", "shape": [512], "dtype": "float32", "quantization": {"dtype": "uint8", "min": -3.2271016267584822, "scale": 0.013390463181570465, "original_dtype": "float32"}}, {"name": "StatefulPartitionedCall/model_2/conv2d_40/Conv2D_weights", "shape": [1, 1, 512, 256], "dtype": "float32", "quantization": {"dtype": "uint8", "min": -0.3595131121429742, "scale": 0.0031262009751562977, "original_dtype": "float32"}}, {"name": "StatefulPartitionedCall/model_2/conv2d_40/Conv2D_bn_offset", "shape": [256], "dtype": "float32", "quantization": {"dtype": "uint8", "min": -1.2632808334687176, "scale": 0.007656247475567986, "original_dtype": "float32"}}, {"name": "StatefulPartitionedCall/model_2/conv2d_41/Conv2D_weights", "shape": [3, 3, 256, 512], "dtype": "float32", "quantization": {"dtype": "uint8", "min": -0.36097633663345785, "scale": 0.0033736106227425966, "original_dtype": "float32"}}, {"name": "StatefulPartitionedCall/model_2/conv2d_41/Conv2D_bn_offset", "shape": [512], "dtype": "float32", "quantization": {"dtype": "uint8", "min": -1.336959899406807, "scale": 0.005738025319342519, "original_dtype": "float32"}}, {"name": "StatefulPartitionedCall/model_2/conv2d_42/Conv2D_weights", "shape": [1, 1, 512, 256], "dtype": "float32", "quantization": {"dtype": "uint8", "min": -0.20775696787179684, "scale": 0.002258227911649966, "original_dtype": "float32"}}, {"name": "StatefulPartitionedCall/model_2/conv2d_42/Conv2D_bn_offset", "shape": [256], "dtype": "float32", "quantization": {"dtype": "uint8", "min": -1.6339735659898496, "scale": 0.007529832101335713, "original_dtype": "float32"}}, {"name": "StatefulPartitionedCall/model_2/conv2d_43/Conv2D_weights", "shape": [3, 3, 256, 512], "dtype": "float32", "quantization": {"dtype": "uint8", "min": -0.7484277584973503, "scale": 0.0075598763484580845, "original_dtype": "float32"}}, {"name": "StatefulPartitionedCall/model_2/conv2d_69/Conv2D_weights", "shape": [1, 1, 384, 128], "dtype": "float32", "quantization": {"dtype": "uint8", "min": -0.2520315548952888, "scale": 0.0019093299613279454, "original_dtype": "float32"}}, {"name": "StatefulPartitionedCall/model_2/conv2d_43/Conv2D_bn_offset", "shape": [512], "dtype": "float32", "quantization": {"dtype": "uint8", "min": -1.9334233508390537, "scale": 0.009667116754195269, "original_dtype": "float32"}}, {"name": "StatefulPartitionedCall/model_2/conv2d_44/Conv2D_weights", "shape": [3, 3, 512, 1024], "dtype": "float32", "quantization": {"dtype": "uint8", "min": -0.0653751276287378, "scale": 0.0006670931390687532, "original_dtype": "float32"}}, {"name": "StatefulPartitionedCall/model_2/conv2d_44/Conv2D_bn_offset", "shape": [1024], "dtype": "float32", "quantization": {"dtype": "uint8", "min": -2.4648357720936045, "scale": 0.013041459111606373, "original_dtype": "float32"}}, {"name": "StatefulPartitionedCall/model_2/conv2d_45/Conv2D_weights", "shape": [1, 1, 1024, 512], "dtype": "float32", "quantization": {"dtype": "uint8", "min": -0.6727533305392546, "scale": 0.008970044407190061, "original_dtype": "float32"}}, {"name": "StatefulPartitionedCall/model_2/conv2d_69/Conv2D_bn_offset", "shape": [128], "dtype": "float32", "quantization": {"dtype": "uint8", "min": -1.2909142774694105, "scale": 0.010939951503978055, "original_dtype": "float32"}}, {"name": "StatefulPartitionedCall/model_2/conv2d_45/Conv2D_bn_offset", "shape": [512], "dtype": "float32", "quantization": {"dtype": "uint8", "min": -1.8611203509218552, "scale": 0.011012546455158907, "original_dtype": "float32"}}, {"name": "StatefulPartitionedCall/model_2/conv2d_46/Conv2D_weights", "shape": [3, 3, 512, 1024], "dtype": "float32", "quantization": {"dtype": "uint8", "min": -0.31973139538484463, "scale": 0.0025994422389011757, "original_dtype": "float32"}}, {"name": "StatefulPartitionedCall/model_2/conv2d_46/Conv2D_bn_offset", "shape": [1024], "dtype": "float32", "quantization": {"dtype": "uint8", "min": -2.0265621433071064, "scale": 0.011991491972231398, "original_dtype": "float32"}}, {"name": "StatefulPartitionedCall/model_2/conv2d_47/Conv2D_weights", "shape": [1, 1, 1024, 512], "dtype": "float32", "quantization": {"dtype": "uint8", "min": -0.4603069245815277, "scale": 0.005826669931411743, "original_dtype": "float32"}}, {"name": "StatefulPartitionedCall/model_2/conv2d_47/Conv2D_bn_offset", "shape": [512], "dtype": "float32", "quantization": {"dtype": "uint8", "min": -1.789683073057848, "scale": 0.00848191029885236, "original_dtype": "float32"}}, {"name": "StatefulPartitionedCall/model_2/conv2d_48/Conv2D_weights", "shape": [3, 3, 512, 1024], "dtype": "float32", "quantization": {"dtype": "uint8", "min": -0.35103599709623, "scale": 0.0030003076674891454, "original_dtype": "float32"}}, {"name": "StatefulPartitionedCall/model_2/conv2d_70/Conv2D_weights", "shape": [3, 3, 128, 256], "dtype": "float32", "quantization": {"dtype": "uint8", "min": -0.25331974730772133, "scale": 0.0023029067937065575, "original_dtype": "float32"}}, {"name": "StatefulPartitionedCall/model_2/conv2d_48/Conv2D_bn_offset", "shape": [1024], "dtype": "float32", "quantization": {"dtype": "uint8", "min": -1.561959149790745, "scale": 0.008220837630477606, "original_dtype": "float32"}}, {"name": "StatefulPartitionedCall/model_2/conv2d_49/Conv2D_weights", "shape": [1, 1, 1024, 512], "dtype": "float32", "quantization": {"dtype": "uint8", "min": -0.40852083879358625, "scale": 0.0034043403232798856, "original_dtype": "float32"}}, {"name": "StatefulPartitionedCall/model_2/conv2d_74/Conv2D_bn_offset", "shape": [256], "dtype": "float32", "quantization": {"dtype": "uint8", "min": -2.1779545194962444, "scale": 0.018938734952141257, "original_dtype": "float32"}}, {"name": "StatefulPartitionedCall/model_2/conv2d_49/Conv2D_bn_offset", "shape": [512], "dtype": "float32", "quantization": {"dtype": "uint8", "min": -1.4833935015341815, "scale": 0.006964288739597096, "original_dtype": "float32"}}, {"name": "StatefulPartitionedCall/model_2/conv2d_50/Conv2D_weights", "shape": [3, 3, 512, 1024], "dtype": "float32", "quantization": {"dtype": "uint8", "min": -0.5020387677585377, "scale": 0.004648507108875349, "original_dtype": "float32"}}, {"name": "StatefulPartitionedCall/model_2/conv2d_70/Conv2D_bn_offset", "shape": [256], "dtype": "float32", "quantization": {"dtype": "uint8", "min": -1.3952364075417614, "scale": 0.012800334014144599, "original_dtype": "float32"}}, {"name": "StatefulPartitionedCall/model_2/conv2d_50/Conv2D_bn_offset", "shape": [1024], "dtype": "float32", "quantization": {"dtype": "uint8", "min": -1.4679910435396082, "scale": 0.008155505797442267, "original_dtype": "float32"}}, {"name": "StatefulPartitionedCall/model_2/conv2d_51/Conv2D_weights", "shape": [1, 1, 1024, 512], "dtype": "float32", "quantization": {"dtype": "uint8", "min": -0.33932146675446456, "scale": 0.0030028448385350844, "original_dtype": "float32"}}, {"name": "StatefulPartitionedCall/model_2/conv2d_51/Conv2D_bn_offset", "shape": [512], "dtype": "float32", "quantization": {"dtype": "uint8", "min": -1.8567664783374935, "scale": 0.008215780877599528, "original_dtype": "float32"}}, {"name": "StatefulPartitionedCall/model_2/conv2d_52/Conv2D_weights", "shape": [3, 3, 512, 1024], "dtype": "float32", "quantization": {"dtype": "uint8", "min": -1.4740991405412263, "scale": 0.011887896294687308, "original_dtype": "float32"}}, {"name": "StatefulPartitionedCall/model_2/conv2d_52/Conv2D_bn_offset", "shape": [1024], "dtype": "float32", "quantization": {"dtype": "uint8", "min": -1.9371277023764217, "scale": 0.01153052203795489, "original_dtype": "float32"}}, {"name": "StatefulPartitionedCall/model_2/conv2d_53/Conv2D_weights", "shape": [1, 1, 1024, 512], "dtype": "float32", "quantization": {"dtype": "uint8", "min": -0.2807403954805112, "scale": 0.0020197150753993613, "original_dtype": "float32"}}, {"name": "StatefulPartitionedCall/model_2/conv2d_71/Conv2D_weights", "shape": [1, 1, 256, 128], "dtype": "float32", "quantization": {"dtype": "uint8", "min": -0.4454427906111175, "scale": 0.00428310375587613, "original_dtype": "float32"}}, {"name": "StatefulPartitionedCall/model_2/conv2d_53/Conv2D_bn_offset", "shape": [512], "dtype": "float32", "quantization": {"dtype": "uint8", "min": -0.4975128915964388, "scale": 0.0045643384550132, "original_dtype": "float32"}}, {"name": "StatefulPartitionedCall/model_2/conv2d_54/Conv2D_weights", "shape": [3, 3, 512, 1024], "dtype": "float32", "quantization": {"dtype": "uint8", "min": -0.2766483212218565, "scale": 0.0017399265485651353, "original_dtype": "float32"}}, {"name": "StatefulPartitionedCall/model_2/conv2d_54/Conv2D_bn_offset", "shape": [1024], "dtype": "float32", "quantization": {"dtype": "uint8", "min": -1.7680341767329795, "scale": 0.01148074140735701, "original_dtype": "float32"}}, {"name": "StatefulPartitionedCall/model_2/conv2d_55/Conv2D_weights", "shape": [1, 1, 1024, 512], "dtype": "float32", "quantization": {"dtype": "uint8", "min": -0.6163766683316698, "scale": 0.0035835852809980805, "original_dtype": "float32"}}, {"name": "StatefulPartitionedCall/model_2/conv2d_71/Conv2D_bn_offset", "shape": [128], "dtype": "float32", "quantization": {"dtype": "uint8", "min": -0.8627955523191714, "scale": 0.0071305417547038955, "original_dtype": "float32"}}, {"name": "StatefulPartitionedCall/model_2/conv2d_55/Conv2D_bn_offset", "shape": [512], "dtype": "float32", "quantization": {"dtype": "uint8", "min": -1.1391494204016293, "scale": 0.007594329469344195, "original_dtype": "float32"}}, {"name": "StatefulPartitionedCall/model_2/conv2d_56/Conv2D_weights", "shape": [3, 3, 512, 1024], "dtype": "float32", "quantization": {"dtype": "uint8", "min": -0.2818649960499184, "scale": 0.002151641191220751, "original_dtype": "float32"}}, {"name": "StatefulPartitionedCall/model_2/conv2d_56/Conv2D_bn_offset", "shape": [1024], "dtype": "float32", "quantization": {"dtype": "uint8", "min": -2.381658845789292, "scale": 0.014176540748745787, "original_dtype": "float32"}}, {"name": "StatefulPartitionedCall/model_2/conv2d_57/Conv2D_weights", "shape": [1, 1, 1024, 512], "dtype": "float32", "quantization": {"dtype": "uint8", "min": -0.4636107171283048, "scale": 0.003962484761780383, "original_dtype": "float32"}}, {"name": "StatefulPartitionedCall/model_2/conv2d_57/Conv2D_bn_offset", "shape": [512], "dtype": "float32", "quantization": {"dtype": "uint8", "min": -1.1574424276164934, "scale": 0.009334213125939463, "original_dtype": "float32"}}, {"name": "StatefulPartitionedCall/model_2/conv2d_58/Conv2D_weights", "shape": [3, 3, 512, 1024], "dtype": "float32", "quantization": {"dtype": "uint8", "min": -0.3759845537297866, "scale": 0.002848367831286262, "original_dtype": "float32"}}, {"name": "StatefulPartitionedCall/model_2/conv2d_72/Conv2D_weights", "shape": [3, 3, 128, 256], "dtype": "float32", "quantization": {"dtype": "uint8", "min": -0.31646573368240805, "scale": 0.0025317258694592644, "original_dtype": "float32"}}, {"name": "StatefulPartitionedCall/model_2/conv2d_58/Conv2D_bn_offset", "shape": [1024], "dtype": "float32", "quantization": {"dtype": "uint8", "min": -2.3788393469417795, "scale": 0.019184188281788545, "original_dtype": "float32"}}, {"name": "StatefulPartitionedCall/model_2/conv2d_60/Conv2D_weights", "shape": [1, 1, 512, 256], "dtype": "float32", "quantization": {"dtype": "uint8", "min": -0.40374792183146757, "scale": 0.003058696377511118, "original_dtype": "float32"}}, {"name": "StatefulPartitionedCall/model_2/conv2d_72/Conv2D_bn_offset", "shape": [256], "dtype": "float32", "quantization": {"dtype": "uint8", "min": -1.5842323920306038, "scale": 0.01277606767766616, "original_dtype": "float32"}}, {"name": "StatefulPartitionedCall/model_2/conv2d_60/Conv2D_bn_offset", "shape": [256], "dtype": "float32", "quantization": {"dtype": "uint8", "min": -0.6871835376702103, "scale": 0.007310463166704365, "original_dtype": "float32"}}, {"name": "StatefulPartitionedCall/model_2/conv2d_61/Conv2D_weights", "shape": [1, 1, 768, 256], "dtype": "float32", "quantization": {"dtype": "uint8", "min": -0.24804361117821114, "scale": 0.0018105373078701544, "original_dtype": "float32"}}, {"name": "Func/StatefulPartitionedCall/input/_366", "shape": [1, 1, 1024, 18], "dtype": "float32", "quantization": {"dtype": "uint8", "min": -0.11642616496366613, "scale": 0.0009095794137786417, "original_dtype": "float32"}}, {"name": "Func/StatefulPartitionedCall/input/_367", "shape": [18], "dtype": "float32", "quantization": {"dtype": "uint8", "min": -0.02271224913351676, "scale": 0.00023414689828367796, "original_dtype": "float32"}}, {"name": "Func/StatefulPartitionedCall/input/_364", "shape": [1, 1, 512, 18], "dtype": "float32", "quantization": {"dtype": "uint8", "min": -0.13816184272953108, "scale": 0.0011052947418362486, "original_dtype": "float32"}}, {"name": "Func/StatefulPartitionedCall/input/_365", "shape": [18], "dtype": "float32", "quantization": {"dtype": "uint8", "min": -0.030094972077537984, "scale": 0.00027865714886609244, "original_dtype": "float32"}}, {"name": "StatefulPartitionedCall/model_2/up_sampling2d_1/Const", "shape": [2], "dtype": "int32"}, {"name": "StatefulPartitionedCall/model_2/up_sampling2d_1/strided_slice/stack_1", "shape": [1], "dtype": "int32"}, {"name": "StatefulPartitionedCall/model_2/up_sampling2d_1/strided_slice/stack", "shape": [1], "dtype": "int32"}, {"name": "StatefulPartitionedCall/model_2/zero_padding2d_5/Pad/paddings", "shape": [4, 2], "dtype": "int32"}, {"name": "StatefulPartitionedCall/model_2/concatenate_1/concat/axis", "shape": [], "dtype": "int32"}, {"name": "Func/StatefulPartitionedCall/input/_362", "shape": [1, 1, 256, 18], "dtype": "float32", "quantization": {"dtype": "uint8", "min": -0.18908547636340647, "scale": 0.0012862957575741937, "original_dtype": "float32"}}, {"name": "Func/StatefulPartitionedCall/input/_363", "shape": [18], "dtype": "float32", "quantization": {"dtype": "uint8", "min": -0.040886815193602266, "scale": 0.00018669778627215648, "original_dtype": "float32"}}]}]}